ml modern painting/Public/style_new (1).onnx (onnx, 53268 bytes, 109 tensors)

blocks.1.weight f4 [16, 3, 3, 3]
00000000: c305 903e f8f1 a43d d89d 4e3d a1f1 01bd
00000010: 77cf e9bd 3927 4cbd 91bf 65be 6a39 93be
00000020: fdfe 86be ba21 a73e 47a0 193e 3068 ae3d
00000030: 4ac6 28bc e560 05be 2843 e7bc a05c 89be
00000040: bab8 98be 33ec 95be 5c0c 7d3e ba54 f43d
00000050: b534 e83d 6a74 fcbc 899f e3bd 2bce 26bd
00000060: 897b 69be 9509 80be 06e7 3abe 0a66 983e
00000070: d638 6abe e85a f2be 3d4d 063f b21f 10bb
00000080: 918d acbe 9bb3 923e 188b 143e e438 9e3e
00000090: 5ea1 643e c35e 7dbe 6427 e8be 9453 f63e
000000a0: f8fe 40bd ae72 a5be f451 963e 0aab 0a3e
000000b0: 023c a83e 5213 473e 45af 73be 7bc3 d2be
000000c0: 7387 ea3e afa5 91bd c7b1 91be acf0 853e
000000d0: 0419 0c3e 6d0b ad3e dd8c f03d 90a2 d23d
000000e0: 5dcf 9f3e fc7b a33d 6b4e fb3c cea3 a73e
000000f0: 9e99 a33e 957d ae3e 43df af3e f369 c0bd
00000100: 7fe3 58bd dc0e b2bc 89fe 36bd 2a83 b0bc
00000110: 8f2c 143d 5b6c 863d 9201 f23d 339a d13d
00000120: 764c b7be 3078 d0be c0dc a1be 4e43 8cbe
00000130: 5afc 10be 21d4 5fbe 2d24 57be 8b78 bcbd
00000140: 6fbf 45be 9a9a 30bd 35ec 993c 5f64 bc3d
00000150: 0815 02bd 5291 5b3d c975 7f3d 0230 afbc
00000160: 59c6 643d 4e78 6b3d 6d02 58be 7054 2dbe
00000170: f266 893d 700e 3dbe 6a64 44bc 55fe 2d3d
00000180: 1798 4dbe 3666 1cbc 5869 76bc ea72 3cbe
00000190: db91 1bbe 1673 ee3d 550d e7bd 60cd 383d
000001a0: 552a e73d 27bb bebd b593 bf3c a446 c1ba
000001b0: 162b 943d 0c15 b13d 45c6 343d e33e b03d
000001c0: 099c a43d 1187 063d 0e2b a53d 3787 873d
000001d0: 2d2f 373b 53d9 623d 5364 a13d 1d10 133d
000001e0: 3cba 8e3d c0d9 9d3d 7c2b c63c 7a35 883d
000001f0: c9a4 6e3d 6224 74bc 5d47 3d3d 2c1b 973d
00000200: 439d 253d 49ee 823d 8d75 9b3d bdf0 053d
00000210: 467d 723d 07f0 6f3d 7181 8d3a 9b5c 96bd
00000220: 098e 94bd 6fdd 9cbd 1d37 8abd cf62 86bd
00000230: 6495 91bd 6835 26bd 97c5 50bd 8b42 5dbd
00000240: ac1f a4bd 47de 9abd 9165 9fbd 2b5d 8abd
00000250: c655 80bd 87e8 90bd 2cb9 bcbc daf1 21bd
00000260: f02e 3cbd c29f 6abd 3908 68bd 0784 6fbd
00000270: 35d9 19bd 6612 32bd 26c5 4fbd c450 173c
00000280: 8b16 28bc 7def b4bc 2e09 d73d 9fd3 38bb
00000290: abda 0fbe 97f4 5cbd 0960 27be cede dbbd
000002a0: c43c 99bd aaeb e4bd 5dd8 7d3d 6180 c33d
000002b0: 859a 7bbb 04f1 e8bd 4c5e 9dbd ff05 1abe
000002c0: 101e a3bd 1ca4 89bd e833 b3bd 67a4 a13d
000002d0: be77 c63d 0ad3 543c 5bf0 a4bd c5cc 8dbd
000002e0: eb6b 14be 809e 40bd fef3 c8bd ae17 dbbd
000002f0: 8ced c53d 07a2 a6bc 806f 943c 7d19 3fbe
00000300: daff 5ebd f4a0 98bd 4d7f 2dbe 78ad 393d
00000310: dba2 3f3d 35c0 0f3e 3cdf dcbd 84aa 87bc
00000320: cfb9 5dbe a193 c1bd 96b3 cdbd c0f0 50be
00000330: c630 a93d 156b 9f3d a526 7c3e b3a7 48bd
00000340: c33b 5d3a 0b1e e0bd c7b5 d6bd 36e8 ebbd
00000350: 628c eabd d747 e63d 0386 963d ab01 243e
00000360: 7ee4 6dbc 5d9c 1d3d b23e db3d 306e a43c
00000370: 88ed 993d b098 0c3e ec70 e33b 5b57 303d
00000380: 1ac7 ab3d e492 65bc e065 3e3d c189 c93d
00000390: 15c4 a63c 4a96 af3d 780e 093e cc7f 3cbb
000003a0: 2ec4 213d fdec 843d f592 483b 537f 2f3d
000003b0: b302 a43d ddac 093d 1503 bb3d baef ea3d
000003c0: aaed 8dbb 6aec 273d c80b 493d 38cb 7c3d
000003d0: 6034 8c3d 82e5 9a3d a1d7 863d a4e4 a03d
000003e0: 0419 b43d 21b8 493d 06d3 7f3d 28a8 9c3d
000003f0: 68bf 223d 62af 4a3d 94d9 873d 1abf 493d
0.28129396 0.080539644 0.0504435 -0.031724576 -0.11416524 -0.049842093 -0.22436358 -0.2875474
-0.26366416 0.3264292 0.15002547 0.08515966 -0.010301182 -0.13025244 -0.028230265 -0.2682848
-0.29828435 -0.29281768 0.24711746 0.11930223 0.11338178 -0.03081723 -0.11114413 -0.04072396
-0.22801031 -0.2500731 -0.18252191 0.2976535 -0.22873244 -0.4733498 0.52461606 -0.0021991548
-0.33701757 0.28652653 0.14506185 0.3090278 0.22327182 -0.2474318 -0.45342553 0.4811064
-0.047118157 -0.32314056 0.293594 0.13541809 0.32858282 0.19440964 -0.23797329 -0.41164765
0.45806465 -0.0711168 -0.28455946 0.2616018 0.13681418 0.3379778 0.117456175 0.102849126
0.31212893 0.079826325 0.030677041 0.3274216 0.31953138 0.34080186 0.34350023 -0.09395208
-0.052951332 -0.021735601 -0.044676337 -0.021546919 0.036175307 0.06563636 0.11816706 0.10234489
-0.35800523 -0.40716696 -0.3161373 -0.273951 -0.14158764 -0.21858265 -0.21009894 -0.09202679
-0.19311307 -0.04311619 0.01878939 0.09198832 -0.03175834 0.053605385 0.062368188 -0.021385197
0.05585322 0.05748778 -0.21094675 -0.16926742 0.067090884 -0.18462539 -0.011986831 0.042478878
-0.20077549 -0.009545853 -0.015039764 -0.18403211 -0.15192358 0.11643045 -0.1128184 0.045117736
0.11287371 -0.0931304 0.023385862 -0.0014745784 0.072347805 0.086465925 0.044134397 0.08605745
0.08037574 0.032843653 0.08064853 0.06617587 0.0027951703 0.055383038 0.078804635 0.03590404
0.06969115 0.07707548 0.024190657 0.06650825 0.05826262 -0.014901252 0.046210635 0.073782295
0.04043318 0.063931055 0.075907804 0.03270029 0.0592015 0.058578517 0.0010796023 -0.07341882
-0.072536536 -0.076594226 -0.06748793 -0.06561815 -0.07108572 -0.040578276 -0.050969686 -0.05401854
-0.080138534 -0.07561927 -0.07783044 -0.06756052 -0.0626636 -0.07075601 -0.023037516 -0.03953729
-0.0459432 -0.057281263 -0.056648467 -0.05847552 -0.03756066 -0.043474577 -0.050725125 0.009235565
-0.010259281 -0.022086853 0.10499798 -0.0028202308 -0.14048259 -0.053944197 -0.16345228 -0.10735856
-0.07482293 -0.11177762 0.06197392 0.09545971 -0.0038391661 -0.11374095 -0.07684001 -0.1504135
-0.07964718 -0.067207545 -0.08750135 0.078926854 0.09690808 0.012989769 -0.08053657 -0.06923822
-0.14494292 -0.047026157 -0.09812163 -0.10697876 0.09664449 -0.020340933 0.018119574 -0.18662067
-0.054443218 -0.07452574 -0.16943093 0.04533145 0.04678617 0.14038165 -0.10784766 -0.0165608
-0.21652912 -0.09451986 -0.10044019 -0.20404339 0.08261256 0.07784096 0.24624117 -0.048988055
0.0008439386 -0.1094323 -0.1048389 -0.115189 -0.11452557 0.11244171 0.073497795 0.16016261
-0.014519809 0.038479198 0.107053176 0.020072073 0.075160086 0.1373012 0.0069409516 0.04305206
0.08387585 -0.014012072 0.046483874 0.098407276 0.020357171 0.08573587 0.13384426 -0.0028762696
0.039493732 0.064905144 0.0030605171 0.042846035 0.08008327 0.03361212 0.09131447 0.114715055
-0.0043313103 0.040996946 0.0490835 0.061717242 0.06845927 0.075633064 0.06584097 0.0785611
0.08793834 0.049247865 0.062457107 0.07649261 0.03973332 0.049483664 0.066332966 0.049254514

blocks.2.bias f4 [16]
00000000: c8df 323e d07b 63bd e777 d4be 783c 34be
00000010: 5e70 1e3d eab7 46be 66b3 d63d 9e56 203c
00000020: 39ee 10bc aeb9 293e bfd3 313f 5a5d 2a3e
00000030: 6bca d33e cc79 a63c 4742 ee3d 2555 213f
0.17468178 -0.055538 -0.41497728 -0.17601192 0.03868138 -0.19406095 0.10483436 0.009786276
-0.008845859 0.16574737 0.69463724 0.16637173 0.4136537 0.02032175 0.11633735 0.63020545

blocks.2.running_mean f4 [16]
00000000: 0a47 21c3 99f7 1543 e654 a241 9dad 98c2
00000010: fdf8 2743 6116 28c3 13f4 0ec3 170f abc2
00000020: c3b7 2343 36ed 2f43 4e3f 1ac3 5e87 33c3
00000030: 80e6 2d43 17fe 1e42 682f f6c2 a1ba a843
-161.2775 149.96718 20.291454 -76.33909 167.97261 -168.08742 -142.95341 -85.52947
163.71782 175.9266 -154.24728 -179.52878 173.90039 39.748135 -123.09259 337.45804

blocks.2.running_var f4 [16]
00000000: 6a85 1e46 accc 2746 35e3 0d46 d54c 2645
00000010: aef0 1346 653e 1146 be35 d845 d9b9 2e45
00000020: 4f4a 0e46 8b6e 1f46 8290 0746 7fd8 2946
00000030: 58b1 1d46 ebb8 5645 2587 bd45 dd9b 1447
10145.354 10739.168 9080.802 2660.802 9468.17 9295.599 6918.718 2795.6155
9106.577 10203.636 8676.127 10870.124 10092.336 3435.5574 6064.893 38043.863

blocks.2.weight f4 [16]
00000000: 9c1e fb3e fa84 953f 2c0f a63e d02e 343e
00000010: 10b3 1d3f 8137 8f3f 3576 b33e 57de 0a3e
00000020: 3480 813f 23a6 083f 6476 9a3e 7b0a 0a3f
00000030: 0555 c73e f62e b13e 1b1a 9b3e 12c1 703f
0.4904679 1.1681206 0.3243345 0.17595983 0.6160135 1.1188813 0.35051122 0.13561378
1.011725 0.53378505 0.3016845 0.5392224 0.38932052 0.3460614 0.30293354 0.940446

blocks.3.blocks.10.bias f4 [16]
00000000: ae4a ef3e dd75 27bf aead 87bd d49c c4bc
00000010: ba6f 9ebe a63f 58be 95d0 dabe f0b4 3dbf
00000020: 02c4 e2be b702 05bf 33fe 34bf 8299 76bd
00000030: e667 933e cd29 d03d 2ae5 bb3e 7520 91be
0.46736664 -0.6541422 -0.06624924 -0.024000563 -0.30944616 -0.2111803 -0.4273726 -0.74104214
-0.44290167 -0.5195727 -0.7070038 -0.06020499 0.28790206 0.10164223 0.36698276 -0.28345075

blocks.3.blocks.10.running_mean f4 [16]
00000000: e6ae d440 8e9e c6bd 31ec 9e3f 5643 8940
00000010: b9c7 2840 fbc0 a73f 8cbf b840 03f9 2040
00000020: 7889 6fbf 00bc 143f cffc 97c0 807f dbc0
00000030: b3ab ec40 9864 8e40 ce49 9541 89ea 323f
6.64635 -0.09698211 1.241583 4.2894697 2.63719 1.3105768 5.773382 2.5151985
-0.93569136 0.58099365 -4.7496104 -6.859314 7.3959594 4.4497795 18.661037 0.6988912

blocks.3.blocks.10.running_var f4 [16]
00000000: 7869 aa41 3193 bd40 853c 4341 a35c 8a41
00000010: 74c3 2141 03bb e441 eaef 1842 aec7 7241
00000020: 0b6c b840 eed6 3641 5227 8041 3b69 cf41
00000030: 3464 8641 059e 8942 ecfd ab42 db8b 0c41
21.301498 5.9242177 12.202275 17.295233 10.110218 28.591314 38.23429 15.17375
5.763189 11.427473 16.0192 25.926382 16.798927 68.80863 85.99594 8.784144

blocks.3.blocks.10.weight f4 [16]
00000000: a6ac 063f 5a86 5b3f 67a8 493f 28c5 1b3f
00000010: c798 5c3f 0c5d 763f c43f 993f 2958 553f
00000020: 8006 573f 2c93 433f 8571 843f 6713 5d3f
00000030: 7782 133f 7f35 843f 96d5 5e3f 57af 483f
0.5260719 0.8575188 0.78772587 0.6084771 0.8617062 0.9623573 1.1972585 0.83337647
0.83994293 0.7639644 1.0347143 0.8635773 0.5762095 1.0328826 0.87044656 0.7839255

blocks.3.blocks.12.bias f4 [16]
00000000: 2f71 d936 fe25 4bb6 9395 d6b5 2ce1 7c35
00000010: d6d5 fc35 b9b5 96b6 bc3c 2337 45d1 75b7
00000020: 361e 5436 b683 24b5 9cb2 19b6 c5eb 94b6
00000030: 734a a8b6 26d4 ccb6 9f3b 3a35 0bdf 80b5
6.4802803e-06 -3.0271472e-06 -1.5987774e-06 9.4204984e-07 1.8837698e-06 -4.4915037e-06 9.729698e-06 -1.4651862e-05
3.1608047e-06 -6.1286426e-07 -2.290274e-06 -4.438191e-06 -5.015457e-06 -6.104371e-06 6.937716e-07 -9.601657e-07

blocks.3.blocks.12.weight f4 [16, 16, 2, 2]
00000000: f731 343e d93e 5e3e 68c4 2d3e f3b3 0e3e
00000010: e4c2 d83b f587 9ebc 3e65 dabd f329 dfbd
00000020: 3bea 47be 8944 11be d3d1 ee3d 0c70 85be
00000030: 167b a93c 14ca 81be a818 c63e f38c 683b
00000040: 3873 043e fbeb 463e ecef 9e3e 36b0 cdbc
00000050: 5b0a b1bd 066c 88be dcd9 763e a737 aabe
00000060: cc1c 723e 21ef 4dbd 438e cbbb 953c 713e
00000070: 16f6 563e 5845 473e eae1 053d 706e 3fbd
00000080: cd88 92bd f0fc 1e3d ce1e d6bd 0e27 2c3e
00000090: 09fe a0bd cffe 5cbe 7a4f 9cbe 465b 28be
000000a0: 7a00 b0bb f9cc 4d3e 1d18 963e f85b af3e
000000b0: 3163 0b3e 1ba0 e9bd 6d8f 01be 6f6c fabe
000000c0: f0d2 a93d 2afb 8e3d 02a1 92be 56de 8e3d
000000d0: 97ac 853c 628e 8dbe 0c5e 023e 5694 35be
000000e0: 6cb9 1f3e 10a4 fe3e 0466 613e 7885 0b3f
000000f0: dc4e b8bd 3682 d9be ac04 2cbc f7a0 f83d
00000100: 8b23 c53d 7900 823c 26c6 05be e7b9 a8bd
00000110: aac1 c33c 763f 743d 5d49 7c3c 995e ac39
00000120: e5c7 e9bc 1b88 65bc bb70 f73d 08a5 46bd
00000130: d907 a0bd daad 46be 65ef a83d 1df4 dcbd
00000140: 8f14 1ebd eaff 8cbd 6356 20be 76dd 26bd
00000150: 609b ed3d 461d 8c3e aa28 6bbd 871d 603e
00000160: d5e6 3abe c2c8 09bf 314e f0be f636 7dbe
00000170: b820 103f ce74 603e 1332 683e 2dee f63e
00000180: 1d83 e33d 1bcb 8a3c 77ea 36bd a1eb afbd
00000190: 206d 88bd a14d 0e3e 9d94 0d3d 6d3a 1a3d
000001a0: b970 36bd a804 a5be dffe 61be 13b8 21be
000001b0: 56b1 21be e49c 303d a487 6b3d 6e70 ecbd
000001c0: 8b46 c43e 0c70 0f3e 9655 063f bd50 d03d
000001d0: b411 a63c 9a03 0d3e 816c 293e fff3 233e
000001e0: 04c0 3ebc f25e 5cbe c1fe 9ebe ca1c ec3c
000001f0: 3829 763e fe68 bb3e 6fda 023f 508b bc3e
00000200: fd8f 48be b374 fabc a190 6e3e d7c0 89be
00000210: 1964 a5be 2e4c bbbd 3c61 5fbe a8db 90be
00000220: 3bab 52bd 3760 2dbd a87a 083d 9100 8bbd
00000230: e368 8fbe 5f09 6fbe 32cf 59bd 0648 1fbe
00000240: c236 353d 06e0 15be ea36 89bd ebb4 8c3c
00000250: 93ff 283d e061 813c 7e8b 36be c5ed 26be
00000260: 6134 713e 9010 19bd e885 57bd ba51 cb3e
00000270: 8011 e63b 458d 0ebe 4aed d63d 1bcb 53be
00000280: 37af f7bc 31c5 2fbe 3dc8 933d 3f76 f7bd
00000290: 08b0 ddbd e251 a1bd 701e 9a3d 1993 90be
000002a0: a2ca 8a3e 0a95 253d 77a6 8f3e d941 d23e
000002b0: 5bb3 88bd b2ef 89bd 3f8c 80bb f53f 81be
000002c0: 4766 713e 971a b0bc 466d 1bbc 9130 aeba
000002d0: 65b5 f5be 9a99 7abe c006 23bf ab4f d4be
000002e0: a2e8 863e 7b3f cbbd 740b 253a d9c0 913e
000002f0: 5b78 183d 8b8a c53e 3e6d fcbe e54d 05be
00000300: 31a1 483d 06e3 923e d25d 8d3e 1788 d53d
00000310: c640 fbbc 8dcd e4bc e687 10be bcda 00be
00000320: dcf8 023e 3f50 e9bd efcd 793e 195a aa3d
00000330: 31b1 8d3e 920a 02be 9779 7b3e cd3f 0bbe
00000340: 39dc 0cbe b285 8dbd 6dd1 67bd 3609 17be
00000350: 4a64 fa3e f931 9b3c 6399 5b3e ee71 16bd
00000360: d7b1 6bbc 8359 793d e5a3 cabd d036 eb3e
00000370: 8cdc 8cbc 903a 1e3e ec11 8f3d 8d64 ce3d
00000380: ba90 d038 f4b0 9c3d 276a f73d 2dfb 123e
00000390: ef07 093e 5d36 c53b c9f0 2bbd 9f80 f33d
000003a0: 214d fd3e e19e 8f3e b387 623c e939 f13e
000003b0: c7e8 12bd 100f b7bd 2e54 afba 156d 7e3d
000003c0: 935c a63e 60af e73e 93ec 1d3d 61ff 923e
000003d0: a70c af3c 54af debd c8ed d33a 6135 5ebe
000003e0: 69d2 923e c48e 833d 40aa 24be 552d 91bd
000003f0: 9142 323e 1375 02bd 98fa ebbe 0a48 90bc
0.17597185 0.21703662 0.16969454 0.13935833 0.0066150296 -0.019351939 -0.10663842 -0.10896673
-0.19522946 -0.141863 0.116611145 -0.26062047 0.020688575 -0.25349486 0.38690686 0.0035484403
0.12934577 0.19425957 0.3104242 -0.025108438 -0.08644553 -0.26644915 0.24106544 -0.33245584
0.23643798 -0.05027688 -0.0062120273 0.23558266 0.20992312 0.19460046 0.03268615 -0.04673618
-0.07154999 0.03881544 -0.10455094 0.16811773 -0.07860953 -0.21581577 -0.30529386 -0.16441068
-0.0053711506 0.20097722 0.29315272 0.34249854 0.13612057 -0.11407491 -0.12652369 -0.48910853
0.08292186 0.069814995 -0.28638464 0.06976001 0.016317649 -0.27647692 0.12731189 -0.17732367
0.15598077 0.49734545 0.22011572 0.5450053 -0.08999416 -0.42482156 -0.010499161 0.121400766
0.0962592 0.015869366 -0.13063869 -0.08238583 0.023896057 0.059630834 0.015398351 0.00032876877
-0.0285377 -0.014009501 0.120820485 -0.04849723 -0.07813997 -0.19402257 0.08248786 -0.107887484
-0.038593825 -0.06884749 -0.15657954 -0.040738545 0.11601901 0.27366084 -0.057411827 0.21886264
-0.18252118 -0.5382196 -0.46934655 -0.24727997 0.56299925 0.21919557 0.22675352 0.4822859
0.11108992 0.016942551 -0.044657197 -0.085898645 -0.06661439 0.138968 0.034565557 0.037653375
-0.044541094 -0.32230115 -0.22069882 -0.15792875 -0.15790305 0.043118373 0.057502404 -0.11544882
0.3833507 0.14007586 0.52474344 0.101716496 0.020272113 0.13770905 0.16545297 0.16011046
-0.01164246 -0.21520594 -0.31053737 0.028822321 0.24039161 0.3660354 0.51114553 0.36825037
-0.19586177 -0.030573225 0.23297359 -0.26904938 -0.3230293 -0.091453895 -0.21814436 -0.28292584
-0.05143283 -0.042328086 0.0333201 -0.067872174 -0.2800971 -0.23343419 -0.053176112 -0.15554819
0.044241674 -0.1463624 -0.06699927 0.017176112 0.04125936 0.01579374 -0.1782665 -0.1630164
0.23555137 -0.03736931 -0.052617937 0.3971079 0.007021129 -0.13921078 0.10494478 -0.20682947
-0.030234916 -0.17165066 0.07215927 -0.120831005 -0.10824591 -0.07876946 0.07525337 -0.28237227
0.27107722 0.040425338 0.2805669 0.41065863 -0.06674834 -0.067351714 -0.0039229686 -0.25244108
0.23574172 -0.021497054 -0.009486502 -0.001328962 -0.47989956 -0.24472657 -0.63682175 -0.41467032
0.2634936 -0.09924217 0.0006295957 0.28467444 0.037224155 0.38582262 -0.49302095 -0.13017996
0.04898185 0.2868883 0.27610642 0.10426348 -0.030670535 -0.027930046 -0.14114341 -0.1258344
0.12790245 -0.11392259 0.24394964 0.08317966 0.2767425 -0.12699345 0.24558102 -0.13598557
-0.13755883 -0.06910266 -0.05659621 -0.14749607 0.4890464 0.018944727 0.21445231 -0.036729746
-0.014385662 0.06087638 -0.09894542 0.45940256 -0.017195009 0.15452027 0.0698584 0.10077772
9.94517e-05 0.07650939 0.12080794 0.14353628 0.13381933 0.0060184435 -0.041977677 0.11889767
0.49472907 0.28050902 0.0138262985 0.47114494 -0.035866525 -0.0893842 -0.0013376528 0.062115747
0.32492504 0.45250988 0.038555693 0.28710464 0.021368338 -0.10873285 0.0016168887 -0.2170005
0.28676155 0.06423715 -0.1608057 -0.070887245 0.17408206 -0.031849932 -0.46089625 -0.017612476

blocks.3.blocks.13.bias f4 [16]
00000000: f673 083f e912 febc aede b3be d440 5f3e
00000010: a8e6 6dbe ca2f 01bf 0a9f db3e 3924 bd3e
00000020: 66ab 81bd 86bf a43e 7c25 643f 1223 be3e
00000030: dcd0 5d3e 4875 6e3e 248e ed3e 1482 d63e
0.5330194 -0.031014876 -0.3513083 0.21802074 -0.2323252 -0.50463545 0.42894775 0.36941698
-0.0633152 0.3217737 0.89119697 0.37136132 0.21661705 0.23286927 0.46397507 0.41896117

blocks.3.blocks.13.running_mean f4 [16]
00000000: 8b8f c13e 3765 3bbe 0dbe d2be c954 3bbd
00000010: 38e4 57be 1275 52bc 33cf 41bd bddd db3e
00000020: 0ae5 723d 92fc cbbe 0af1 113f 25ad 50be
00000030: ba5b 203e 82b6 c5be 8f3a df3e 226e 19bf
0.37804827 -0.18300329 -0.41160622 -0.045735154 -0.21083152 -0.012845295 -0.04731674 0.4294261
0.05930046 -0.39841133 0.5700842 -0.2037855 0.15659991 -0.38615805 0.43599364 -0.59933674

blocks.3.blocks.13.running_var f4 [16]
00000000: 4f61 a23e b507 653e 69c7 693e 8eee c23e
00000010: 2c19 033e 53ad 493e 4bea e13e 8599 853e
00000020: 9802 2a3e f2e4 f43e 15af 3b3f 9a3e 663e
00000030: d947 923e ec9f 033f fc3a c73e e21e 7b3f
0.31714866 0.22366221 0.22829975 0.38072628 0.12802571 0.19695024 0.44124064 0.2609369
0.16602552 0.4783092 0.7331403 0.22484818 0.2857044 0.51415896 0.3891219 0.98094

blocks.3.blocks.13.weight f4 [16]
00000000: 5804 273f 91d1 263f 2fac 933f 9de0 373f
00000010: 1d6f b23e 9315 0a3f a503 c93e 5512 003f
00000020: ed5b 9c3e b583 8d3f 2388 643f d878 ad3e
00000030: 6bfb 1e3f 3943 163f 7798 383f 5ea1 ae3f
0.65241003 0.6516352 1.1536921 0.7182711 0.34850398 0.5393917 0.39260593 0.5002797
0.30538884 1.1055819 0.8927023 0.3388126 0.62102383 0.58696324 0.7210764 1.3642995

blocks.3.blocks.2.weight f4 [8, 16, 3, 3]
00000000: bd41 61bd f5a3 65bd 1b98 f03d 2bdb ff3c
00000010: 43dc 78bc 6485 d7bc e382 073e e5a5 d53d
00000020: 4d43 f73d 46bc a0bd 3e96 4ebe 1fc4 80be
00000030: 0b7e 0abe 1759 a2be e97d 77be 1cec f1bd
00000040: 1d41 51be e029 babd 8497 cabc 946d 7cbc
00000050: 40db ba3a 80e1 acbd 47e5 74bd 29e9 a1bc
00000060: 952a 17bd 9f39 71bd 8e07 663b 5209 37bd
00000070: d5be 043b 58f3 963c 54f7 32bd d4a7 f5bc
00000080: bbf8 3b3c 677d 30bc 3805 26bd 7e28 abbc
00000090: 1119 053e 9f68 29be b8a4 84be 2fa6 b1bb
000000a0: c137 60be 9ba3 5ebe 023e 86bd fc5f 21be
000000b0: ea9c 57bb bd83 af3c 54e4 b6bd d698 6abd
000000c0: d28b 09be b2e2 8ebe 5670 45be 1851 3cbe
000000d0: 335d 4cbe 62db c9bd a697 2c3e af6d 363e
000000e0: 3d27 b03e cc7b de3d 53b9 4c3d d731 703e
000000f0: a918 1b3e 387a ba3d 483e 823e f7ab 8bbd
00000100: 8127 1dbd 136e 31bd b64d 3abd 6eac 11bd
00000110: 9ded 1cbd 93b1 a7bd c70a 00bd 7581 92bd
00000120: 18ff 683c 9d52 a6be 8a42 84be 1319 f5bd
00000130: dad9 adbe 8a78 19be 05f6 c7bd fbce 14be
00000140: c578 923e b6da a53d 44b7 56be 16e6 7ebe
00000150: 693e aabc 89b7 4abe 7f30 fbbd 20fa eebd
00000160: 42f7 09be 0440 b63d bb37 55be 6394 fdbd
00000170: a48f df3d 7eed dabd 08e5 6dbe b47a 7abc
00000180: 2293 2a3e 0ee7 0cbe 7405 103d 6c34 803e
00000190: d38f 633e 6de4 ef3e 75a9 013e 76f8 a23d
000001a0: a4bb 923e 4ab8 b93d 872c 933d 9a8c 693e
000001b0: 1fb6 87bd 3aa5 02be 2c3b 48be 85ba 82bd
000001c0: a997 bfbd 1596 cbbd 9d1a c8bd b66c 70bd
000001d0: f15c 453b b3c4 163c 18e9 0abd 2a0b 94bd
000001e0: bdd7 61bd 18e3 15bd 469d 2cbd 5c17 e4bd
000001f0: 6db1 92bd 57c5 8ebd 6f98 ce3a 9a34 d23d
00000200: 1e1b 313e 15e3 08be 8d8f d73d e98d 273e
00000210: aef1 cdbe dfb7 83bd 3399 01bd ac21 413d
00000220: 9ef0 a1be f3bc ecbe cbdf 863c d962 d6bd
00000230: 3aed d3bd eba4 24be d3d1 c6bd 48f7 c93c
00000240: 6e35 d4be cbca 9ebe 5f8a 6a3d f583 f3be
00000250: 77fe 31bf 122a acbe d875 24bd 7667 d9be
00000260: 4932 c1be 6a42 a8bc 1097 d9bd 3120 8abd
00000270: a737 05be d6d5 87be 3671 fbbd 1610 d1bd
00000280: 19aa 21be 3c8b a2bd a693 5ebd 269a 68bc
00000290: 4d61 243d ae14 c6bd b770 ddbb ca89 473d
000002a0: c13c 0abe 168b 443b 5c9e 6d3d 0ac7 33bc
000002b0: 4516 bc3d 39ad 9a3d 1ab8 3fbc 2db2 bf3d
000002c0: 7b1f 7b3d d851 62bd ff5b 723d ee04 893d
000002d0: 86fb 0ebe 0077 dfbd 535d fdbd 14ad 7ebd
000002e0: 504f 14be 1ea2 28be 3b91 d33d b8d1 d83c
000002f0: 8864 ecbc 63b9 55be f72d 02bf 8046 48be
00000300: 2883 1dbf 60d2 45bf 4d38 e3be 0c5f bebe
00000310: 257f 0bbf 7550 6dbe e14a c2bd 3a22 82be
00000320: 2ded 3dbe 807e 173d 3475 87bd 3b41 a4bd
00000330: 95bc 993d 863f 16bc 83b0 e2bc 123a 1bbe
00000340: 96b8 a6be 8c8b 83be 8caa 34be 3b8a 8bbe
00000350: c1a0 77be 2d84 b4bc dbce e2bd 4052 99bd
00000360: 6c4e 3ebe e84f b3be 1b50 6cbe 9008 9dbd
00000370: b9ce 89be bef9 85be 480c ae3d d256 81bd
00000380: 3be6 47be b46d 4bbe 1956 5dbe a6c4 cbbd
00000390: 26b4 a7bd e26b 3fbe 5aca 60be f645 4a3d
000003a0: 6d7c 54bd 4526 42be 07b6 fcbc e694 c33c
000003b0: cd20 2fbd 8199 94be f7c5 81bd 3b44 0f3b
000003c0: 290a a7be d52d 00be 24dd 16be 842f 433d
000003d0: 27a3 c1bd 0f8b b8bd 66e9 7f3d 8f25 ea3c
000003e0: dac7 8b3d c54c 9d3d 7892 113d 72ca f23d
000003f0: 847c a4bd 85d1 2fbd 0e03 a9bc 0424 923c
-0.054994334 -0.056064565 0.11747762 0.031232437 -0.015189233 -0.026308723 0.13233523 0.104320325
0.120733835 -0.0784841 -0.201745 -0.2514963 -0.13524644 -0.31708595 -0.24169125 -0.118126124
-0.20434995 -0.09090018 -0.024730451 -0.015406985 0.0014256015 -0.08441448 -0.05978897 -0.0197645
-0.036905844 -0.058892842 0.0035099718 -0.044686623 0.0020255346 0.018426582 -0.0436929 -0.029987253
0.011472876 -0.010772086 -0.04053232 -0.020893332 0.12997843 -0.16543816 -0.2590692 -0.005421422
-0.21896268 -0.21742098 -0.06554796 -0.15759271 -0.0032899925 0.021425122 -0.08930269 -0.057274662
-0.13432243 -0.2790733 -0.19281134 -0.1839031 -0.19957428 -0.09856297 0.16854724 0.17815278
0.34404936 0.10863456 0.049981426 0.23456512 0.15146126 0.091053426 0.25438142 -0.06819909
-0.038367752 -0.043317866 -0.045484267 -0.035564832 -0.038312543 -0.081881665 -0.031260278 -0.07153598
0.014220975 -0.32484904 -0.25832015 -0.11967673 -0.3395527 -0.14987388 -0.097637214 -0.14532082
0.28607765 0.080983564 -0.20968348 -0.24892458 -0.020781713 -0.19796576 -0.12265109 -0.11668801
-0.13473228 0.08898929 -0.2082204 -0.12381818 0.10916069 -0.10689829 -0.232319 -0.015288044
0.16657689 -0.13760015 0.03516145 0.25039995 0.22222833 0.46853963 0.12662299 0.079575464
0.28658783 0.090683535 0.07186227 0.22807541 -0.06626534 -0.12758341 -0.19553822 -0.06383232
-0.09355099 -0.09940735 -0.09770701 -0.058697425 0.0030115212 0.00920217 -0.0339137 -0.07228692
-0.055137385 -0.036593527 -0.042142175 -0.11137268 -0.071627475 -0.06971233 0.0015761981 0.10263939
0.172955 -0.13367875 0.10525427 0.16362728 -0.4022345 -0.06431555 -0.031640243 0.047151253
-0.3162889 -0.46237907 0.016464135 -0.104680724 -0.10347982 -0.16078536 -0.097079895 0.024654046
-0.41447014 -0.31014094 0.057260867 -0.47561613 -0.6952891 -0.33625847 -0.040151447 -0.42461747
-0.37733677 -0.020539481 -0.10624516 -0.06744421 -0.13009511 -0.2653033 -0.12277453 -0.10208146
-0.15787543 -0.07936713 -0.054340027 -0.014196908 0.040131856 -0.09671913 -0.0067578214 0.04871539
-0.13499738 0.0029990128 0.05801235 -0.010972748 0.09183935 0.07552571 -0.011701608 0.09360156
0.06130932 -0.055253834 0.059169766 0.066903934 -0.13963136 -0.10911369 -0.12371316 -0.06217678
-0.1448338 -0.16468093 0.10330435 0.02646719 -0.02885653 -0.208715 -0.50851387 -0.19558144
-0.61528254 -0.7727413 -0.44378892 -0.3718189 -0.5449088 -0.23175223 -0.09486938 -0.25416738
-0.18547507 0.036985874 -0.066141516 -0.08020254 0.07506672 -0.009170419 -0.027672058 -0.15158871
-0.32562703 -0.25692403 -0.17643183 -0.272539 -0.24182416 -0.022035683 -0.11074611 -0.07486391
-0.18584603 -0.350219 -0.23077433 -0.07667649 -0.2691553 -0.261671 0.08498436 -0.06315388
-0.1952142 -0.19866067 -0.21614875 -0.09949617 -0.081886575 -0.18693498 -0.21952191 0.049383126
-0.051876474 -0.18959911 -0.030848516 0.023874711 -0.04275589 -0.29023364 -0.06336587 0.0021860737
-0.3262494 -0.12517484 -0.14732796 0.047652736 -0.09454947 -0.09010898 0.062478445 0.028582362
0.06825228 0.07680658 0.035540074 0.1185502 -0.08031562 -0.042924423 -0.02063134 0.01783944

blocks.3.blocks.3.bias f4 [8]
00000000: 6cbe 633d fd3c b03c a713 d53e 886c 4e3f
00000010: 264b 903d 7aeb 8e3f ffe4 633f f269 c2bb
0.055601522 0.021513456 0.41616556 0.80634356 0.070455834 1.1165612 0.89021295 -0.00593304

blocks.3.blocks.3.running_mean f4 [8]
00000000: 6f34 38c0 301b 95c0 b057 5dc0 fd30 bf3f
00000010: f1f6 5540 98c5 80bf 5892 973f 0b06 1540
-2.8782003 -4.659569 -3.458477 1.4936825 3.343197 -1.0060301 1.1841536 2.3284938

blocks.3.blocks.3.running_var f4 [8]
00000000: 7922 5f41 6bbc 1741 ff4d 3940 6d77 1a41
00000010: b9dc 8240 8a11 3e41 9d79 5140 0589 bb40
13.945916 9.4835005 2.8953855 9.654157 4.0894437 11.879282 3.2730477 5.860476

blocks.3.blocks.3.weight f4 [8]
00000000: 5884 2c3f bb63 b73d 9233 773d 783a 393f
00000010: c978 0a3e f3f3 a63e 6a90 c53e 41de 053f
0.6738944 0.08954569 0.060351916 0.7235484 0.13522638 0.32607993 0.38586742 0.5229226

blocks.3.blocks.4.blocks.2.weight f4 [8, 1, 3, 3]
00000000: 7f55 84be 8665 07bd f872 25bf c3ec 633e
00000010: 063b 9d3d 50fb 9fbd 873d 80be c2d7 a0bb
00000020: 0e58 37bf 5e87 703e 2537 32bb 2551 293f
00000030: fd1c 123e dc48 9c3c bed8 873e cb9e d43d
00000040: cd91 9d3e f194 bf3e 7b92 1e3f e913 3d3d
00000050: bc00 6c3e 653e 513d 911e 23be 66df 0bbe
00000060: e261 46be 8053 333e 5230 443f 68df 1d3f
00000070: 7b7d 75be bc08 67bf 9293 0d3e 192d c03d
00000080: 1874 02be 92c9 073f b1db e13e 47f7 b4be
00000090: 647e 183f 8b1b c83d 9427 d03e 1451 81bd
000000a0: 10de aebe 213c 02be 09b9 963d 6dfd 8b3e
000000b0: 2913 483f 3877 b1be f7cc 86be b3f6 193d
000000c0: 8193 443e 47a1 80bd 4ff6 69be 7674 513f
000000d0: 5fd0 843d c7a8 f23e a65b 5fbe cd9a 34be
000000e0: 6603 b8be d415 f33d 44ff f6bb 0fbc c6be
000000f0: 8e7c d13d a91e e1bd 3b3e 16bf b33a 523e
00000100: aed9 3d3d 00d0 2cbf 9db4 d9bc 0b94 66bd
00000110: 45f0 cfbe 6d34 8bba caa1 0a3e 7a8e bbbd
-0.25846478 -0.033055805 -0.64628553 0.22258286 0.076772735 -0.07811606 -0.25046942 -0.004908533
-0.71618736 0.23489138 -0.0027193513 0.6613944 0.1426887 0.01907771 0.2653255 0.1038185
0.307753 0.3741832 0.6194226 0.046161566 0.23047155 0.051084895 -0.15929629 -0.13659438
-0.19373277 0.17512321 0.7663623 0.61669016 -0.23973648 -0.902477 0.13825825 0.09383602
-0.12739599 0.53041947 0.44112924 -0.35344908 0.59567857 0.097708784 0.40655196 -0.063142926
-0.34153795 -0.1271825 0.073595114 0.27341786 0.78154236 -0.3466127 -0.2632825 0.037588786
0.19196893 -0.06280761 -0.22847866 0.8181833 0.06485056 0.47394392 -0.21812305 -0.17637177
-0.35940093 0.11869398 -0.0075377543 -0.38815352 0.10228835 -0.10992176 -0.58688706 0.20530204
0.046350174 -0.6750488 -0.026575381 -0.05629353 -0.40613 -0.0010620482 0.1353828 -0.091580346

blocks.3.blocks.4.blocks.3.bias f4 [8]
00000000: c1c1 263f 02a8 fa3e 1fdb 2a3e 55d7 e73d
00000010: 958a 87be d34d 913f 3257 e9bd 65a9 8c3f
0.65139395 0.48956305 0.1668515 0.11320368 -0.26472917 1.1351875 -0.11393584 1.0989195

blocks.3.blocks.4.blocks.3.running_mean f4 [8]
00000000: ef73 09bf f611 d93d 060d 153f a943 243e
00000010: 0061 193e b40e 443f 4331 b9bf c6ce 3ebe
-0.53692526 0.10599129 0.58223 0.16041435 0.14978409 0.76584935 -1.4468158 -0.18633565

blocks.3.blocks.4.blocks.3.running_var f4 [8]
00000000: e44f 623e c638 0d3c c870 dd3b ab00 e93d
00000010: 7aea 1f3d 0dac 693d 117c c23e bf2f d53d
0.22100788 0.008619493 0.0067578293 0.113770805 0.039041974 0.057048846 0.3798528 0.104094975

blocks.3.blocks.4.blocks.3.weight f4 [8]
00000000: 29f8 343f b3e4 413f 13a2 793f 29ff 113f
00000010: 1456 9a3f bed7 1e3f b7ed 773f 3748 e33e
0.7069116 0.7573959 0.9751293 0.5702997 1.2057519 0.62047946 0.968471 0.44391033

blocks.3.blocks.4.blocks.5.weight f4 [8, 8, 1, 1]
00000000: ec3c 0a3e b42f 88be 206f 333e ef12 a13e
00000010: 05e8 41bf 06b5 373f 6eb4 ee3d b9f7 05bf
00000020: 7e3d 82bd 134f ddbe 50dc 4d3f 92f4 d93e
00000030: 2c39 ca3d 76f5 1dbe 1dd0 0fbf 68ae 233e
00000040: 2459 493d 1b60 d53e b794 703e 19c5 84be
00000050: 9b07 3bbf 3387 e73e a460 4b3e d5cc d2be
00000060: e99e 0bbd d80e 2fbf 17b6 40be 0788 06be
00000070: 6aa4 10bf 5a2e 09bf 7a63 0bbf 9da8 6fbd
00000080: d32b 83bf 66bc 943e 02ba 9ebd c036 cdb9
00000090: baab 38bf 5847 18be 379b 1bbf adb8 cfbe
000000a0: 6088 9cbe 6926 21bf 2431 983e 474c b9be
000000b0: 0fd6 123f f006 113f ad9c 03be 7092 e83e
000000c0: 089e bfbe 5ab3 89be c21d 5ebf fec9 93be
000000d0: 0748 6cbe 124a 243f eed3 1dbe 288f f33e
000000e0: 899f 233d ca56 a9be 0310 dabe 05c7 223f
000000f0: 298c 9dbe 48da b73e 943e 0cbf 3518 5a3f
0.13499802 -0.26598895 0.1752286 0.31459758 -0.7574466 0.71760595 0.11655508 -0.5233112
-0.06359385 -0.4322439 0.80414295 0.42569405 0.09874186 -0.15425667 -0.5617693 0.159845
0.049157277 0.41674885 0.2349423 -0.25931624 -0.7305848 0.45220336 0.19861084 -0.411719
-0.034087095 -0.68382025 -0.18819462 -0.13137828 -0.56500876 -0.5358635 -0.54448664 -0.05851041
-1.0247749 0.29049987 -0.07750322 -0.0003914144 -0.72137034 -0.14870965 -0.60783714 -0.40570584
-0.30572796 -0.62949234 0.2972499 -0.36191007 0.5735788 0.5665121 -0.12852736 0.45424223
-0.37425256 -0.26894647 -0.86764157 -0.28865045 -0.23074351 0.6417552 -0.15412876 0.47570157
0.039947066 -0.33074027 -0.4259034 0.6358493 -0.30770996 0.35908723 -0.54782987 0.85193187

blocks.3.blocks.4.blocks.6.bias f4 [8]
00000000: 3332 983f 52b3 1d3f 2f1c 423e 6d40 483f
00000010: 783c 6d3f c853 723f 5871 353f 8a14 ad3d
1.189032 0.61601746 0.18956064 0.78223306 0.92670393 0.9465909 0.70876074 0.08451183

blocks.3.blocks.4.blocks.6.running_mean f4 [8]
00000000: 48e1 8a3d 98ea 123d be18 343e d23d d7bf
00000010: 0caa ddbf 3ed7 4b3f e408 253e 73b8 483f
0.0678125 0.035868257 0.17587563 -1.6815741 -1.7317519 0.7962531 0.16116673 0.7840645

blocks.3.blocks.4.blocks.6.running_var f4 [8]
00000000: 43e0 7e3e a783 5f3f 4584 c63e f539 903e
00000010: 4845 e93e 3534 e73f 6ceb 1d3e b3a4 f43e
0.24890237 0.8731026 0.3877279 0.28169218 0.4556067 1.8062807 0.15421838 0.47781906

blocks.3.blocks.4.blocks.6.weight f4 [8]
00000000: 7cc9 473f 744e 013f b332 833e 625e 873f
00000010: ad5b cc3e 11d2 ad3f ca70 e53e 1ff6 203f
0.78041816 0.50510335 0.25624618 1.0575678 0.39913693 1.3579732 0.44812614 0.6287555

blocks.3.blocks.5.blocks.2.weight f4 [8, 1, 3, 3]
00000000: 5017 68be 2ed8 4abe 775f c03e 328d 133f
00000010: d66c 3f3e f6d8 06bf cb72 2b3f 075f 8fbe
00000020: c7cb 39bf c9cf 733f 7b6e b13e 6234 ecbe
00000030: d0b2 22be 2ba7 06bf 2c25 d2be 8ce2 93be
00000040: 4ea4 543e 9907 403f c065 4abf a4af 743f
00000050: c100 dd3e d1a5 cebd 15f5 203c 65a7 67bd
00000060: 53ae 853e 88b1 04bf bf3f cc3d 82ff 8fbe
00000070: 0daa 02be d62d c0be 6e39 003f 7099 d1be
00000080: 1724 f23e 9e40 1b3e 697a 5dbd f030 283f
00000090: 2a4d 403e 65d5 f43e 052a a43e c531 c3bb
000000a0: cfe5 62bf 9504 113d 2ffe 913e 9842 013f
000000b0: fa3c 643e cd03 173f edf4 b63e dcb4 5ebf
000000c0: c31e b8be b76f d5be 59d6 f73e 4f8a 4a3f
000000d0: 2d53 a9be 292a f5be 1eb6 2bbf 1d5e 84bd
000000e0: 68b1 3f3f ffb6 3a3e 76e7 11be c530 d93d
000000f0: 91be 763f 388b 82bd 8dd7 0abf 1880 a53e
00000100: 0f25 0bbd 3a2b 4f3e b092 763e 11d1 8b3e
00000110: 7df3 b93e 4f36 133f ce91 203f 9de3 1a3e
-0.22665143 -0.19809029 0.37572834 0.5763732 0.18693861 -0.52674806 0.66972035 -0.28002188
-0.72576565 0.9523893 0.34654602 -0.46133715 -0.15888524 -0.5259883 -0.41043985 -0.2888378
0.20765802 0.75011593 -0.7906151 0.95580506 0.43164638 -0.10090221 0.009824057 -0.056556124
0.2610956 -0.5183339 0.09973096 -0.28124624 -0.12760182 -0.3753497 0.5008763 -0.40937376
0.4729316 0.15161368 -0.054071818 0.6569967 0.18779436 0.47819057 0.32063308 -0.0059568607
-0.8863191 0.03540476 0.2851424 0.5049224 0.22288886 0.58990175 0.3573374 -0.8699472
-0.3596097 -0.41686794 0.48405722 0.7911729 -0.3307127 -0.47883728 -0.67074764 -0.06463263
0.74880075 0.1823387 -0.14248452 0.10605005 0.9638453 -0.0637421 -0.54235154 0.3232429
-0.03397089 0.20231333 0.24079394 0.27307943 0.3631858 0.57504743 0.6272248 0.1512589

blocks.3.blocks.5.blocks.3.bias f4 [8]
00000000: 7012 833f de2f 403f ded8 353f 54ad b83e
00000010: 8337 653f c4ca f1be f05e cc3e 9365 1f3c
1.0240002 0.7507304 0.7103404 0.3606974 0.8953783 -0.4722501 0.39916182 0.009728807

blocks.3.blocks.5.blocks.3.running_mean f4 [8]
00000000: 8956 40be 9c39 863e 24e5 353e 3adf 593f
00000010: bce2 913f c5b4 f5be 4522 543f c280 c23e
-0.1878301 0.26215827 0.17763191 0.8510624 1.1397319 -0.4798948 0.8286479 0.3798886

blocks.3.blocks.5.blocks.3.running_var f4 [8]
00000000: 3c54 063f cd17 513d e672 4b3c 97bd fe3e
00000010: 1433 303e 8786 0d3f 1fb4 893e ff62 9d3e
0.5247228 0.05104809 0.012417531 0.4975402 0.17206985 0.552834 0.26895234 0.3073959

blocks.3.blocks.5.blocks.3.weight f4 [8]
00000000: da84 e23e 4dc5 1f3f cb31 c83e 3e40 103f
00000010: a10a 383f 049e 943f 5d3c 353f 38b4 3d3f
0.44241983 0.6241043 0.3910049 0.56348026 0.7189122 1.1610723 0.7079523 0.74103117

blocks.3.blocks.5.blocks.5.weight f4 [8, 8, 1, 1]
00000000: 345e 073d 9d20 d43e af5e fd3d ad25 be3d
00000010: c06b 303e 84ea 4f3f 3562 7fbd 84cf 943e
00000020: 1772 55bf f3db 313f 0bd2 f43e c8f3 a8be
00000030: eb4e c2be 7b84 2fbe dfc2 333d c0ae e4be
00000040: 2c6c 413e 7a17 04bf 60e0 e93e 0c1d 61bd
00000050: 6a3f e43c 3c12 8a3c 5c72 713f 73b8 f6be
00000060: 50e1 8dbe 9553 39bd d9cd 1e3d 0fd8 9a3e
00000070: 786e ca3e 764e 1a3e 5d46 7fbe 6113 d6bd
00000080: 6a57 bcbe 37d9 aabe a685 543e 259e c4be
00000090: 0909 373f 6cf4 673f 9b1b 1c3e 4f46 fdbd
000000a0: c5b1 55be d1a5 92be 1901 ec3c 3d9d 2d3f
000000b0: ae52 34be 80ab babe 3fe5 25be 1d22 a7be
000000c0: cc73 ce3e 04bf 883d bdbd 0abf 78d9 973d
000000d0: daef 163f 5e5e 9abe 36fd 05bc 44aa 0c3f
000000e0: 9878 333d f420 d3be cc90 d53e 54a2 863e
000000f0: fb96 d0be e234 8a3e 253f 173e 340e b53d
0.033048823 0.41431132 0.12371575 0.0928453 0.17228603 0.8121722 -0.062349517 0.29064572
-0.8337721 0.6947624 0.478165 -0.3299849 -0.37950835 -0.17140381 0.043887015 -0.44664574
0.1888892 -0.5159832 0.45678997 -0.054959342 0.02786227 0.016854398 0.94315124 -0.481876
-0.27710962 -0.045245726 0.03877053 0.30242965 0.39537406 0.15068993 -0.24929185 -0.10452915
-0.36785442 -0.33368847 0.20754108 -0.38401905 0.7149816 0.90607333 0.15244906 -0.12366926
-0.20868595 -0.28642133 0.028809117 0.6781805 -0.17609665 -0.3645897 -0.16200732 -0.32643214
0.4032272 0.06677058 -0.5419577 0.07414526 0.58959734 -0.3015012 -0.008178046 0.54947305
0.04381618 -0.4123608 0.41712034 0.26295722 -0.4074019 0.2699347 0.14770181 0.088406

blocks.3.blocks.5.blocks.6.bias f4 [8]
00000000: bbb8 193f 212d 4abf c5c0 cdbe 3ea5 033f
00000010: aecc 633f 72c3 983d 9896 b63e ca82 0d3f
0.600475 -0.7897511 -0.40186134 0.51424015 0.8898419 0.07459153 0.3566177 0.55277693

blocks.3.blocks.5.blocks.6.running_mean f4 [8]
00000000: 1719 563f de80 1abf 80bf 003f 2989 7a3d
00000010: 507c 5d3e d5ab 07bf 20ce 3b3f 9d66 91bd
0.83632034 -0.60352886 0.50292206 0.061165962 0.21629453 -0.5299657 0.73361397 -0.0709965

blocks.3.blocks.5.blocks.6.running_var f4 [8]
00000000: 94ea e33e 67e8 d53e 6ff5 8a3e 3e51 f93d
00000010: 89a9 e33e e002 8d3e 4e04 ab3e 3050 583e
0.44514906 0.4177887 0.27140376 0.12173699 0.44465283 0.27541256 0.33401722 0.21124339

blocks.3.blocks.5.blocks.6.weight f4 [8]
00000000: d620 153f 1018 8e3f b6dd 0d3f 86e4 333e
00000010: 6f85 433f 99fe 8a3e a8e1 2f3f 0ceb 8e3e
0.5825323 1.1101093 0.5541643 0.17567644 0.7637548 0.27147368 0.687037 0.27913702

blocks.3.blocks.6.blocks.2.weight f4 [8, 1, 3, 3]
00000000: 223f 80be 6094 a3bd e51e 10bf 61d4 683e
00000010: 0486 663e 7c04 6e3d 55da b1be a9d1 0fbe
00000020: 4852 003d 981b 3f3f d26a 9e3e d182 aebe
00000030: 6e70 623d aa1b 0c3a 9d0a c83d fd2e 85be
00000040: 4553 aa3e 0905 103f 20e6 98bc d76f 033e
00000050: 4647 163f 0894 bd3e bd37 4abe f410 393e
00000060: 1043 063f 0a4f 3e3e d737 46be 9376 51be
00000070: 6342 a53e 4699 aebe fa07 cbbe bb9e 9abb
00000080: 0060 efbc fb74 ec3d 68ea 18be 479a ddbc
00000090: ea64 663e 3561 083f 64d7 453e 6e9b 4d3e
000000a0: 8a84 f6be d8ac 123c 040c 073f 81d8 613e
000000b0: cc4f 94be d08f fabe f82a cabd ddc5 d9bd
000000c0: 8120 cb3e e052 293e 5467 513e bafd e6be
000000d0: b67f 793e 4fdc 1bbf 1f36 773e 3950 c1be
000000e0: 8f4d 9f3e ea1e b23e f6de 31be 60ef bb3e
000000f0: 6e4f 353f 8383 15bf ea3d f3bd 3019 89be
00000100: 6103 813d 1d5a 8dbe f0d1 9e3d 26dc 96be
00000110: 698d 983e 038b afbe ed1b bd3d 76f6 06bf
-0.25048167 -0.07987285 -0.5629714 0.22737266 0.2251206 0.058109745 -0.34736887 -0.14044823
0.03132847 0.7465148 0.30940872 -0.3408418 0.055283003 0.00053446984 0.09767649 -0.26012412
0.33266655 0.56257683 -0.01866442 0.12835632 0.58702505 0.37027 -0.19747825 0.18072873
0.5244608 0.18584839 -0.19357239 -0.20455389 0.32277212 -0.34101313 -0.39654523 -0.004718629
-0.029220581 0.1154575 -0.14933169 -0.027051104 0.22499433 0.53273326 0.19320446 0.20078823
-0.48147994 0.008952342 0.5275271 0.22055246 -0.2896713 -0.48937845 -0.09871477 -0.106334426
0.39673236 0.1653552 0.20449573 -0.45115453 0.24365124 -0.6088304 0.2414174 -0.37756518
0.3111386 0.3478921 -0.17370209 0.36706066 0.70824325 -0.58403796 -0.118770435 -0.2677703
0.062994726 -0.27607813 0.07754886 -0.29464835 0.29795387 -0.34285745 0.09233842 -0.5271982

blocks.3.blocks.6.blocks.3.bias f4 [8]
00000000: cd25 c7bd 6b05 90bf 44fc 3fbf 1897 2abd
00000010: b50e ec3e 6949 273f 5a4a 5bbd 1b82 233f
-0.09724007 -1.1251653 -0.749943 -0.041648 0.4610497 0.6534639 -0.053537704 0.638704

blocks.3.blocks.6.blocks.3.running_mean f4 [8]
00000000: e97c c6bf a85f 1e3f ffae 0a3f a837 c0bf
00000010: b77a 0940 5ef3 cbbf b55e b73f 9453 3fbf
-1.550687 0.6186471 0.5417327 -1.5016985 2.148115 -1.5933645 1.4325777 -0.74736905

blocks.3.blocks.6.blocks.3.running_var f4 [8]
00000000: e136 803f 8a99 963f eab0 b93e f4f4 cc3e
00000010: 72fb ab3f 1539 af3f d2c4 5e3f b0a9 5e3e
1.0016748 1.1765606 0.36267787 0.40030634 1.343611 1.3689295 0.87019074 0.21744418

blocks.3.blocks.6.blocks.3.weight f4 [8]
00000000: 42a8 573f fdaf 5f3f 534e 3a3f b0f2 0b3f
00000010: e8e2 213f 7d48 2f3f a759 083f 6281 f13e
0.84241116 0.8737791 0.72775763 0.54667187 0.63236856 0.68469983 0.532618 0.47169024

blocks.3.blocks.6.blocks.5.weight f4 [8, 8, 1, 1]
00000000: a212 0f3e 616a 46be e2af 023f b4b7 113e
00000010: 454d cbbc db8f b7be 7e7f 99be 97ce 57bf
00000020: 1636 0bbf 5518 babc 5caa 4abd cc20 a13c
00000030: 19af c1be 806c 123b 2686 83bd a836 c33e
00000040: c22f 0cbd 9221 9bbd f731 493f 8100 81bd
00000050: f84e 83bd a2f4 aa3d 43cd 113e c425 073d
00000060: 5367 f2bd 1686 ffbd 274f 823e db68 31be
00000070: 6889 e6be b527 e1be 3e75 0b3f 07a9 a03e
00000080: e607 2abf b9ac 5f3e 6ad4 bb3d d916 43bf
00000090: cc72 cf3e 4da0 01be 087a b3be ef82 c13e
000000a0: d392 a3bb c405 483f 3062 403d c64a 34be
000000b0: 2caf 333d 62ff 32bf 936a 92be 461f 5abe
000000c0: b832 b63e 72e9 753e 0b1e 45be 8673 94be
000000d0: 035a 223f 05fd 273f 2908 e03d 7d4c 37bc
000000e0: 9a50 c03e 3a94 793f 9a71 6c3d a22a 05be
000000f0: a46d 97bd 9f42 903e 6ba8 813d d905 de3e
0.13971952 -0.19376518 0.51049626 0.14230233 -0.024817118 -0.3585194 -0.2998008 -0.84299606
-0.54379404 -0.02271668 -0.049478874 0.01966896 -0.378289 0.0022342503 -0.06422071 0.38127637
-0.034225233 -0.075747624 0.78591865 -0.06298924 -0.064115465 0.08347441 0.14238457 0.032995
-0.11836114 -0.12476747 0.25451013 -0.17325155 -0.45026708 -0.43975607 0.5447577 0.31378958
-0.664183 0.21843232 0.09171374 -0.7620674 0.4051727 -0.12658806 -0.3505404 0.37795207
-0.004991868 0.781338 0.04696864 -0.17606649 0.04386823 -0.69920933 -0.28596935 -0.21300992
0.3558557 0.24014834 -0.19249742 -0.28994387 0.63418597 0.6562045 0.109390564 -0.01118767
0.37561494 0.974918 0.057725526 -0.13004544 -0.07393959 0.28175828 0.06330951 0.43363836

blocks.3.blocks.6.blocks.6.bias f4 [8]
00000000: 460f a0be 63f2 efbc dce3 ebbe 1904 843e
00000010: 8488 763f 450c f73e 3440 473d e64f 32bf
-0.31261653 -0.029290384 -0.4607228 0.25784376 0.96302056 0.48251548 0.048645213 -0.69653165

blocks.3.blocks.6.blocks.6.running_mean f4 [8]
00000000: d643 50bf 7548 e7bd 110f ee3d 4551 99be
00000010: 72e4 a0bc f564 29bf 363b 623f 8403 273f
-0.8135351 -0.11293117 0.116239674 -0.29944816 -0.019640181 -0.66169673 0.883716 0.6523974

blocks.3.blocks.6.blocks.6.running_var f4 [8]
00000000: 6586 f13d 9e87 583d 9512 bc3d ca25 483e
00000010: 984f a83e 5801 883e e1ba 683e 29b7 283e
0.11793212 0.05286371 0.09183232 0.19545665 0.32873225 0.26563525 0.22727539 0.1647612

blocks.3.blocks.6.blocks.6.weight f4 [8]
00000000: da2e 2e3f 42da 693f 762f 903f 02f6 2f3f
00000010: ed1f 853f 9e6a 623f 5b92 643f 7c4f c53f
0.6804024 0.9134866 1.1264484 0.68734753 1.0400368 0.88443935 0.8928582 1.5414882

blocks.3.blocks.9.weight f4 [16, 8, 3, 3]
00000000: c481 1d3e bb6e 8dbd 94d4 c63e 00be afbe
00000010: 50b5 fbbe 3f65 80be 6c16 4b3d e5d7 ba3d
00000020: 9703 043d 3309 98bd df2d 0b3d badd 3d3e
00000030: 6812 ad3c f9f6 7a3d 60b7 b7bd 05b0 a7be
00000040: fac5 3ebe 8715 f83d b246 003f 55d5 81be
00000050: cb7b 4cbd cbec 7bbd b932 ddbd 1fd3 6cbd
00000060: 533e 2abe ae22 97bd 96aa ecbe 73cf 123e
00000070: 8371 933d 226d fa3d 0608 663e e2f3 e83d
00000080: 23ec 96bd b39e 43be ee45 73be ac19 21be
00000090: 0efa f93d e319 b23e 0435 833f 5b01 1cbe
000000a0: 5a08 6cbe cfd8 eb3d 54dd 09bd 25ee 57be
000000b0: b54b 48bc 6cb9 293f cf0c c63e 60fb 4a3e
000000c0: fc17 5fbd 6d3a 83be 74a2 6a3e e67d 34be
000000d0: a1c6 8bbd eb3b b33e 55b7 813e 90d4 a53e
000000e0: 2b92 4b3e 6010 bbbc 3d2d 1ebd c044 4cbe
000000f0: b93f e7bd 89ba 183e d5e2 a03e d2ee 903d
00000100: bd92 8d3d ec6e 90be a9db 9d3d 8b50 063c
00000110: eaa1 233d b045 efbe 467d e5bd 47d0 3f3e
00000120: 48c2 a63e 5697 f03c 6e46 373d d09e 203d
00000130: 3302 c9bd e98b ffbc d97d c5bd 968d 5abe
00000140: 4d4e b7be ef2d ae3d 270a 0c3e 8bab f8bd
00000150: 5f23 083d 6798 213e a97a 10be b09a c7bc
00000160: 4638 e83d 5562 4a3d cb6c 923e a6aa c93d
00000170: 2465 e43e 9286 f9bd b002 86be a179 1dbe
00000180: 4c6a b3be 8379 223d d086 f43d 703b e43e
00000190: 9be7 953e be74 d03e 2626 dd3d fb35 f63d
000001a0: 8392 1b3e 3bc1 6fbe bd27 b7be c2df 1fbf
000001b0: 18e5 93bd 8524 f13d d85a 143e e83e e7bd
000001c0: f4a2 c8bd afc2 f7bd 0309 163e 5976 a03d
000001d0: 5861 efbc e6da 6d3f 02f9 163f e9b2 b13e
000001e0: bc3e 843d 0a0e 32be 544a 36be 9f31 f4be
000001f0: c66e 0ebf fb1a 3dbf 33fd d8bc 9d37 813d
00000200: 37ae 4a3e 106a bc3d 568c 81bd b000 e63d
00000210: 5d7b 183d 3201 d6bd 32eb 9cbe b479 86be
00000220: 5209 50be e00b acbe 302f d6bd 1f3a b1bd
00000230: ac6f 95bd 0524 443e 0f5b 653e a86b aa3e
00000240: 0fe3 82be 58bd 083d d186 d1bd 9ed5 68be
00000250: b4ed 08bf 84cd a1bd 5dbf 273e 9bb7 9f3e
00000260: a05a c9be 9c2a 0d3e 1714 0b3e 2f95 f93b
00000270: 6f6e 9fbe 9620 30be 9588 26be ae8b ebbe
00000280: 1c7c 8e3e bca4 703e 7d41 1bbe c483 523d
00000290: 5163 343e cee1 193e 4f7c 48be d823 4b3e
000002a0: 0acf d5bd 0de9 b03e 4abf 06be 2768 0dbf
000002b0: dd69 d8bd 5121 a23e 2d1f a7bb 0b3b c4bd
000002c0: 2eca 543e 011b 1ebe 4b74 5cbe aa37 bfbe
000002d0: 1bf3 c73d 7800 f23d 27bd df3e efbd a23d
000002e0: b1a6 133d 4b0b 87be 1292 84be 7e43 6d3e
000002f0: a3e6 703e 5f1e bf3e b9fb de3d 84e2 c9bc
00000300: f81a 353d 8f06 a4be 09f6 583a 06e9 2ebc
00000310: 1cc9 843e 0193 933e 438b b4bc 35a1 acbd
00000320: 6690 ad3e 21e3 553e 898d b3bd 5239 92be
00000330: 2378 69be be18 9e3e 8fdf 453e be7d 4a3f
00000340: 84c1 f5bd bee6 89be 2be0 883e d069 0e3e
00000350: f481 c4be 9976 d0be 413d 6d3f 96fe 3a3f
00000360: 53ea a5be de4a 153c 02d9 9b3e 4cc4 bebd
00000370: 9d8d 043e 709b b13e b535 b63e 5e9a 373f
00000380: 0dd5 063f cd3c 96be cbb1 15be b0b7 70bd
00000390: abe0 58be 65b7 8ebd 3594 98bd 780d 563e
000003a0: fbe6 0d3e 970e 493e 91e5 5fbd 65df eebe
000003b0: bd5a 9f3d 9caa a7be 60d3 1dbe 8abf 3d3e
000003c0: 9cfe 6bbe df46 253e 5d3c 95be e130 0b3d
000003d0: e779 833d 110f 4d3e be6a 0fbe e8ad d63b
000003e0: b71c 373d 93f9 00bf c276 44be 8626 e93c
000003f0: 7fd8 f93d bc54 073d 7dc1 683c a57f 33ba
0.15381533 -0.06905886 0.3883406 -0.34324646 -0.49161768 -0.25077245 0.04958193 0.0912321
0.032229986 -0.074236296 0.033979293 0.18541613 0.02112694 0.061270688 -0.08970523 -0.3275148
-0.1863021 0.12113481 0.5010787 -0.25358072 -0.049922746 -0.06150512 -0.1080069 -0.05781853
-0.16625337 -0.073796615 -0.46223897 0.14336948 0.07199385 0.12227847 0.22463998 0.11374642
-0.07369258 -0.19103508 -0.23757145 -0.1573245 0.12205897 0.34785375 1.0250554 -0.15234892
-0.23050061 0.11515962 -0.03365834 -0.21086939 -0.012225081 0.66298556 0.38681647 0.19822454
-0.054466233 -0.25630513 0.22913533 -0.17626151 -0.06824995 0.3500665 0.25335184 0.32388735
0.19879977 -0.022834957 -0.03861736 -0.19948101 -0.11291451 0.14914908 0.3142306 0.07076801
0.06912754 -0.28209627 0.077079125 0.008197914 0.039949335 -0.46732855 -0.11205535 0.18731795
0.325701 0.029369038 0.0447449 0.039213955 -0.098148726 -0.031194644 -0.09643144 -0.21343073
-0.35801926 0.08504855 0.13675748 -0.12142094 0.033236858 0.15780793 -0.14109291 -0.024365753
0.11338858 0.049410183 0.28598627 0.09847002 0.44608414 -0.121838704 -0.26173925 -0.15378429
-0.35042036 0.039666664 0.11939776 0.44576597 0.29278263 0.40714067 0.10798292 0.12022015
0.15192609 -0.23413555 -0.35772505 -0.624508 -0.072214305 0.11774544 0.14487779 -0.11291295
-0.09796706 -0.1209768 0.14651875 0.07835073 -0.029221222 0.9291214 0.58973706 0.3470681
0.06457278 -0.17388168 -0.17801791 -0.47694108 -0.55637777 -0.73869294 -0.026487922 0.063094355
0.1979302 0.09199917 -0.06325595 0.112306 0.037227023 -0.10449447 -0.3064819 -0.26264727
-0.20316055 -0.3360281 -0.10458219 -0.08653664 -0.0729669 0.19154365 0.22398017 0.3328526
-0.25563857 0.033383697 -0.10230792 -0.22737738 -0.53487706 -0.07900527 0.16381593 0.31194767
-0.39326954 0.13785785 0.13581882 0.007616661 -0.31138942 -0.1719993 -0.1626304 -0.46005005
0.27829063 0.23500341 -0.151617 0.051395193 0.17616011 0.15027544 -0.1957867 0.19837892
-0.1043988 0.34552804 -0.13158908 -0.5523705 -0.10567067 0.31666043 -0.005100152 -0.09581574
0.2078025 -0.15439989 -0.21528737 -0.37347156 0.097631656 0.11816496 0.43699 0.07946383
0.03604764 -0.26375803 -0.25892693 0.23170277 0.23525481 0.3732786 0.10887856 -0.024644144
0.044215173 -0.32036254 0.0008276408 -0.010675674 0.25934684 0.28823093 -0.022039061 -0.08429185
0.3389923 0.20887424 -0.0876723 -0.28559357 -0.22799735 0.30878252 0.19323562 0.7909812
-0.11999801 -0.26933855 0.26733527 0.13907552 -0.38380396 -0.40715483 0.9267159 0.7304472
-0.32405338 0.009112088 0.30439 -0.093147844 0.12944646 0.34688902 0.3558785 0.7171992
0.5266884 -0.29343262 -0.14618604 -0.058768928 -0.21179454 -0.069685735 -0.07450143 0.20903575
0.13857643 0.19634472 -0.05466229 -0.46654812 0.07780979 -0.32747352 -0.15412664 0.18530098
-0.23046345 0.16140316 -0.29147616 0.03398216 0.064197354 0.20025279 -0.14005563 0.006551493
0.04470512 -0.5038082 -0.19185928 0.028460752 0.121994965 0.033039793 0.014206287 -0.00068473286

blocks.4.blocks.10.bias f4 [16]
00000000: 31ed 7bbe 76b1 5bbe cc1e 7dbf 36c0 72bf
00000010: d521 afbe 50b8 f0ba 5708 0f3e 24e7 17be
00000020: af1e a2bd f13c 6e3e 6007 743d 79e0 bd3e
00000030: 2166 253e a5ad 98be 0c4c d9be b1cf 88be
-0.246022 -0.21454415 -0.9887512 -0.9482454 -0.342055 -0.0018365476 0.13968025 -0.14834267
-0.07916009 0.23265435 0.059577346 0.37085322 0.1615224 -0.2981998 -0.42440832 -0.26720956

blocks.4.blocks.10.running_mean f4 [16]
00000000: c0f4 debf 2b15 8740 537a 69c0 1cff 53c0
00000010: a928 e43f 3216 f9bf 2dfe 08c0 145b a540
00000020: 4be4 0041 f022 3a40 30c9 fdbf b5cb 80c0
00000030: 6143 943f bc4d 0f40 64d4 7d40 e0fa d53f
-1.7418442 4.221334 -3.648091 -3.3124456 1.7824908 -1.9459898 -2.1405137 5.167368
8.055736 2.9083824 -1.9827023 -4.0248666 1.1583062 2.2391195 3.9660883 1.6717186

blocks.4.blocks.10.running_var f4 [16]
00000000: 844f 8040 5504 4a42 17ed 2141 0176 1541
00000010: b224 0441 53db f040 dc6b 1841 f534 7a41
00000020: 033c c141 1f90 9a41 8db9 a341 3f99 4d41
00000030: 57a7 ba40 e58a b741 f399 cc40 3c6b 0741
4.0097065 50.50423 10.120383 9.34131 8.258959 7.526773 9.526333 15.637929
24.154303 19.320372 20.465601 12.849914 5.832927 22.94282 6.3937926 8.46368

blocks.4.blocks.10.weight f4 [16]
00000000: 9407 143f 32a5 9f3f e555 803f 891b 853f
00000010: 3c3d 443f 580b 253f cb76 193f a566 463f
00000020: eab5 7f3f fd08 453f 882d 3a3f 12d3 343f
00000030: 3610 073f 7599 8a3f 4744 453f d952 4b3f
0.57824063 1.2472289 1.0026213 1.0399028 0.76655936 0.64470434 0.5994689 0.77500373
0.99886954 0.7696684 0.72725725 0.7063457 0.5275911 1.0828081 0.7705731 0.7942329

blocks.4.blocks.12.bias f4 [16]
00000000: ba84 8e36 78d9 22b6 1556 6db6 3da6 2336
00000010: bbde 2635 4e5c f535 2b4d eab6 6cbf 9636
00000020: da4b c4b5 c8c0 f834 d504 a836 1500 6b36
00000030: afbd c2b6 517e efb5 2c1a 2135 b6a2 fe36
4.247381e-06 -2.4266465e-06 -3.5365858e-06 2.4385656e-06 6.2163934e-07 1.8280787e-06 -6.982727e-06 4.492633e-06
-1.4625214e-06 4.6333867e-07 5.0073527e-06 3.5017777e-06 -5.8037326e-06 -1.784365e-06 6.001526e-07 7.588732e-06
