thermal vision/Public/thermal vision.onnx (onnx, 53268 bytes, 109 tensors)

blocks.1.weight f4 [16, 3, 3, 3]
-0.07400585 -0.36300626 0.08065954 0.11396516 -0.3331098 0.14857508 0.18192048 -0.19763972
0.2387659 -0.057601944 -0.42466888 0.11094333 0.13845076 -0.3596931 0.1906454 0.20395982
-0.23309402 0.26133043 -0.04796107 -0.43204507 0.13691166 0.09350005 -0.27995384 0.17745885
0.17608543 -0.22249335 0.20077321 -0.05766061 -0.23863383 -0.07941622 0.7061102 0.1729951
0.24462229 0.18119746 -0.22837986 -0.21026625 -0.081143096 -0.25312555 -0.08733195 0.6936713
0.15496466 0.23996486 0.15706922 -0.24604028 -0.22291736 -0.055632625 -0.23941514 -0.08571519
0.72538424 0.1753498 0.24914505 0.18919674 -0.2168697 -0.20890886 0.11112846 0.31822723
-0.13733895 0.09335091 0.12764597 -0.2301335 0.23447163 0.12787879 -0.17490259 0.02841124
0.25793853 -0.1364479 0.048615526 0.11271373 -0.26428062 0.18612884 0.090896554 -0.16850257
0.075298645 0.42266598 -0.17945364 0.09170223 0.122540295 -0.19732866 0.26589915 0.12386887
-0.22276853 -0.07082472 -0.07684504 -0.06039225 -0.081356496 -0.06280405 -0.04691587 -0.051890228
-0.02762772 0.059735812 -0.051448617 -0.051446375 -0.061372273 -0.07072268 -0.052519847 -0.03831299
-0.042320553 -0.0071796468 0.048768483 -0.07596258 -0.08387645 -0.07221422 -0.0840352 -0.06732662
-0.059848096 -0.053608242 -0.020707333 0.014081349 0.034717865 0.057486657 0.06626593 0.03904384
0.057441887 0.07242624 0.05777111 0.07067753 0.08816709 0.033416376 0.055660807 0.06572162
0.033178907 0.05756982 0.07112222 0.05669568 0.07166904 0.08865685 0.027557142 0.0486203
0.056738414 0.032097157 0.053655874 0.06378137 0.049869183 0.06414533 0.07718152 -0.057349637
-0.056007687 -0.059229236 -0.06271756 -0.062700644 -0.06599305 -0.06710415 -0.06874225 -0.06494912
-0.048210602 -0.04788786 -0.052118618 -0.05229635 -0.054208282 -0.06119536 -0.057156473 -0.061317142
-0.0603769 -0.050817758 -0.052106343 -0.05894478 -0.056469094 -0.06216062 -0.06790529 -0.066418335
-0.069037616 -0.06763271 -0.053425867 -0.03409506 0.050732136 -0.08747176 -0.106584065 -0.0191466
-0.056755934 -0.08379728 -0.019356081 -0.04387418 -0.029379405 0.04706317 -0.075155385 -0.07527358
0.006857343 -0.04103792 -0.05733664 -0.014459889 -0.050018344 -0.027381431 0.03547019 -0.08288361
-0.09175531 -0.022939814 -0.054830167 -0.0769099 -0.027845934 -0.07706608 -0.096819885 -0.29711902
-0.09282588 -0.096599214 -0.1665045 0.16706331 0.15356232 0.14927101 -0.04343295 -0.07276875
-0.20734987 -0.12057242 -0.12717806 -0.16601032 0.17974809 0.16298352 0.124033436 -0.10182383
-0.1361423 -0.19765367 -0.22117862 -0.17092462 -0.13801458 0.31696296 0.17116185 0.08457912
0.063883044 0.06404449 0.08230694 0.051059987 0.04338909 0.06830133 0.05584007 0.04847971
0.06562964 0.062823616 0.06341849 0.07892718 0.04800503 0.03997852 0.0654391 0.054604102
0.047324535 0.06082846 0.06287527 0.064363405 0.0762574 0.05294969 0.044382606 0.065433
0.05626526 0.05384729 0.061343234 0.04626375 0.08603347 0.08947557 0.042378247 0.051079873
0.04619482 0.057793833 0.07076404 0.070209704 0.041361492 0.10270142 0.097889155 0.03792416
00000000: 6190 97bd f5db b9be d430 a53d 9166 e93d
00000010: 5e8d aabe 1124 183e 5d49 3a3e 1162 4abe
00000020: 0c7f 743e 04f0 6bbd 336e d9be 4236 e33d
00000030: 09c6 0d3e b229 b8be 8c38 433e d8da 503e
00000040: 33b0 6ebe 1acd 853e d472 44bd 0335 ddbe
00000050: 9232 0c3e f47c bf3d 1c56 8fbe c6b7 353e
00000060: bd4f 343e 4cd5 63be 7e97 4d3e 882d 6cbd
00000070: 6d5c 74be f9a4 a2bd a3c3 343f a125 313e
00000080: 447e 7a3e d48b 393e 69dc 69be 0950 57be
00000090: 5a2e a6bd ac99 81be 18db b2bd 7194 313f
000000a0: 0eaf 1e3e 59b9 753e c1d6 203e fcf1 7bbe
000000b0: 7344 64be 09df 63bd 3e29 75be 728b afbd
000000c0: c8b2 393f e68e 333e e11f 7f3e cabc 413e
000000d0: 1713 5ebe 34ec 55be 5197 e33d aeee a23e
000000e0: 95a2 0cbe c32e bf3d a0b5 023e 1ea8 6bbe
000000f0: 5519 703e a8f2 023e aa19 33be b0be e83c
00000100: 8510 843e 00b9 0bbe 1321 473d 75d6 e63d
00000110: ca4f 87be 8f98 3e3e f927 ba3d f08b 2cbe
00000120: 2d36 9a3d ad67 d83e b2c2 37be 61ce bb3d
00000130: 68f6 fa3d 8610 4abe ef23 883e f6ae fd3d
00000140: 6f1d 64be 8d0c 91bd ef60 9dbd dd5d 77bd
00000150: 3c9e a6bd 699f 80bd db2a 40bd d98a 54bd
00000160: 8753 e2bc 8aad 743d c9bb 52bd 6fb9 52bd
00000170: 7e61 7bbd 0dd7 90bd 0d1f 57bd 15ee 1cbd
00000180: 5158 2dbd 3e43 ebbb 76c1 473d 4592 9bbd
00000190: 6bc7 abbd 0de5 93bd a61a acbd 8ae2 89bd
000001a0: 4723 75bd 5194 5bbd 6da2 a9bc 75b5 663c
000001b0: 5234 0e3d 2177 6b3d 6fb6 873d 6fec 1f3d
000001c0: 2f48 6b3d 3554 943d 66a1 6c3d 61bf 903d
000001d0: f390 b43d 9cdf 083d 96fc 633d 0f99 863d
000001e0: 9be6 073d 55ce 6b3d 87a8 913d bb39 683d
000001f0: 38c7 923d b991 b53d 84bf e13c 1426 473d
00000200: 8a66 683d 4f78 033d 43c6 5b3d cf9f 823d
00000210: a143 4c3d a05e 833d 5811 9e3d 74e7 6abd
00000220: 5168 65bd 5b9a 72bd 1072 80bd 3269 80bd
00000230: 5d27 87bd e76d 89bd bdc8 8cbd 0b04 85bd
00000240: 7b78 45bd 1026 44bd 557a 55bd b334 56bd
00000250: 8109 5ebd fca7 7abd e81c 6abd af27 7bbd
00000260: c54d 77bd 4826 50bd 766d 55bd 1570 71bd
00000270: 234c 67bd 229c 7ebd ee11 8bbd 5606 88bd
00000280: 9863 8dbd 0583 8abd 15d5 5abd 43a7 0bbd
00000290: 80cc 4f3d 6524 b3bd bf48 dabd 55d9 9cbc
000002a0: e978 68bd e99d abbd a590 9ebc 6ab5 33bd
000002b0: 14ad f0bc 4fc5 403d 11eb 99bd 0929 9abd
000002c0: 90b3 e03b 6117 28bd d3d9 6abd 2ce9 6cbc
000002d0: 09e0 4cbd 064f e0bc 3149 113d e2be a9bd
000002e0: 35ea bbbd 47ec bbbc 9995 60bd f082 9dbd
000002f0: 281d e4bc d2d4 9dbd 8149 c6bd fc1f 98be
00000300: 7f1b bebd cfd5 c5bd 2880 2abe a512 2b3e
00000310: 713f 1d3e 80da 183e c0e6 31bd c807 95bd
00000320: 8653 54be acee f6bd f73a 02be 9cfe 29be
00000330: e20f 383e 27e5 263e 3e05 fe3d 0389 d0bd
00000340: e368 0bbe b965 4abe a67c 62be dd06 2fbe
00000350: b253 0dbe f848 a23e 0d45 2f3e d137 ad3d
00000360: 1dd5 823d c229 833d 8a90 a83d 4724 513d
00000370: c2b8 313d 91e1 8b3d 8fb8 643d a992 463d
00000380: d568 863d aba9 803d 8ee1 813d 93a4 a13d
00000390: eca0 443d 84c0 233d ef04 863d 8da8 5f3d
000003a0: 5fd7 413d 4327 793d c0c4 803d f6d0 833d
000003b0: d72c 9c3d c6e1 583d 89ca 353d bd01 863d
000003c0: 6776 663d fa8e 5c3d 0b43 7b3d 0f7f 3d3d
000003d0: 5132 b03d f83e b73d d094 2d3d 2139 513d
000003e0: c836 3d3d 3ab9 6c3d bdec 903d 1bca 8f3d
000003f0: ab6a 293d 1f55 d23d 1c7a c83d 5d56 1b3d

blocks.2.bias f4 [16]
0.3360191 0.14879133 0.583724 0.041770294 0.31251034 -0.4591062 -0.19545074 0.03702975
-0.41158268 0.0041363332 0.7248426 0.18717657 0.05169233 0.25701872 0.13641669 0.5789277
00000000: b20a ac3e c15c 183e f06e 153f 5417 2b3d
00000010: 5b01 a03e f80f ebbe 3d24 48be 82ac 173d
00000020: f7ba d2be 148a 873b 498f 393f 37ab 3f3e
00000030: 56bb 533d f597 833e d1b0 0b3e 9b34 143f

blocks.2.running_mean f4 [16]
-65.703995 157.76268 128.92366 -142.60481 178.92123 -185.162 -125.36213 -116.89382
184.11351 171.30655 -161.7329 -178.17491 152.86658 70.39596 -263.64108 162.7723
00000000: 7268 83c2 3fc3 1d43 75ec 0043 d59a 0ec3
00000010: d6eb 3243 7929 39c3 69b9 fac2 a3c9 e9c2
00000020: 0f1d 3843 7a4e 2b43 9fbb 21c3 c72c 32c3
00000030: d8dd 1843 bbca 8c42 0fd2 83c3 b5c5 2243

blocks.2.running_var f4 [16]
2376.453 10069.349 6626.9263 7038.3877 10741.556 11581.331 5393.8574 5623.6313
11445.116 9665.584 9827.974 10511.228 8249.652 4316.746 23057.287 9303.019
00000000: 3f87 1445 6555 1d46 6917 cf45 1af3 db45
00000010: 39d6 2746 53f5 3446 dc8e a845 0dbd af45
00000020: 77d4 3246 5606 1746 e58f 1946 e93c 2446
00000030: 9ce6 0046 f8e5 8645 9322 b446 135c 1146

blocks.2.weight f4 [16]
0.85558504 1.366939 0.6959456 1.0132365 0.7422617 0.97144127 0.7635821 0.8389865
2.143108 1.7711899 0.9609351 0.4335089 1.6564052 0.9787537 1.0895156 0.9831032
00000000: 9f07 5b3f dbf7 ae3f 7e29 323f bcb1 813f
00000010: dd04 3e3f 60b0 783f 1e7a 433f d2c7 563f
00000020: ae28 0940 5ab6 e23f d8ff 753f e1f4 dd3e
00000030: 1605 d43f 9a8f 7a3f 3f75 8b3f a7ac 7b3f

blocks.3.blocks.10.bias f4 [16]
0.5496095 0.1893775 -0.675877 -0.0040467693 -0.09565092 -0.097266145 -0.5069006 0.19534317
-0.2678549 0.2246261 0.18316485 0.18899722 0.13478258 0.065288864 0.47631675 0.10390762
00000000: 35b3 0c3f 2dec 413e 4606 2dbf c39a 84bb
00000010: a1e4 c3bd 7933 c7bd 3dc4 01bf 0a08 483e
00000020: 4724 89be 6204 663e 918f 3b3e 7d88 413e
00000030: 7204 0a3e 2bb6 853d cadf f33e 85cd d43d

blocks.3.blocks.10.running_mean f4 [16]
5.543503 9.760046 -0.65116465 2.198107 -2.297693 1.7327951 3.9312015 -3.650587
-10.078119 1.4503669 -5.9495063 -0.9089806 6.8577843 2.9560869 7.2461305 -8.25108
00000000: 6064 b140 2629 1c41 bab2 26bf c9ad 0c40
00000010: 670d 13c0 3bcc dd3f ce98 7b40 38a3 69c0
00000020: fa3f 21c1 9fa5 b93f 5b62 bec0 f4b2 68bf
00000030: f872 db40 8730 3d40 4de0 e740 6c04 04c1

blocks.3.blocks.10.running_var f4 [16]
18.537037 27.1214 11.345952 3.5417888 12.421472 17.516104 5.367413 11.610537
11.834963 8.730515 10.647926 8.402811 34.9509 8.367684 21.00734 13.153995
00000000: da4b 9441 a1f8 d841 0589 3541 abac 6240
00000010: 59be 4641 fb20 8c41 d9c1 ab40 c2c4 3941
00000020: 025c 3d41 30b0 0b41 e85d 2a41 ea71 0641
00000030: b9cd 0b42 09e2 0541 080f a841 c376 5241

blocks.3.blocks.10.weight f4 [16]
0.9487406 0.9817168 1.0044106 0.4931597 0.9697053 0.8314558 0.7009265 0.7947239
1.2354227 0.68779457 0.69641674 0.79926133 0.9181853 0.7735606 0.7638764 0.83384484
00000000: aae0 723f cb51 7b3f 8790 803f 6e7f fc3e
00000010: 9b3e 783f 4ada 543f eb6f 333f 0773 4b3f
00000020: 5522 9e3f 4e13 303f 5e48 323f 649c 4c3f
00000030: 310e 6b3f 1108 463f 678d 433f db76 553f

blocks.3.blocks.12.bias f4 [16]
2.852387e-07 7.8712094e-07 -2.7035546e-06 -1.9204374e-06 -5.4910765e-06 9.1617045e-07 1.5797394e-07 3.0784217e-06
2.1855208e-06 2.8933903e-06 6.7277883e-06 6.143086e-07 -2.8239974e-06 4.852814e-06 -8.485115e-06 -8.504898e-06
00000000: e922 9934 8a4a 5335 b76e 35b6 dde0 00b6
00000010: fd3f b8b6 c1ee 7535 8c9f 2934 e296 4e36
00000020: f6aa 1236 112c 4236 43bf e136 f7e6 2435
00000030: e883 3db6 5bd5 a236 4b5b 0eb7 42b0 0eb7

blocks.3.blocks.12.weight f4 [16, 16, 2, 2]
0.27476335 0.26043004 0.09673805 0.23178247 -0.07612763 -0.014871635 -0.049912356 -0.11760404
0.2044765 0.16799217 0.19045013 0.318679 0.08110624 0.17939018 -0.028034037 0.30366585
0.025299799 0.39186612 0.1555714 0.15242289 -0.10296699 -0.09312281 -0.105562806 -0.0727677
0.040878493 0.3918042 0.14949282 0.033763792 -0.044576727 -0.21082236 -0.15942834 -0.17242144
-0.06608667 -0.11936233 -0.10500889 -0.044711463 -0.21244888 -0.351241 -0.1214916 -0.4273711
0.3365579 0.22833052 0.2569924 0.15923148 -0.05665634 0.16291204 -0.07720088 0.03509934
0.6373613 0.62120336 0.5813003 0.4342645 -0.028542014 0.05729455 0.0308866 0.003373927
0.20818518 -0.14121033 0.13774271 -0.010780467 -0.309818 -0.39935276 -0.29558778 -0.44480932
-0.31654638 -0.38357607 -0.3111196 -0.37687308 -0.08831575 -0.037934482 -0.116221525 -0.054622423
0.12029315 -0.035182443 0.032246955 -0.15712848 0.27950242 0.30558267 0.4677416 0.41813383
0.39457038 0.5272056 0.45309603 0.5478727 0.10796046 0.22872253 0.18833782 0.0778923
0.010164038 -0.06540093 -0.14964342 -0.10928922 0.01088673 0.13372998 -0.07895488 0.15400498
0.21075144 0.0312676 0.080476716 0.05710192 -0.2764118 -0.073325 -0.2862562 -0.077302724
-0.3017504 -0.37601092 -0.36989385 -0.32394373 -0.33782795 -0.33778417 -0.38741657 -0.40887564
-0.022536302 -0.11773121 0.036295187 -0.064841025 0.101311035 0.23246443 0.11615691 0.2621877
-0.061867658 0.028491922 -0.023590894 0.10795723 -0.22804342 0.15399258 -0.044457402 0.11398288
0.005126114 0.0033855564 -0.100253046 -0.087682396 0.13348764 0.067002974 0.117287025 -0.011836944
-0.040491182 -0.012482005 0.0050880588 0.09146756 -0.68463194 -0.46225458 -0.3086371 -0.14802627
-0.14860865 -0.113818586 -0.091365606 -0.012984021 0.112865694 0.24453479 0.13453932 -0.1558179
-0.18953507 -0.27525452 -0.26110014 -0.25890157 -0.22609892 0.21347043 0.28234038 0.013408951
-0.051388416 -0.08382085 -0.040425044 -0.05113945 -0.043941338 0.091641806 -0.03678634 0.02431502
0.22516654 0.075997956 -0.019034376 0.06016094 0.2120026 0.06513405 0.0075331503 0.28812903
-0.03179969 -0.04937337 -0.19731101 -0.025724746 -0.39786243 -0.29709533 -0.28184783 -0.19681501
0.24980506 0.05768931 0.041928288 0.17759992 -0.19948024 0.05000796 -0.3243139 -0.23961924
-0.10519934 -0.00489229 -0.006224619 0.004542614 -0.08886417 -0.07520164 0.0034328878 -0.06794102
0.04782517 0.038048778 0.044497274 -0.096472636 0.18470699 0.1841127 0.09825912 0.072732635
0.10438085 -0.1919525 -0.054308496 -0.35966274 0.07414518 -0.06440299 0.23995942 -0.110922806
-0.033158034 0.051288225 0.077722944 0.03290575 0.10145814 0.33864465 0.021250682 -0.022373032
-0.12011793 -0.050883245 0.0015108341 -0.010559966 -0.054413985 -0.033493012 -0.18596303 0.16608259
0.13873225 0.22662845 0.18410867 0.24193195 -0.17022419 -0.020388914 -0.12660351 -0.012068653
0.16945544 0.20929727 0.30052722 0.06324297 -0.0023794374 0.015150403 -0.11847965 -0.031090232
0.05586643 -0.06305604 0.18880504 0.17301704 0.0023640336 -0.17395069 -0.21416034 -0.23707087
00000000: c8ad 8c3e 1657 853e 991e c63d 6258 6d3e
00000010: cee8 9bbd 28a8 73bc e670 4cbd 63da f0bd
00000020: 4a62 513e 2406 2c3e 5c05 433e e529 a33e
00000030: 071b a63d 0fb2 373e a3a7 e5bc 177a 9b3e
00000040: 8641 cf3c ada2 c83e 1c4e 1f3e bf14 1c3e
00000050: 5be0 d2bd 2cb7 bebd 5031 d8bd 3b07 95bd
00000060: 3570 273d 8f9a c83e a514 193e e74b 0a3d
00000070: 1696 36bd d1e1 57be 2f41 23be 3f8f 30be
00000080: 7358 87bd 3d74 f4bd e70e d7bd 5e23 37bd
00000090: 338c 59be dcd5 b3be 97d0 f8bd 63d0 dabe
000000a0: 5151 ac3e 7acf 693e 8294 833e 940d 233e
000000b0: 7a10 68bd 6ad2 263e 7f1b 9ebd 53c4 0f3d
000000c0: 1c2a 233f 2f07 1f3f 19d0 143f eb57 de3e
000000d0: f1d0 e9bc b1ad 6a3d e505 fd3c 1a1d 5d3b
000000e0: 7f2e 553e 7199 10be 6d0c 0d3e 8ea0 30bc
000000f0: 77a0 9ebe f777 ccbe 4857 97be 0cbe e3be
00000100: 5e12 a2be 1564 c4be 114b 9fbe 82f5 c0be
00000110: e3de b4bd 3061 1bbd 8d05 eebd c3bb 5fbd
00000120: 415c f63d 771b 10bd 6215 043d 4ae6 20be
00000130: f11a 8f3e 5575 9c3e d47b ef3e a315 d63e
00000140: 2105 ca3e f2f6 063f 34fc e73e 6341 0c3f
00000150: 601a dd3d 3d36 6a3e a1db 403e 0086 9f3d
00000160: 1187 263c ecf0 85bd 203c 19be 07d3 dfbd
00000170: 415e 323c 83f0 083e 19b3 a1bd 7bb3 1d3e
00000180: 3acf 573e 7412 003d fad0 a43d b4e3 693d
00000190: d985 8dbe 6b2b 96bd 2c90 92be e450 9ebd
000001a0: 077f 9abe 8184 c0be ba62 bdbe f4db a5be
000001b0: c9f7 acbe 0cf2 acbe 775b c6be 2658 d1be
000001c0: 0d9e b8bc 101d f1bd 43aa 143d 5fcb 84bd
000001d0: 297c cf3d 280b 6e3e ade3 ed3d 773d 863e
000001e0: f168 7dbd e467 e93c b141 c1bc ae18 dd3d
000001f0: 3784 69be 3bb0 1d3e f718 36bd db6f e93d
00000200: f6f8 a73b 36e0 5d3b 7851 cdbd d492 b3bd
00000210: fcb0 083e db38 893d 2e34 f03d beef 41bc
00000220: 15da 25bd 5381 4cbc bbb9 a63b 5853 bb3d
00000230: 0a44 2fbf a2ac ecbe af05 9ebe 3394 17be
00000240: de2c 18be b819 e9bd e41d bbbd eeba 54bc
00000250: 2126 e73d 5467 7a3e adc4 093e ba8e 1fbe
00000260: 7b15 42be 29ee 8cbe ebae 85be bf8e 84be
00000270: 7a86 67be fe97 5a3e eb8e 903e 38b1 5b3c
00000280: a97c 52bd 44aa abbd bb94 25bd 9a77 51bd
00000290: d5fb 33bd b3ae bb3d 46ad 16bd 4b30 c73c
000002a0: 0f92 663e d1a4 9b3d fbed 9bbc 516b 763d
000002b0: 3617 593e 0065 853d a5d8 f63b a685 933e
000002c0: 6440 02bd bb3b 4abd e60b 4abe b4bc d2bc
000002d0: a0b4 cbbe e11c 98be 5c4e 90be e089 49be
000002e0: e6cc 7f3e a04b 6c3d ffbc 2b3d c1dc 353e
000002f0: 8c44 4cbe 26d5 4c3d 790c a6be bf5e 75be
00000300: c072 d7bd 814f a0bb e4f7 cbbb 35da 943b
00000310: 6bfe b5bd 5103 9abd 4dfa 603b a924 8bbd
00000320: 53e4 433d 09d9 1b3d c642 363d 7293 c5bd
00000330: d423 3d3e 0a88 3c3e 143c c93d d9f4 943d
00000340: a1c5 d53d 328f 44be 9672 5ebd b725 b8be
00000350: 6ed9 973d b7e5 83bd ecb7 753e 7f2b e3bd
00000360: b8d0 07bd 9a13 523d 352d 9f3d 2ec8 063d
00000370: 49c9 cf3d d562 ad3e e915 ae3c a647 b7bc
00000380: 6400 f6bd f36a 50bd 2e07 c63a b503 2dbc
00000390: 33e1 5ebd f82f 09bd 186d 3ebe 8e11 2a3e
000003a0: d40f 0e3e 4a11 683e fc86 3c3e 02bd 773e
000003b0: 404f 2ebe a706 a7bc 5aa4 01be 99bb 45bc
000003c0: ba85 2d3e 0652 563e b4de 993e 8885 813d
000003d0: 56f0 1bbb 6539 783c 75a5 f2bd f1b0 febc
000003e0: 33d4 643d 8623 81bd 1c56 413e 612b 313e
000003f0: e7ed 1a3b 2120 32be d94c 5bbe b5c2 72be

blocks.3.blocks.13.bias f4 [16]
0.50258833 0.24947092 -0.07384711 0.13841815 0.27255633 0.17036021 -0.058259863 -0.36118045
0.19556236 0.44677335 0.864222 0.43005484 0.20032619 0.7939546 0.80103546 0.8689093
00000000: a1a9 003f 4e75 7f3e 273d 97bd 7dbd 0d3e
00000010: 818c 8b3e e872 2e3e e5a1 6ebd a5ec b8be
00000020: 8041 483e 7abf e43e a73d 5d3f 2630 dc3e
00000030: 4f22 4d3e 9c40 4b3f a910 4d3f d770 5e3f

blocks.3.blocks.13.running_mean f4 [16]
0.1285424 -0.1261393 -0.054569278 0.43783608 0.16856942 0.26134646 0.06029363 0.22566843
-0.18508385 -0.0822334 0.13998088 0.045517176 0.33788356 0.20395868 0.32318977 -0.39479834
00000000: 9ea0 033e a92a 01be 0984 5fbd 0d2c e03e
00000010: 769d 2c3e 34cf 853e 74f6 763d a015 673e
00000020: 9f86 3dbe fc69 a8bd 2657 0f3e 3870 3a3d
00000030: 13ff ac3e 8bda 503e 2179 a53e 0223 cabe

blocks.3.blocks.13.running_var f4 [16]
0.1918416 0.04968432 0.06290455 0.22987302 0.3749815 0.19157693 0.20333269 0.110937916
0.19180435 0.24352247 0.48979658 0.27397016 0.5934443 0.19945648 0.46196887 0.7651337
00000000: 2072 443e c981 4b3d 1ad4 803d d563 6b3e
00000010: 93fd bf3e be2c 443e 7236 503e 6b33 e33d
00000020: 5c68 443e f45d 793e 9ec6 fa3e d145 8c3e
00000030: f7eb 173f 523e 4c3e 2f87 ec3e cddf 433f

blocks.3.blocks.13.weight f4 [16]
0.49202806 0.02921971 0.12162605 0.88674366 1.0788469 0.51077706 0.49739707 0.87961704
0.61852556 0.9996641 0.80807817 0.37813303 0.8725583 0.4142912 0.9071903 0.9699115
00000000: 1aeb fb3e 2c5e ef3c 1417 f93d a201 633f
00000010: a817 8a3f 49c2 023f d4aa fe3e 952e 613f
00000020: b157 1e3f fde9 7f3f 36de 4e3f a79a c13e
00000030: fb5f 5f3f fa1d d43e a03d 683f 1f4c 783f

blocks.3.blocks.2.weight f4 [8, 16, 3, 3]
-0.05526031 -0.03768457 -0.078540444 -0.07033766 -0.0022364287 -0.045661263 -0.0266187 -0.017513048
-0.17857702 0.06719486 -0.040997714 -0.0017134575 -0.03976045 -0.03308205 0.07273879 -0.03336268
0.02560138 0.059237584 0.16099386 0.070414625 -0.010376268 0.19485216 0.12321891 0.036186717
0.15131322 0.14618479 0.08224968 0.051721424 -0.041608088 0.12349936 -0.0036021844 -0.116897024
0.076380186 -0.009928721 -0.122265875 0.09833033 0.013556835 0.018155852 0.02388377 -0.007995077
0.007895895 0.003048592 0.046697572 0.07043826 0.06695199 0.07019778 0.107885964 0.18615194
0.027629826 0.038401883 0.13646482 0.049825914 0.07512623 0.15338713 0.014056502 -0.008409083
0.115350164 -0.019425528 -0.07270781 0.0692605 -0.022491667 -0.048263717 0.12545906 -0.007239125
-0.012440574 0.08640572 -0.04117614 0.068840384 0.14310807 -0.06601857 0.057148594 0.1400164
0.23529074 -0.048763085 -0.0026829243 0.116271146 -0.115437575 0.017371368 0.17723124 -0.0019017794
0.14128262 0.06800467 0.032049175 -0.0035634772 0.035120156 0.038094744 0.047662433 0.031381167
0.096808486 0.08860599 -0.121820875 -0.094512194 0.21133201 -0.11014752 -0.1840506 0.05298622
-0.094262876 -0.15494473 0.03586894 0.07490591 -0.010857135 0.10090746 -0.0011378211 -0.08837011
0.0637645 0.019472413 -0.03572108 0.12680867 0.15320385 0.01764093 0.05905651 0.028178534
-0.05782956 0.021203123 0.016682137 0.0021995162 0.10097923 0.11641054 0.068459086 -0.11586778
0.043275613 0.10742268 0.025808778 0.00037654908 0.08300123 -0.025360197 0.02583042 0.079593666
0.22961171 -0.06345159 0.014220569 0.20358549 -0.034285463 0.041249868 0.25416803 0.15495372
0.13115773 0.033809014 0.22830553 0.25162044 0.14271381 0.28639972 0.2837984 0.10871146
0.025297398 0.09241422 0.08069027 -0.07329835 0.029721273 0.078593954 -0.18137988 0.025258617
0.018413583 0.008481964 0.06004515 0.032106742 0.048172615 0.085680604 3.50469e-05 -0.0013966436
0.056724794 -0.004831477 0.08137478 0.14973843 0.13293499 -0.056016136 0.009607353 0.066050254
-0.13582714 -0.052338634 0.0051597515 0.17867644 0.17313646 0.11686132 0.36556906 0.25740048
0.09364765 0.38670444 0.20930117 0.062913604 -0.024959581 0.032294378 0.025272785 -0.039642144
-0.009139647 0.037683003 -0.08443332 0.008001625 0.075327 0.20653881 0.11558516 0.11945815
0.3105182 0.19585896 0.17331947 0.25466803 0.1184698 0.14501505 0.18793513 0.1155556
0.09572052 0.32348552 0.20096378 0.1211961 0.37051618 0.19245228 0.08087381 0.15164374
0.038264874 0.0945848 0.016058886 0.017003579 0.16662881 -0.087046 -0.046652384 0.13635735
0.025221288 -0.0020914052 0.04252374 0.032829557 -0.05052966 0.010906885 -0.015579164 -0.032843444
0.015464195 0.0077312216 -0.010231409 0.0893124 -0.04689219 -0.059315074 0.08495959 -0.06121771
-0.05854308 0.063411295 0.016813556 0.005299716 -0.05236993 0.26915348 0.23740716 0.10028328
0.4404558 0.26042822 0.06399084 0.13281696 0.087159716 0.05172883 0.32235923 0.17003544
0.08622273 0.28433332 0.08353483 -0.01157895 0.017154226 0.021696946 0.05759543 -0.04231975
00000000: a358 62bd 235b 1abd d0d9 a0bd 310d 90bd
00000010: 0c91 12bb 4e07 3bbd 760f dabc 8677 8fbc
00000020: e5dc 36be 759d 893d 38ed 27bd 1896 e0ba
00000030: dbdb 22bd 0b81 07bd 13f8 943d 4ea7 08bd
00000040: fcb9 d13c 1ca3 723d 93db 243e 8b35 903d
00000050: 3901 2abc 5387 473e 325a fc3d 8638 143d
00000060: daf1 1a3e 77b1 153e 8572 a83d d8d9 533d
00000070: 3e6d 2abd 3ced fc3d a012 6cbb b567 efbd
00000080: 376d 9c3d 13ac 22bc 8866 fabd 6961 c93d
00000090: 7d1d 5e3c 95bb 943c e5a7 c33c c9fd 02bc
000000a0: c95d 013c e3ca 473b f445 3f3d ef41 903d
000000b0: 201e 893d dbc3 8f3d 51f3 dc3d 9d9e 3e3e
000000c0: f257 e23c 4b4b 1d3d 6fbd 0b3e 4216 4c3d
000000d0: c8db 993d 8411 1d3e 3e4d 663c 40c6 09bc
000000e0: b53c ec3d 4922 9fbc d5e7 94bd 73d8 8d3d
000000f0: 7240 b8bc 2db0 45bd 5778 003e 2f36 edbb
00000100: 8dd3 4bbc 7bf5 b03d 50a8 28bd 30fc 8c3d
00000110: ec8a 123e be34 87bd a514 6a3d 7660 0f3e
00000120: 0ef0 703e cdbb 47bd 00d4 2fbb 911f ee3d
00000130: 896a ecbd 664e 8e3c 1b7c 353e 2145 f9ba
00000140: 64ac 103e 0846 8b3d ff45 033d 3a89 69bb
00000150: 27da 0f3d 3c09 1c3d af39 433d 8a89 003d
00000160: 8743 c63d 0f77 b53d 397d f9bd 9c8f c1bd
00000170: 6b67 583e 0695 e1bd c377 3cbe 1408 593d
00000180: e50c c1bd d5a9 1ebe 4feb 123d 4568 993d
00000190: 20e2 31bc 92a8 ce3d f122 95ba 63fb b4bd
000001a0: f696 823d 9c84 9f3c 4450 12bd 22da 013e
000001b0: 78e1 1c3e b683 903c 3de5 713d abd6 e63c
000001c0: b0de 6cbd 2cb2 ad3c faa8 883c c225 103b
000001d0: 33ce ce3d a668 ee3d 4734 8c3d 164c edbd
000001e0: c541 313d 6c00 dc3d ee6c d33c 906b c539
000001f0: 8dfc a93d 30c0 cfbc 519a d33c 0102 a33d
00000200: 551f 6b3e e8f2 81bd 64fd 683c b778 503e
00000210: ea6e 0cbd 9ff5 283d 5022 823e 30ac 1e3e
00000220: 364e 063e 527b 0a3d edc8 693e 65d4 803e
00000230: 9223 123e fca2 923e 064e 913e 1da4 de3d
00000240: 7d3c cf3c ab43 bd3d f140 a53d 721d 96bd
00000250: 077a f33c def5 a03d a6bb 39be 29eb ce3c
00000260: 15d8 963c eff7 0a3c e7f1 753d 5c82 033d
00000270: a650 453d 5079 af3d 53ff 1238 950f b7ba
00000280: 4258 683d 5e51 9ebb d2a7 a63d 0855 193e
00000290: 1c20 083e 2d71 65bd 2968 1d3c 5b45 873d
000002a0: 4516 0bbe 0961 56bd 2213 a93b f5f6 363e
000002b0: af4a 313e fd54 ef3d de2b bb3e ffc9 833e
000002c0: 57ca bf3d 20fe c53e 0c53 563e d9d8 803d
000002d0: 0978 ccbc 1c47 043d df08 cf3c cd5f 22bd
000002e0: 75be 15bc 7e59 1a3d 60eb acbd 3f19 033c
000002f0: 0b45 9a3d e97e 533e eab7 ec3d 79a6 f43d
00000300: 3efc 9e3e 408f 483e a97a 313e d963 823e
00000310: 4ba0 f23d d37e 143e 1172 403e 6aa8 ec3d
00000320: 1f09 c43d e59f a53e 73c9 4d3e a935 f83d
00000330: 4cb4 bd3e 3612 453e 2ba1 a53d 7f48 1b3e
00000340: a1bb 1c3d adb5 c13d ed8d 833c 174b 8b3c
00000350: bea0 2a3e 2c45 b2bd 9216 3fbd 43a1 0b3e
00000360: e09c ce3c f50f 09bb 602d 2e3d 4978 063d
00000370: 30f8 4ebd cbb2 323c c03f 7fbc d986 06bd
00000380: 895d 7d3c 3056 fd3b a4a1 27bc 6be9 b63d
00000390: 0612 40bd 5df4 72bd 4bff ad3d 6cbf 7abd
000003a0: deca 6fbd c8dd 813d 95bc 893c 3da9 ad3b
000003b0: da81 56bd 7cce 893e dd1a 733e 5261 cd3d
000003c0: 6c83 e13e d956 853e a10d 833d 2b01 083e
000003d0: cb80 b23d 9ce1 533d 450c a53e c51d 2e3e
000003e0: 8b95 b03d 2394 913e 4f14 ab3d a3b5 3dbc
000003f0: 0587 8c3c cbbd b13c 30e9 6b3d 7957 2dbd

blocks.3.blocks.3.bias f4 [8]
0.6838236 0.3341998 0.35878304 0.5896191 0.17264016 0.38414976 0.14987871 0.96814036
00000000: 100f 2f3f 3c1c ab3e 69b2 b73e 47f1 163f
00000010: 95c8 303e 47af c43e ce79 193e 0cd8 773f

blocks.3.blocks.3.running_mean f4 [8]
3.2353642 4.188879 4.2210402 -10.037904 4.1296754 2.1831415 1.5719914 0.53765386
00000000: 3510 4f40 4c0b 8640 c312 8740 419b 20c1
00000010: 4d26 8440 97b8 0b40 0437 c93f afa3 093f

blocks.3.blocks.3.running_var f4 [8]
11.185525 24.04957 43.533802 39.801384 20.552153 16.52104 8.107241 13.619404
00000000: e9f7 3241 8565 c041 9d22 2e42 9e34 1f42
00000010: cf6a a441 172b 8441 42b7 0141 14e9 5941

blocks.3.blocks.3.weight f4 [8]
0.32699457 0.35150462 0.3081306 0.8270093 0.91972 0.8215984 0.3606832 0.6352989
00000000: d56b a73e 6af8 b33e 4bc3 9d3e e2b6 533f
00000010: c572 6b3f 4654 523f 78ab b83e f3a2 223f

blocks.3.blocks.4.blocks.2.weight f4 [8, 1, 3, 3]
-0.17840225 -0.11487974 -0.17731906 -0.24201532 0.068808064 0.061456915 -0.039856587 -0.071792945
-0.14782873 -0.1520786 -0.22959578 0.91557246 0.11332242 -0.29885796 0.38181612 0.16734982
-0.12265976 0.49931186 0.79672056 -0.15790202 -0.4506278 0.37245396 0.0931911 -0.4928709
0.58924735 0.028609933 -0.6441437 0.15760712 0.1285738 0.22198693 0.1453646 0.15804777
0.41160336 0.11063812 0.26922128 0.5383975 -0.20637816 0.42003015 0.23815636 -0.010111013
0.41172123 0.40565333 -0.35649619 0.298655 0.36453104 -0.114061184 -0.34358582 0.041184742
-0.07914484 -0.28497085 -0.054711763 0.26194155 -0.32034698 0.074660994 0.39741078 -0.23721324
-0.18900873 0.14204872 0.038950738 0.0047693183 0.16968744 0.16408792 0.085020624 -0.018162701
0.15855038 -0.16714604 -0.14516851 -0.056946486 0.08099191 0.26129133 0.55611753 0.33781046
00000000: 14af 36be 1246 ebbd 2193 35be ddd2 77be
00000010: 3eeb 8c3d 3fba 7b3d a940 23bd 2e08 93bd
00000020: 6a60 17be 7eba 1bbe 281b 6bbe f562 6a3f
00000030: 9615 e83d e903 99be 677d c33e c05d 2b3e
00000040: 0a35 fbbd cea5 ff3e e1f5 4b3f 11b1 21be
00000050: b0b8 e6be 49b2 be3e fada be3d 9359 fcbe
00000060: ead8 163f 615f ea3c 9ae6 24bf c363 213e
00000070: daa8 033e 8b50 633e 75da 143e 46d7 213e
00000080: adbd d23e 3d96 e23d 5fd7 893e 6bd4 093f
00000090: cc54 53be 310e d73e 43df 733e aaa8 25bc
000000a0: 20cd d23e cbb1 cf3e ab86 b6be 4fe9 983e
000000b0: d0a3 ba3e e998 e9bd 7bea afbe 55b1 283d
000000c0: b116 a2bd b3e7 91be 7119 60bd 341d 863e
000000d0: 8504 a4be dde7 983d 6d79 cb3e 07e8 72be
000000e0: 818b 41be 3875 113e cf8a 1f3d f147 9c3b
000000f0: 8bc2 2d3e aa06 283e 4b1f ae3d f2c9 94bc
00000100: 085b 223e 5528 2bbe 0ea7 14be b840 69bd
00000110: 16df a53d fac7 853e b85d 0e3f 7ef5 ac3e

blocks.3.blocks.4.blocks.3.bias f4 [8]
-0.25272995 0.827904 0.6483666 0.5699408 0.17708664 0.46084464 0.00047450772 -0.07138631
00000000: d265 81be 84f1 533f 5afb 253f a4e7 113f
00000010: 3356 353e d4f3 eb3e 59c7 f839 fc32 92bd

blocks.3.blocks.4.blocks.3.running_mean f4 [8]
-0.57571614 0.4262116 0.048122946 1.5997946 0.6705235 -0.39883518 0.12883961 0.98444307
00000000: 2262 13bf 6838 da3e 911c 453d 12c6 cc3f
00000010: 6ea7 2b3f 2034 ccbe 88ee 033e 7604 7c3f

blocks.3.blocks.4.blocks.3.running_var f4 [8]
0.07150935 0.19801612 0.022203805 1.214386 1.4092382 0.3772422 0.029287636 0.38596714
00000000: 7e73 923d bdc4 4a3e c1e4 b53c 0071 9b3f
00000010: eb61 b43f e425 c13e a0ec ef3c 7c9d c53e

blocks.3.blocks.4.blocks.3.weight f4 [8]
0.5824191 0.73765266 0.4119885 1.0524489 1.0077428 0.6422308 0.41869715 0.90772814
00000000: 6b19 153f ced6 3c3f 28f0 d23e a5b6 863f
00000010: b7fd 803f 3d69 243f 795f d63e df60 683f

blocks.3.blocks.4.blocks.5.weight f4 [8, 8, 1, 1]
0.20893303 -0.88765574 -0.3707354 -0.0797965 -0.43579674 0.46040517 -0.28383482 0.008437577
0.498859 0.02745743 -0.004830993 0.49589914 -0.07299931 0.22911091 0.04293271 0.21732864
0.116923615 -0.47840723 0.032818507 0.3931082 -0.2319998 0.5895864 0.0089667495 -0.72990525
0.1427707 -0.18421999 0.40619823 0.6238971 0.04966419 -0.025812926 -0.15040207 0.5195518
-0.030668411 0.1725834 0.55903625 -0.30440542 -0.88900423 -0.16875865 0.11965701 0.09761211
0.10026182 -0.19680166 -0.59101313 -0.4190863 -0.60604864 -0.14615166 -0.18784925 -0.021309588
-0.024626184 -0.49819535 -0.027372444 0.33904815 -0.098244384 0.20812155 -0.57449245 -0.013940877
0.28146765 0.25870737 -0.16418509 0.40232798 -0.28604642 0.08758637 0.33147407 -0.07423181
00000000: 8af2 553e 683d 63bf 08d1 bdbe 596c a3bd
00000010: c020 dfbe 3aba eb3e cc52 91be c33d 0a3c
00000020: 726a ff3e 67ee e03c 4e4d 9ebb 7ee6 fd3e
00000030: aa80 95bd 0d9c 6a3e 36da 2f3d 668b 5e3e
00000040: a675 ef3d cbf1 f4be b36c 063d 7a45 c93e
00000050: 5b91 6dbe 22ef 163f 46e9 123c 12db 3abf
00000060: 7b32 123e 2aa4 3cbe 37f9 cf3e b8b7 1f3f
00000070: ad6c 4b3d a175 d3bc 0003 1abe 5901 053f
00000080: 523c fbbc b4b9 303e 001d 0f3f 07db 9bbe
00000090: c895 63bf 11cf 2cbe bc0e f53d dce8 c73d
000000a0: 1256 cd3d 6086 49be a34c 17bf 7b92 d6be
000000b0: 0126 1bbf c8a8 15be 8e5b 40be 7291 aebc
000000c0: dabc c9bc 7613 ffbe 2d3c e0bc b897 ad3e
000000d0: 5a34 c9bd d11d 553e f011 13bf 4768 64bc
000000e0: 871c 903e 4b75 843e 2320 28be effd cd3e
000000f0: ad74 92be 7c60 b33d f8b6 a93e d906 98bd

blocks.3.blocks.4.blocks.6.bias f4 [8]
0.6709833 -0.32283717 0.2969431 0.92206615 0.40728325 0.45698968 0.17877069 1.1952636
00000000: 90c5 2b3f ea4a a5be ed08 983e 870c 6c3f
00000010: 6e87 d03e 8dfa e93e aa0f 373e 66fe 983f

blocks.3.blocks.4.blocks.6.running_mean f4 [8]
-0.99141324 0.64907616 -0.046478167 0.79228884 -0.17069277 -1.2815801 -0.18359397 0.4110919
00000000: 42cd 7dbf db29 263f e45f 3ebd 71d3 4a3f
00000010: 16ca 2ebe d10a a4bf 0f00 3cbe a37a d23e

blocks.3.blocks.4.blocks.6.running_var f4 [8]
0.3540514 0.26251963 0.682882 0.18587872 0.48607403 0.20985188 0.30864275 0.26387343
00000000: 3a46 b53e f968 863e 5bd1 2e3f fe56 3e3e
00000010: b2de f83e 69e3 563e 6c06 9e3e 6b1a 873e

blocks.3.blocks.4.blocks.6.weight f4 [8]
0.48118302 0.66276914 1.4771003 0.86475515 0.8822239 0.6289463 0.6038374 0.37933606
00000000: 9f5d f63e 3dab 293f 9f11 bd3f 9860 5d3f
00000010: 6dd9 613f a002 213f 1695 1a3f 5638 c23e

blocks.3.blocks.5.blocks.2.weight f4 [8, 1, 3, 3]
0.4335105 0.14814964 -0.49573866 0.5361083 -0.14583808 -0.48309794 0.47016418 -0.23727903
-0.3114745 -0.1415838 0.36504307 -0.16780989 -0.23924285 -0.18115024 0.46596336 0.37935886
-0.17972423 -0.26625264 -0.48373246 0.12900859 0.22535172 -0.5511157 0.06162316 0.57803214
-0.34208214 -0.7412037 0.08498846 0.41142744 0.33067358 0.43043736 -0.58076113 -0.52459294
-0.6468601 0.13694489 0.14231166 0.28266904 -0.36622602 0.5260552 0.3239308 0.18122937
0.34627208 -0.030108184 -0.32864782 0.60943913 0.0027187213 0.59542507 0.34393534 -0.111031026
0.119106196 0.2560441 0.23772185 0.26544428 0.40540323 -0.12700547 -0.48582146 -0.09792694
0.5936788 -0.07429444 -0.19880311 0.24728566 0.55787444 0.27177796 -0.8615964 0.21336602
-0.11902484 0.33318564 -0.28969547 -0.52596325 0.4992042 0.20837387 -0.32959577 0.33346444
00000000: 17f5 dd3e 8ab4 173e 75d1 fdbe 653e 093f
00000010: 9456 15be 9d58 f7be 5cb9 f03e 46f9 72be
00000020: 9679 9fbe 58fb 10be ede6 ba3e 5bd6 2bbe
00000030: 14fc 74be 737f 39be c092 ee3e 533b c23e
00000040: a109 38be 4452 88be c8ab f7be d41a 043e
00000050: 9ac2 663e eb15 0dbf 9168 7c3d eaf9 133f
00000060: 6425 afbe 87bf 3dbf 6e0e ae3d 9ea6 d23e
00000070: 0c4e a93e 4962 dc3e c3ac 14bf b94b 06bf
00000080: a098 25bf 483b 0c3e 26ba 113e ffb9 903e
00000090: fa81 bbbe 8eab 063f 42da a53e 3194 393e
000000a0: 934a b13e 70a5 f6bc 8744 a8be 3404 1c3f
000000b0: 932c 323b c76d 183f 4b18 b03e 3c64 e3bd
000000c0: f3ed f33d 3618 833e 5b6d 733e 50e8 873e
000000d0: 0391 cf3e b90d 02be 97bd f8be eb8d c8bd
000000e0: 55fb 173f af27 98bd 0b93 4bbe 7438 7d3e
000000f0: dcd0 0e3f 7b26 8b3e 9591 5cbf 9f7c 5a3e
00000100: 4cc3 f3bd 4f97 aa3e f752 94be 87a5 06bf
00000110: b197 ff3e f65f 553e c7c0 a8be dabb aa3e

blocks.3.blocks.5.blocks.3.bias f4 [8]
0.59732133 -0.12557934 0.36472014 0.23441082 0.51323575 -0.58987266 0.13995278 0.53286463
00000000: 0dea 183f df97 00be 99bc ba3e 6409 703e
00000010: 6b63 033f e501 17bf c84f 0f3e d169 083f

blocks.3.blocks.5.blocks.3.running_mean f4 [8]
-0.11650408 0.013418335 -1.0473256 -0.030185306 0.8147841 1.6800556 -0.022873074 0.6988918
00000000: b199 eebd 93d8 5b3c c40e 86bf 2d47 f7bc
00000010: b195 503f 100c d73f 5060 bbbc 93ea 323f

blocks.3.blocks.5.blocks.3.running_var f4 [8]
0.100607194 0.009491218 1.1408215 0.58959717 0.6019019 1.2427347 0.026948407 0.17255789
00000000: 250b ce3d 0e81 1b3c 7006 923f d7ef 163f
00000010: 3e16 1a3f ee11 9f3f e8c2 dc3c 04b3 303e

blocks.3.blocks.5.blocks.3.weight f4 [8]
0.7315573 0.5217644 0.92766696 0.6808392 0.5402396 1.0252783 0.64840215 0.7242134
00000000: 5747 3b3f 5a92 053f 957b 6d3f 7a4b 2e3f
00000010: 244d 0a3f 523c 833f affd 253f 0d66 393f

blocks.3.blocks.5.blocks.5.weight f4 [8, 8, 1, 1]
0.32590058 -0.06252303 0.26896915 -0.08107794 -0.32939297 1.0060376 -0.03352485 -0.11896172
-0.03748663 -0.0001369772 0.6321264 -0.61910707 -0.036393616 0.19414482 0.26210758 0.30089736
0.23472375 -0.14752394 -0.4592914 0.113939725 -0.1759567 0.063489504 0.4644917 0.016092736
-0.17728148 -0.014177142 0.8097098 -0.12467596 -0.12575388 -0.038584545 -0.07562435 -0.41164774
-0.77599424 -0.2024837 0.16109209 -0.2505862 0.41026446 -0.07635559 -0.16072282 -0.4957744
-0.15840721 0.0040125987 0.2640542 -0.040640835 -0.7321333 -0.41780034 0.24961685 -0.26224133
0.046346255 0.33741203 -0.25514516 0.25841054 0.3012461 -0.00661486 0.6003986 0.6097692
-0.8099791 0.29562873 -0.14707656 0.13761874 -0.07364553 -0.09157287 0.21229681 -0.45460802
00000000: 71dc a63e 130c 80bd 53b6 893e 310c a6bd
00000010: 32a6 a8be d7c5 803f 5a51 09bd 34a2 f3bd
00000020: 958b 19bd 8aa1 0fb9 09d3 213f cd7d 1ebf
00000030: 7911 15bd e6cd 463e f732 863e 380f 9a3e
00000040: 6c5b 703e 8410 17be 3e28 ebbe 3b59 e93d
00000050: fe2d 34be c906 823d dbd1 ed3e ead4 833c
00000060: 4789 35be 3e47 68bc 2449 4f3f 1c56 ffbd
00000070: a0c5 00be d40a 1ebd f0e0 9abd 7ec3 d2be
00000080: 8fa7 46bf e357 4fbe 53f5 243e d64c 80be
00000090: 2f0e d23e 5260 9cbd 8694 24be 24d6 fdbe
000000a0: 8035 22be 1e7c 833b 1d32 873e 0177 26bd
000000b0: 176d 3bbf ede9 d5be 8f9b 7f3e 7f44 86be
000000c0: 92d5 3d3d 45c1 ac3e 63a2 82be 634e 843e
000000d0: ee3c 9a3e 78c1 d8bb b9b3 193f d619 1c3f
000000e0: ca5a 4fbf a65c 973e 3d9b 16be edeb 0c3e
000000f0: 78d3 96bd 8f8a bbbd 5664 593e 62c2 e8be

blocks.3.blocks.5.blocks.6.bias f4 [8]
0.18071021 -0.89318967 -0.017720038 0.37651563 -0.3656853 0.6448472 0.070042714 0.7563026
00000000: 190c 393e 14a8 64bf 9d29 91bc a8c6 c03e
00000010: 1b3b bbbe b514 253f 8e72 8f3d 0c9d 413f

blocks.3.blocks.5.blocks.6.running_mean f4 [8]
0.3220563 0.44125625 -0.043889657 -0.018851489 -0.6947202 -0.54059917 0.7182086 -0.85007274
00000000: 90e4 a43e 57ec e13e a4c5 33bd 706e 9abc
00000010: 2fd9 31bf b564 0abf 85dc 373f 5e9e 59bf

blocks.3.blocks.5.blocks.6.running_var f4 [8]
0.20212744 0.24023694 0.15091339 0.28641227 0.40576103 0.26177773 0.32619897 0.37340215
00000000: 7ffa 4e3e ac00 763e 0a89 1a3e a1a4 923e
00000010: e9bf cf3e bb07 863e 8d03 a73e 912e bf3e

blocks.3.blocks.5.blocks.6.weight f4 [8]
0.8638963 0.6948871 0.110531 0.68251485 0.907214 0.9004521 1.062993 0.7427103
00000000: 4f28 5d3f 1fe4 313f 145e e23d 4bb9 2e3f
00000010: 2d3f 683f 0784 663f 2810 883f 4322 3e3f

blocks.3.blocks.6.blocks.2.weight f4 [8, 1, 3, 3]
-0.23227835 -0.0922755 -0.35344398 -0.019436551 0.35256213 0.088209845 -0.235831 -0.05984492
-0.3808181 0.2945897 0.15762728 0.5226912 0.03630539 0.078083135 0.38907343 -0.22787203
-0.21786968 -0.2582232 -0.29946122 -0.2975483 -0.09687748 0.13660963 0.049481235 0.1583267
0.11972118 -0.2596488 -0.48698258 -0.2722142 -0.28075147 0.108702585 -0.2928422 -0.48791787
-0.19340618 -0.020745343 -0.22442956 -0.13189863 0.4551518 0.21584274 -0.03429462 0.062160414
0.023404233 -0.15791473 0.3331451 0.5430108 0.14243226 0.64301586 0.029997235 -0.5264382
-0.19010544 -0.06110306 0.04838382 0.093905695 -0.23603089 -0.43264294 0.22862248 -0.2253502
-0.06890584 0.009563245 0.09632663 -0.06872458 0.38836166 0.26572862 0.11837803 0.24034074
0.31381193 0.45775214 0.04793952 -0.2765041 0.15325946 0.18886635 0.004685193 0.36437267
00000000: 60da 6dbe f0fa bcbd 9cf6 b4be 6739 9fbc
00000010: 0683 b43e 5da7 b43d af7d 71be f21f 75bd
00000020: 97fa c2be 76d4 963e 0c69 213e 17cf 053f
00000030: f6b4 143d 0dea 9f3d a234 c73e 4957 69be
00000040: 3b19 5fbe d535 84be fb52 99be 4058 98be
00000050: b367 c6bd 65e3 0b3e d6ac 4a3d 6520 223e
00000060: 6130 f53d b0f0 84be c855 f9be a95f 8bbe
00000070: a8be 8fbe 769f de3d 6aef 95be 5fd0 f9be
00000080: 450c 46be 23f2 a9bc ddd0 65be 6f10 07be
00000090: a809 e93e e105 5d3e 8478 0cbd eb9b 7e3d
000000a0: 3cba bf3c 66b4 21be ff91 aa3e c102 0b3f
000000b0: c3d9 113e b09c 243f c3bc f53c a7c4 06bf
000000c0: 00ab 42be 3447 7abd 1d2e 463d a151 c03d
000000d0: 15b2 71be 6083 ddbe 031c 6a3e 34c2 66be
000000e0: 811e 8dbd 28af 1c3c e546 c53d 79bf 8cbd
000000f0: 57d7 c63e 950d 883e 2e70 f23d e21b 763e
00000100: f5ab a03e 7d5e ea3e 3b5c 443d f291 8dbe
00000110: 0cf0 1c3e 2e66 413e 3f86 993b 0e8f ba3e

blocks.3.blocks.6.blocks.3.bias f4 [8]
0.025091646 0.5078045 0.3219393 0.40510377 0.011021693 0.8014218 -0.027307842 -0.049557425
00000000: ff8c cd3c 7aff 013f 3ad5 a43e c369 cf3e
00000010: 5594 343c fb29 4d3f b2b4 dfbc bafc 4abd

blocks.3.blocks.6.blocks.3.running_mean f4 [8]
-1.4419107 0.122841254 -0.98890656 -3.4752905 0.94978005 -0.9680609 0.45820367 4.38871
00000000: 8890 b8bf 3294 fb3d fb28 7dbf 296b 5ec0
00000010: c924 733f d7d2 77bf ac99 ea3e 5070 8c40

blocks.3.blocks.6.blocks.3.running_var f4 [8]
0.8783703 0.1035565 0.8432634 5.3862877 1.2084514 0.49310023 0.47642344 2.0531766
00000000: e0dc 603f 6e15 d43d 1ce0 573f 785c ac40
00000010: 89ae 9a3f a277 fc3e c6ed f33e 3f67 0340

blocks.3.blocks.6.blocks.3.weight f4 [8]
0.7147994 0.52635574 0.8157247 0.9592451 0.90029234 0.4276541 0.43681967 0.8915807
00000000: 18fd 363f 40bf 063f 55d3 503f 1691 753f
00000010: 8f79 663f 7af5 da3e d4a6 df3e a23e 643f

blocks.3.blocks.6.blocks.5.weight f4 [8, 8, 1, 1]
-0.15929039 -0.3314262 -0.30051684 0.6135413 -0.54396456 0.5734981 -0.2937941 0.031773888
-0.2322482 0.5503681 0.13755177 0.054169044 0.013191129 -0.33285138 -0.07930004 0.35536858
0.117121875 0.1558866 -1.0367132 -0.58377796 0.022590665 -0.19128798 0.29023007 0.15796524
-0.50814325 -0.06579666 -0.010666341 0.6283664 -0.068188354 -0.26347673 0.005242154 0.22512294
0.22807513 0.6333935 -0.10422178 0.34960198 -0.44807494 0.33813992 0.18120605 -0.30591685
-0.22859606 0.057575833 0.32468963 0.51281047 -0.63742685 0.3951206 -0.022519901 0.05741513
-0.16857943 0.1906823 -0.16594914 0.08653327 -0.0099846795 -0.107195735 0.47203028 0.25345466
0.44287091 -0.030766033 -0.09603656 0.33109128 -0.20744908 -0.30685496 0.15293662 0.844835
00000000: 051d 23be b2b0 a9be 58dd 99be 0b11 1d3f
00000010: 4341 0bbf c5d0 123f 2e6c 96be 5625 023d
00000020: 79d2 6dbe ece4 0c3f 5fda 0c3e 5ce0 5d3d
00000030: 9b1f 583c 7f6b aabe 0f68 a2bd dff2 b53e
00000040: 98dd ef3d bda0 1f3e 05b3 84bf 7972 15bf
00000050: 0f10 b93c ffe0 43be 0999 943e a4c1 213e
00000060: ad15 02bf 66c0 86bd e0c1 2ebc 9fdc 203f
00000070: 56a6 8bbd 6ce6 86be 60c6 ab3b a186 663e
00000080: 878c 693e 1426 223f 3b72 d5bd 08ff b23e
00000090: 146a e5be ad20 ad3e 148e 393e 22a1 9cbe
000000a0: 1615 6abe a3d4 6b3d b83d a63e 8c47 033f
000000b0: 682e 23bf 3f4d ca3e a87b b8bc 212c 6b3d
000000c0: 16a0 2cbe 3942 433e 92ee 29be 5b38 b13d
000000d0: c896 23bc 7089 dbbd f4ad f13e cfc4 813e
000000e0: fabf e23e 0c09 fcbc d1ae c4bd cc84 a93e
000000f0: 886d 54be 181c 9dbe 6b9b 1c3e 1b47 583f

blocks.3.blocks.6.blocks.6.bias f4 [8]
-0.5401899 -0.21707803 0.30273625 -1.0301421 0.090750776 -0.18603364 0.08264779 0.6244939
00000000: e349 0abf b449 5ebe 3f00 9b3e b2db 83bf
00000010: 8bdb b93d 9a7f 3ebe 3f43 a93d d5de 1f3f

blocks.3.blocks.6.blocks.6.running_mean f4 [8]
0.23634611 0.17319031 -0.8915085 0.053061202 0.5850056 0.56969315 0.075839 0.25108805
00000000: b704 723e cd58 313e e739 64bf b456 593d
00000010: edc2 153f 69d7 113f 7a51 9b3d 9d8e 803e

blocks.3.blocks.6.blocks.6.running_var f4 [8]
0.30848676 0.16002843 0.6725232 0.1914794 0.20326902 0.23577821 0.05848395 0.19558914
00000000: faf1 9d3e 7ede 233e 7b2a 2c3f 2d13 443e
00000010: c125 503e d86f 713e de8c 6f3d 8548 483e

blocks.3.blocks.6.blocks.6.weight f4 [8]
1.2148123 0.87938374 1.1260573 0.5454093 1.015785 0.9830418 0.5393155 0.8916852
00000000: f87e 9b3f 4b1f 613f a522 903f f29f 0b3f
00000010: 3e05 823f a1a8 7b3f 9510 0a3f 7b45 643f

blocks.3.blocks.9.weight f4 [16, 8, 3, 3]
-0.17013253 -0.18447961 -0.19432749 -0.07109807 -0.11960091 -0.011633731 -0.09142446 0.065088905
-0.04696443 -0.24439128 -0.32936132 0.047004692 0.2025837 -0.3871248 0.16347244 0.42674795
-0.35634112 0.10245032 0.063868694 0.15715517 0.10731119 -0.0012020501 0.12671094 0.11493251
0.014379091 0.16732271 0.31478307 0.30794847 -0.2981986 -0.24146159 0.65496033 0.02882396
-0.008393226 0.5512318 0.07920253 0.18066627 -0.0899174 0.04002345 0.11702631 0.17259346
-0.062447824 0.040989622 0.28326178 0.08371975 0.078483075 0.017016662 -0.011783869 0.22565229
0.0018388189 -0.23936659 -0.1125408 0.1745135 -0.25520188 -0.16934578 0.3064499 0.03286242
-0.03818201 0.02029679 -0.04844386 0.11707232 0.082435265 -0.07108857 0.17363456 -0.08236368
0.13951077 0.39993867 -0.002420519 -0.25987244 0.24129517 0.08280714 -0.19355318 0.65573037
0.71769863 0.56995374 0.38065848 0.80123496 0.4906877 0.32859877 0.49206245 0.49489295
0.4365283 0.011844098 0.06786791 0.40566367 0.12905967 -0.13550721 0.14929585 0.4208797
0.13225089 0.21167965 0.14072779 -0.2523208 -0.1719093 -0.074614145 -0.35713533 0.01555196
-0.3033873 -0.3112878 0.2000706 0.16227365 -0.055198222 0.12315309 0.2277955 -0.06648421
0.039470796 0.55722445 0.19939509 0.26621643 -0.067390196 0.22386979 0.23841192 0.037574895
0.1331676 0.23517884 -0.09698681 -0.02679551 0.113491446 -0.10859532 -0.15585358 -0.16114789
-0.06955375 0.017422995 -0.14875925 0.0033251208 0.13482861 -0.24183066 0.059504766 0.06618606
0.32579106 0.1633796 -0.094723634 0.22909178 0.13172187 -0.073022746 0.21840918 0.123807125
-0.07613768 -0.13891205 0.23762731 0.24420851 0.19128437 0.018057121 0.18787192 0.07794914
-0.11516408 0.08380415 -0.022672001 -0.062458873 0.06362818 0.016913936 0.045693483 0.103350215
-0.21402514 0.06394083 0.18157628 -0.021737196 0.010903219 0.20453918 -0.0060429247 0.008909239
0.17684424 -0.2196206 -0.065299764 -0.11904308 -0.037223708 -0.08141125 -0.10979841 0.02185521
-0.04353182 -0.11901086 -0.06627018 -0.19810675 -0.3142986 -0.36986348 -0.15436192 0.120301604
-0.015022104 -0.26076022 -0.18335325 -0.23339762 0.18397306 -0.040919237 0.025564777 0.07877177
0.13620391 0.046578936 -0.08021738 0.038047113 -0.0092542255 -0.1498675 -0.20602596 -0.17740676
0.006635901 -0.23156334 -0.36266991 -0.084309354 -0.46438274 -0.6669377 -0.0765361 0.08495368
-0.15338488 -0.26372507 -0.026015343 -0.34766886 -0.09912282 0.05156501 -0.19993168 0.08396539
0.24376267 0.18120936 0.22589742 -0.06952919 -0.29306862 0.21440876 0.40274966 0.5843325
0.045362666 0.017984228 -0.23610687 0.06506138 0.07530914 0.04574092 -0.09387952 -0.020852275
0.2240473 0.012508988 0.083528675 0.41288197 -0.07329113 -0.045287974 -0.16094069 -0.1702763
-0.030210627 -0.17753525 -0.28227365 -0.2136366 -0.018042034 -0.24539317 -0.041161325 0.23911905
-0.1282905 0.18868455 0.5414663 -0.35779393 -0.15150507 -0.29728723 -0.07788042 0.24077316
0.13170215 0.028806034 0.21820225 0.3416709 0.06986276 0.19468948 0.32466957 -0.342339
00000000: 3937 2ebe 39e8 3cbe c9fd 46be dd9b 91bd
00000010: 52f1 f4bd 689b 3ebc bf3c bbbd 554d 853d
00000020: c65d 40bd b541 7abe 0ca2 a8be fe87 403d
00000030: 1a72 4f3e 3935 c6be 5265 273e b57e da3e
00000040: 5872 b6be 79d1 d13d 97cd 823d 49ed 203e
00000050: f8c5 db3d 1c8e 9dba 83c0 013e bc61 eb3d
00000060: 4796 6b3c a556 2b3e 3f2b a13e 6cab 9d3e
00000070: 7dad 98be b541 77be 7bab 273f 3a20 ec3c
00000080: be83 09bc 871d 0d3f f034 a23d 9400 393e
00000090: 9d26 b8bd a1ef 233d 7dab ef3d 57bc 303e
000000a0: 4ac9 7fbd bce4 273d b007 913e 4375 ab3d
000000b0: bcbb a03d 8766 8b3c 2111 41bc 6511 673e
000000c0: 8604 f13a 841c 75be ca7b e6bd abb3 323e
000000d0: d2a9 82be fb68 2dbe 00e7 9c3e bf9a 063d
000000e0: bd64 1cbd 7445 a63c 126d 46bd 9dc3 ef3d
000000f0: d2d3 a83d e296 91bd 42cd 313e 4aae a8bd
00000100: e9db 0e3e c3c4 cc3e 92a1 1ebb 000e 85be
00000110: 1516 773e ca96 a93d ce32 46be f2dd 273f
00000120: 19bb 373f 7de8 113f abe5 c23e bc1d 4d3f
00000130: 6b3b fb3e 193e a83e 9cef fb3e 9c62 fd3e
00000140: a380 df3e bf0d 423c 55fe 8a3d 26b3 cf3e
00000150: 3828 043e 67c2 0abe 03e1 183e 8b7d d73e
00000160: c76c 073e 8dc2 583e f21a 103e 3130 81be
00000170: fe08 30be 4dcf 98bd 71da b6be a6cd 7e3c
00000180: 9555 9bbe 1d61 9fbe 4fdf 4c3e 102b 263e
00000190: 8817 62bd b037 fc3d 3943 693e e028 88bd
000001a0: 21ac 213d 43a6 0e3f 3a2e 4c3e 854d 883e
000001b0: df03 8abd 1f3e 653e 4122 743e 22e8 193d
000001c0: 165d 083e b9d2 703e 05a1 c6bd 4282 dbbc
000001d0: 346e e83d 3967 debd 1598 1fbe f403 25be
000001e0: 3272 8ebd abba 8e3c 5854 18be 45ea 593b
000001f0: 8310 0a3e 75a2 77be 45bb 733d 8f8c 873d
00000200: 16ce a63e fb4c 273e 77fe c1bd 0997 6a3e
00000210: 19e2 063e f38c 95bd a8a6 5f3e 978e fd3d
00000220: 12ee 9bbd f63e 0ebe 9354 733e cc11 7a3e
00000230: 0de0 433e 87ec 933c 7f61 403e cca3 9f3d
00000240: 25db ebbd 83a1 ab3d a2ba b9bc e0d4 7fbd
00000250: 7e4f 823d 188f 8a3c 1729 3b3d 47a9 d33d
00000260: 6829 5bbe 69f3 823d 22ef 393e 3412 b2bc
00000270: 6aa3 323c b872 513e ba03 c6bb 0ff8 113c
00000280: a816 353e 39e4 60be e2bb 85bd dccc f3bd
00000290: e377 18bd f1ba a6bd fddd e0bd b309 b33c
000002a0: 6c4e 32bd f7bb f3bd a9b8 87bd 7fdc 4abe
000002b0: bfeb a0be bf5e bdbe 0d11 1ebe b060 f63d
000002c0: 451f 76bc 5d82 85be f4c0 3bbe c9ff 6ebe
000002d0: 6f63 3c3e ee9a 27bd 396d d13c 1853 a13d
000002e0: 0a79 0b3e 8ec9 3e3d 0249 a4bd 4ad7 1b3d
000002f0: 099f 17bc de76 19be 78f8 52be 1eaa 35be
00000300: f971 d93b f11e 6dbe dfaf b9be 62aa acbd
00000310: 93c3 edbe 6ebc 2abf f5be 9cbd 32fc ad3d
00000320: ed10 1dbe f906 87be 211e d5bc a701 b2be
00000330: e800 cbbd d535 533d e4ba 4cbe 0cf6 ab3d
00000340: ec9c 793e f28e 393e a751 673e 5265 8ebd
00000350: 170d 96be f88d 5b3e 3435 ce3e d196 153f
00000360: 34ce 393d a953 933c 00c6 71be e73e 853d
00000370: ae3b 9a3d d55a 3b3d e843 c0bd 64d2 aabc
00000380: a86c 653e 80f2 4c3c 1511 ab3d 4465 d33e
00000390: a919 96bd e27f 39bd a3cd 24be e95c 2ebe
000003a0: 477c f7bc cdcb 35be 2c86 90be 8ec3 5abe
000003b0: e3cc 93bc 5948 7bbe c798 28bd a0db 743e
000003c0: 965e 03be 8636 413e 899d 0a3f c430 b7be
000003d0: 2524 1bbe 0836 98be c57f 9fbd 3d8d 763e
000003e0: eedc 063e a2fa eb3c 6970 5f3e 7def ae3e
000003f0: 3514 8f3d ae5c 473e 173b a63e 0f47 afbe

blocks.4.blocks.10.bias f4 [16]
0.7140776 0.12730259 -0.24252224 -0.10549943 0.44282088 0.15973301 -0.21714707 0.037295874
0.10032362 0.07303577 0.33138022 -0.27583247 0.26424673 0.2713159 0.5956058 -0.1174099
00000000: cacd 363f 9c5b 023e c057 78be 1610 d8bd
00000010: 6bb9 e23e 0d91 233e cd5b 5ebe 8fc3 183d
00000020: 7876 cd3d c793 953d abaa a93e ea39 8dbe
00000030: 594b 873e ebe9 8a3e 9f79 183f 9a74 f0bd

blocks.4.blocks.10.running_mean f4 [16]
3.198081 2.7085361 -5.492494 -4.6046567 2.4144459 1.5291699 0.83344555 -3.4007177
-0.26431745 -3.5842032 1.2872809 -0.98678625 0.89247954 2.6321287 1.781436 1.3086605
00000000: 5cad 4c40 a858 2d40 83c2 afc0 5959 93c0
00000010: 4886 1a40 d7bb c33f b05c 553f 5ca5 59c0
00000020: 9e54 87be 9663 65c0 9fc5 a43f 069e 7cbf
00000030: 8a79 643f cc74 2840 1806 e43f 3082 a73f

blocks.4.blocks.10.running_var f4 [16]
11.766007 12.859267 10.610114 9.47132 16.751297 13.961692 7.689406 45.648
9.691969 7.0726337 4.9396234 7.5247407 7.96567 39.808514 11.467318 14.137337
00000000: 9141 3c41 8fbf 4d41 07c3 2941 878a 1741
00000010: a802 8641 1763 5f41 9d0f f640 8d97 3642
00000020: 4e12 1b41 0453 e240 6511 9e40 adca f040
00000030: c5e6 fe40 eb3b 1f42 227a 3741 8832 6241

blocks.4.blocks.10.weight f4 [16]
0.61651653 0.7164788 0.96227294 0.9213144 0.8298963 0.79669297 0.8388149 1.2493923
0.726016 0.745702 0.5992921 0.7298547 0.60089946 1.0126817 0.6164453 0.962346
00000000: 07d4 1d3f 286b 373f 8557 763f 43db 6b3f
00000010: 1574 543f 12f4 4b3f 93bc 563f 16ec 9f3f
00000020: 2fdc 393f 54e6 3e3f 356b 193f c2d7 3a3f
00000030: 8cd4 193f 8e9f 813f 5ccf 1d3f 4f5c 763f

blocks.4.blocks.12.bias f4 [16]
-2.2390004e-06 -7.8754255e-08 -6.3336997e-06 -1.61231e-07 1.138993e-06 -3.6843771e-06 -8.2100644e-07 5.3476873e-07
1.9658773e-06 -1.1908623e-06 1.3487546e-06 1.4817416e-06 -1.8270406e-06 8.133559e-06 5.678939e-06 1.5501867e-06
00000000: bc41 16b6 9c1f a9b3 1186 d4b6 d71e 2db4
00000010: 80df 9835 1e41 77b6 2263 5cb5 078d 0f35
00000020: 84ed 0336 b8d5 9fb5 db06 b535 41e0 c635
00000030: a338 f5b5 5f75 0837 b78d be36 0210 d035
