pip frame/Public/Models/floraml.onnx (onnx, 53268 bytes, 109 tensors)

blocks.1.weight f4 [16, 3, 3, 3]
00000000: 228b cfbd 0996 b3bd 91fb b9bd 4a61 06bd
00000010: eaf0 f3bc 336b 62bd ce07 1e3e 9464 a23d
00000020: 8394 99bc 42a0 69bd f6ff 18be 53b2 1fbe
00000030: de9d 28ba 8f77 09bc f76c 82bd 4395 c03d
00000040: 5f52 b63d c9ea 703d 0997 92bd 7ba5 e4bd
00000050: 7779 ddbd e7cb 44bc cc89 11bc 548c 76bd
00000060: 2cdd 813d b64d 573d 1496 d23c a500 b13d
00000070: 5959 0b3d 3d35 a43d d3c3 b63c 3d2c f3bc
00000080: 6915 b23c e51e 033d 2800 54bc 857a 0a3d
00000090: 23ab a93d c96a b33d 08f4 fe3d 0ac2 363d
000000a0: 5abe 8f3c 0ee5 cf3d 5d9c 113d 9470 383c
000000b0: 6c91 d33d 8617 363c d5c9 213d 52b6 973d
000000c0: 2677 afbc b10c 8bbc 5eb4 263d f78f 643c
000000d0: 922e d2bc da8b 94bc 93f5 6c3d 46df a43d
000000e0: 17f2 833d 54c9 8d3d db00 cb3d 3cd5 e43d
000000f0: 3f84 903d 3b63 943d 1810 af3d ed6d 123d
00000100: deef 563d c208 083d b5a4 203d 072b 673d
00000110: e97b 373d 50d1 523c 762c af3c d407 403d
00000120: efd4 2e3d c992 9a3d 86dc 773d a03e 1d3d
00000130: 465b 953d 66b8 853d aef5 d03b 2faa 1f3d
00000140: 4363 4b3d 3120 76bd cca7 35bd cabc 333e
00000150: df5c 39bd a8b4 51bd d55f a53d c8ca 853c
00000160: 5af5 3a3d 7e7b 5b3e a2c5 31be 4a6f b5bc
00000170: 5353 223e 1f84 b5bd 280f bb3b 962d e03d
00000180: 4a29 833d dff2 7e3d ff75 373e ad5f 68be
00000190: ce91 b8bd 8441 243e 3e4b d0bd 67ed 873b
000001a0: 4672 093e ffc6 163e 824e d43d 9766 5b3e
000001b0: 2864 873d a53e 883d b4d2 6c3d fabf 903d
000001c0: a68d 853d 4153 763d fd62 6a3d e002 603d
000001d0: 33ff 5e3d e186 943d 71b5 8e3d 4c65 823d
000001e0: 0423 9f3d 3751 973d 746d 893d d984 8a3d
000001f0: 73c8 803d 7aff 7c3d ee9f 433d 3558 3a3d
00000200: 5404 2e3d 16f3 6c3d 10f1 583d 7973 433d
00000210: 363e 4a3d 8244 3a3d 1d62 3a3d c960 72bd
00000220: b7f9 6cbd 5b1a bbbd 7e6a 59bd 58c9 22bd
00000230: 9c79 9bbd 2c0d 78bd 2afd 55bd 8207 babd
00000240: ff28 52bd 6f0c 38bd 2900 a5bd 9382 39bd
00000250: 4962 b6bc 1ec4 86bd 3deb 68bd 6043 24bd
00000260: 33ee b2bd bfdf 1fbd 0303 15bd f998 8dbd
00000270: a7aa 02bd 7fc9 8cbc fe3d 5bbd 0bd4 3abd
00000280: 781e 09bd 5fd9 96bd c27f b9bc b173 f5bb
00000290: c7ff 07be 7ac6 97bd f98a c2bd 7d67 cbbd
000002a0: 1c42 18bc 2d3a 80bd 8471 9f3c da6a bebc
000002b0: 51f2 b7bb 9045 d6bd 7e26 a3bd 134f 97bd
000002c0: bb8a d2bd c182 06bd 9e19 88bd 5ecd 14bc
000002d0: 7c78 71bb 9156 693a 0b3a bcbd d3ea 8ebd
000002e0: 78ee a8bd a921 bcbd b95e b7bc 4c2a 42bd
000002f0: 7cd3 643c cc69 03bb 839b 3a3d ac96 323c
00000300: 8e09 9d3d 613c 333e d335 7a3d b2d8 c93d
00000310: 6c94 d43d 6517 d7bd 3aa2 1ebd 6bec 0c3c
00000320: c439 19bd 589e 873d 174a 193e 6e5a a83c
00000330: d03c 0a3e 99a1 073e 398a c0bd 934a cfbd
00000340: 808f 5bbd dafb f3bd c8c0 eb3c dc44 dd3d
00000350: dc54 5cbd 3260 103e 8b4c fe3d 1b2e c1bd
00000360: 4d1d 273d 7af9 5e3d d3b1 053d e79b 7d3d
00000370: 9ab5 d73d 8b8c a73d bfb0 ff3c 05cb 6c3d
00000380: 2622 213d 47e2 3b3d df5c 753d 2495 2b3d
00000390: 85c3 7a3d f81d df3d 3152 bf3d 5d1d eb3c
000003a0: 24f2 733d 068f 373d 72bc 073d 198c 4a3d
000003b0: e149 b43c 1aa7 593d 8602 e73d aadf ab3d
000003c0: 4cad 093c 76fe 5f3d 337e 133d 4dd8 7e3d
000003d0: 7188 1c3d b47c d23c a6ca 7c3d 21da 523d
000003e0: 6a42 453d 05e2 a03d d0ea 843d 0ce7 7c3d
000003f0: 8c7b 8f3d 48b8 163d 8005 a23c 04c0 943d
-0.10133959 -0.08768851 -0.090811856 -0.032807626 -0.029777963 -0.055278014 0.15432665 0.0792934
-0.018747574 -0.0570376 -0.14941391 -0.15595369 -0.00064322155 -0.008390321 -0.0636844 0.094034694
0.0890243 0.05881766 -0.07157714 -0.111643754 -0.10814183 -0.012011505 -0.008882951 -0.06019242
0.06341013 0.052564345 0.025706328 0.08642701 0.034020755 0.08017967 0.022310173 -0.02968418
0.021738725 0.032011885 -0.01293949 0.03380825 0.08284595 0.08760602 0.12448889 0.044618644
0.017546821 0.101511106 0.03554951 0.0112573095 0.103304714 0.011114007 0.039499123 0.07407822
-0.02141912 -0.016973825 0.040699355 0.0139503395 -0.025656972 -0.018133093 0.057851385 0.080503985
0.06442659 0.06923166 0.099122725 0.11173484 0.07056474 0.07245489 0.085479915 0.035749365
0.05247485 0.033211477 0.039219577 0.05643752 0.044795904 0.012867287 0.021383505 0.046882465
0.042683538 0.07547528 0.060513042 0.038389802 0.072928 0.06529312 0.0063769436 0.03898066
0.04965521 -0.060089294 -0.044349477 0.17552486 -0.045254584 -0.051197678 0.08074919 0.016332045
0.04564414 0.21433827 -0.17360547 -0.022147793 0.15852098 -0.08863091 0.005708594 0.10946195
0.0640436 0.06224334 0.17916106 -0.22692747 -0.09012185 0.16040617 -0.10170601 0.0041481736
0.13422498 0.14724348 0.10366537 0.21425854 0.066109 0.066525735 0.05781813 0.070678666
0.06521158 0.06013799 0.05722331 0.05469024 0.054442596 0.072522886 0.06968201 0.06366977
0.077703506 0.073885374 0.0671033 0.0676362 0.06288233 0.06176708 0.047759943 0.045494277
0.042484596 0.057849012 0.05296427 0.047717545 0.049375735 0.04547549 0.045503724 -0.059174333
-0.057855334 -0.09135886 -0.053080074 -0.039742798 -0.075915545 -0.060559437 -0.05224339 -0.09083463
-0.05130863 -0.044933733 -0.08056671 -0.04529054 -0.022263663 -0.06580375 -0.056864966 -0.040103316
-0.08736839 -0.03903174 -0.036379825 -0.06913943 -0.031901028 -0.017185925 -0.053525917 -0.045612376
-0.033476323 -0.07365679 -0.022643927 -0.007490598 -0.13281165 -0.07410903 -0.09499163 -0.09931848
-0.009293105 -0.06261096 0.019463308 -0.02324431 -0.005613603 -0.10462487 -0.07966326 -0.07388129
-0.10280367 -0.03283954 -0.06645511 -0.0090821665 -0.0036845496 0.0008901144 -0.09190758 -0.06978383
-0.08248609 -0.09186108 -0.022384034 -0.04740362 0.013966437 -0.0020052074 0.045558464 0.010900181
0.07667838 0.17503501 0.061086487 0.098557845 0.10379872 -0.10502509 -0.03872893 0.008601288
-0.037408605 0.066219985 0.1496967 0.020550933 0.1349976 0.13245238 -0.09401364 -0.10121646
-0.05360365 -0.11913271 0.028778449 0.108041495 -0.053791866 0.14099196 0.12416943 -0.09432622
0.040799428 0.05443714 0.03264029 0.06191626 0.105326846 0.08181103 0.031212209 0.057810802
0.039339207 0.04587009 0.059903022 0.04189028 0.06122162 0.10894388 0.09341849 0.028700525
0.059557095 0.044814132 0.0331387 0.049450014 0.022007884 0.053137876 0.11279778 0.0839227
0.008403134 0.054686032 0.036009025 0.062218 0.03821606 0.025694229 0.061716698 0.051477555
0.04815904 0.0785561 0.064900994 0.06174378 0.070059866 0.036796838 0.019778013 0.072631866

blocks.2.bias f4 [16]
00000000: 1630 fe3d ec8e 863e c25e b0be 69c3 02be
00000010: 30ef bd3d a8e3 19bf d91f ab3d 2524 c93d
00000020: e24d 71be e776 253f e914 3f3e 37ca d93e
00000030: 912b 52be a78b 0f3f e84c 133f 69b9 22be
0.124115154 0.26280916 -0.34447294 -0.12769856 0.09274137 -0.60113 0.08355684 0.09821347
-0.23564866 0.64634556 0.1866032 0.4253709 -0.20524432 0.5607247 0.57539225 -0.15891041

blocks.2.running_mean f4 [16]
00000000: 80a8 8ac2 61f5 e342 1eeb 2e43 b0e9 de42
00000010: 3590 3943 7720 2bc3 1e11 1fc3 7ab5 bd42
00000020: 3f46 2d43 fd95 3843 1328 5fc3 33e8 2fc3
00000030: 9913 2c43 8948 8c43 2cc1 4cc3 9260 1f43
-69.3291 113.979256 174.91843 111.45642 185.56331 -171.12682 -159.06686 94.85445
173.2744 184.58589 -223.15654 -175.90703 172.07655 280.56668 -204.75458 159.37723

blocks.2.running_var f4 [16]
00000000: e085 f044 068a 8545 eba2 1d46 6692 9145
00000010: f383 3346 7221 1746 17e6 0446 d9a9 3d45
00000020: eb78 1e46 40d2 3546 d18b 8b46 a752 2246
00000030: ff2b 1946 a42f d046 0095 6146 a830 0c46
1924.1836 4273.253 10088.7295 4658.3 11488.987 9672.361 8505.522 3034.6155
10142.2295 11636.5625 17861.908 10388.663 9802.999 26647.82 14437.25 8972.164

blocks.2.weight f4 [16]
00000000: 37ad 093e b26a ce3c ff74 853e f9ff 6f3e
00000010: 8d8f 883e f103 2c3f 1086 b93e ab9a c93d
00000020: 5269 1e3f 60e3 083f 2050 ef3e 1b2a 343f
00000030: 77c0 803e 9f39 0a3f 0783 b93e d596 10be
0.13444982 0.02519736 0.26065823 0.2343749 0.2667202 0.67193514 0.36235094 0.09843954
0.61879456 0.53471947 0.46740818 0.7037675 0.2514684 0.5399417 0.36232778 -0.14120038

blocks.3.blocks.10.bias f4 [16]
00000000: 01d5 ff3e 2313 0a3f fe4c 193f c128 473e
00000010: f92f 6bbe ad3f 02bf 4d23 aebe f956 8abd
00000020: 5a0e 86be 4975 cf3e 028c 033e 8f7a 68be
00000030: 8e3c d73e 81d9 a8be da82 cb3e e0c1 9cbd
0.49967197 0.5393545 0.59883106 0.1944914 -0.22967519 -0.5087841 -0.34011307 -0.0675487
-0.26182824 0.4051917 0.12846377 -0.22703002 0.42038387 -0.32978442 0.3974827 -0.07654166

blocks.3.blocks.10.running_mean f4 [16]
00000000: 09fa de40 9c5d 3741 b059 a9c0 d38c 6b40
00000010: 1248 38c1 a4db bf3f 8829 cec0 e3a2 6040
00000020: 3276 4640 8fbe ba40 48de 8b3f 5909 6e40
00000030: 6897 e0bf 3b54 e0c0 9159 9240 c37a be40
6.968022 11.460354 -5.292198 3.6804702 -11.517595 1.4988904 -6.4425697 3.5099418
3.100964 5.8357615 1.092721 3.7193205 -1.7546206 -7.010282 4.5734334 5.9524856

blocks.3.blocks.10.running_var f4 [16]
00000000: 4a9e b141 d7e8 be41 914b d841 7fc2 8f41
00000010: 69ff 9c41 ec69 1641 67df 0d42 e0ff f141
00000020: 1d7d 4441 11f4 9141 da21 cd40 03de d840
00000030: 9b90 fe40 364d bf41 3cec cf41 18b1 4e41
22.20229 23.863691 27.036898 17.969969 19.624712 9.40086 35.468166 30.249939
12.280545 18.244173 6.4103823 6.777101 7.955152 23.9127 25.990349 12.918236

blocks.3.blocks.10.weight f4 [16]
00000000: 9c40 723f e2fe 563f ed44 2d3f 0bf2 403f
00000010: d26f b03f 12fc 7c3f 85c5 863f 06d4 863f
00000020: 4654 883f 94b9 4d3f bdde 2a3f c490 6c3f
00000030: 1a0e 153f 8f82 5b3f a4eb 563f 117e 4e3f
0.94629836 0.8398267 0.676833 0.7536933 1.3784125 0.9882213 1.0529028 1.0533454
1.0650718 0.80361295 0.6674612 0.92408395 0.5822464 0.8574609 0.8395331 0.8066111

blocks.3.blocks.12.bias f4 [16]
00000000: c22a 23b6 fd33 9136 2b67 9cb6 3656 9ab4
00000010: 11a8 c4b6 b3cf 01b6 ae1f 9db6 04e8 2b36
00000020: cbfe e0b5 c679 7136 576b 43b6 55cd 9eb5
00000030: 6ec7 9a36 2331 dd36 0da3 8937 2273 27b6
-2.431378e-06 4.327389e-06 -4.6611726e-06 -2.8747462e-07 -5.8608207e-06 -1.9343395e-06 -4.6826526e-06 2.5616037e-06
-1.6763455e-06 3.598268e-06 -2.9119744e-06 -1.1831677e-06 4.6127743e-06 6.5920335e-06 1.64076e-05 -2.4951955e-06

blocks.3.blocks.12.weight f4 [16, 16, 2, 2]
00000000: 93a2 be3e 8a6a e73e a2bb fd3e a412 d33e
00000010: 1509 bdbe 00cf d33d 0b18 46bd ef25 fbbd
00000020: 21ce 273e edd6 42bd 437f 593e 5a54 2d3c
00000030: cc36 94be 2fd7 95be 3fdd 1bbe 2719 21bf
00000040: 9780 c7bd 46d0 90be 3638 c6be a7e0 8cbe
00000050: 8235 3d3e e6a1 b53e 9fad 0d3e 841f 203f
00000060: 87d3 603d fe56 573e ba8f 0a3d 90b1 2dbd
00000070: 5343 6e3e 75c6 9c3e c0dd 853e 5da0 833d
00000080: 1b02 113d cf18 673b c226 d33c 38a3 b13d
00000090: 5ea7 a9bd 9090 cfbe 89f8 3ebe 78de cabe
000000a0: 5c0f 573e b979 c2bd 3c58 a33e 7bc5 f23d
000000b0: bcf8 203e 2205 b93c 41df 09be b59a 2f3e
000000c0: b8bf 06bd 5fce 7abe d3c5 3dbe 24b6 99be
000000d0: b271 873c 2522 cbbd ec1b 0ebe 960c d7be
000000e0: 26a6 e43e 8026 2b3e 840d a53e ca36 4aba
000000f0: 456d d7be d274 5bbe ddd2 f2bd fc89 13bf
00000100: f817 2fbe 9969 8bbe 31b5 38be ab8e acbd
00000110: 2089 363e 28f5 553e 9a16 2c3e 8175 be3e
00000120: 4a8b 2c3c d4fb d13c b21b 523e d3de 8a3e
00000130: 5581 adbc 0985 cabd e837 e13c 51c5 553d
00000140: d6a5 c33e 9d32 363e b7ae 7b3e 0288 293e
00000150: a9b2 53be e9b8 8ebe 9bcb 36be eae6 6ebe
00000160: 499a 39be 65bd 37be d449 42bd d98b 52be
00000170: bea2 92be 1fdb 9fbb 303f 1e3d e35e fc3b
00000180: 82d6 173f d9fa e53e 64ec b93e 8e58 da3e
00000190: 68d6 0fbe e4fd f1bd c9fb d2bd 9ccd e0bd
000001a0: e1ed 18be 2214 d4bd 7150 933c e244 003e
000001b0: fc5f ecbe d5a2 ccbe 4cac 19bf 82f5 fbbe
000001c0: d6ca 963e 99ea 5f3e 085f 693e ccbb 483e
000001d0: 9a60 d23e e2ac 9d3e 2d2d be3e 0837 b73e
000001e0: 8ecc 01bf 3ac4 98be da49 97be 6961 8ebe
000001f0: d71f 94bd 6b29 0fbe 7ba9 46be fea0 493b
00000200: 3088 f03c c17c 4fbd 1bb8 e8bc 67f3 84be
00000210: 16b7 65bf fef6 c1be 7bc7 95be 967e e0be
00000220: 4d93 3e3e 6df5 2d3e 4007 bf3e 2788 07be
00000230: 7492 a83e ee75 fc3c 5469 a33d 37fc 873c
00000240: 30e6 47be fdc3 8cbe 6022 73be c3af c93e
00000250: 5636 653e e86e 593d fbe3 ee3d e768 993d
00000260: 1253 32be 889a 44be 565f cabd 0750 1fbe
00000270: cf87 54bd 8ea2 8bbd e791 7dbd 12a6 403e
00000280: 0391 6ebd c8fd 47be 7c49 413e 8055 19be
00000290: 45c1 8b3e 5cb5 913e 75b1 913e 12d9 8d3e
000002a0: 53de 223e 9947 f93d 8765 813e 21f1 7c3e
000002b0: 63a0 17be d64d dfbe f5f0 823d e898 04bd
000002c0: 6767 ff3d 2b88 5dbd 2f2e 003d 6030 853e
000002d0: 735e 0fbf 12f6 1abf 653f a7be dfc8 b8be
000002e0: 1bfe 753d 7455 013e f973 013d a4ce 3b3e
000002f0: 0bc3 993e 0454 5a3e 3cf6 fa3d b46d d83c
00000300: 946d cfbd 3590 28bb 1ca5 893e 1f7a 893e
00000310: da48 b5be a6c8 ccbd 6269 ecbe 1f51 94be
00000320: 9799 7bbe 3f45 35bd 6e29 b9be 207c edbe
00000330: add6 b5be 7f3f e73d 7367 abbd 4b6f 8abd
00000340: 822d 08be c5d3 2e3d d407 c1be 6c65 e5bc
00000350: 0bb0 e83d 5a7a 133d 667e d43d a336 083b
00000360: edee 2a3e 99f4 a1bd 8ee9 cbbd 6e7b debe
00000370: a333 b83d f681 133e 2bfb b83e a2ff 63be
00000380: ffc8 37be d0a7 bebd 8671 db3b 942d 49ba
00000390: d06d f1be 88d5 81be 83a6 7dbe 28be 4bbd
000003a0: b466 23be b336 b6bd 7238 7f3c 2dc1 173e
000003b0: b62f 993d 31cb b4bd c741 84be 5737 833d
000003c0: 9d06 b8be 08ad a4be 22e1 a7be 7a79 123e
000003d0: 5713 dabd 69a9 a2be 1bd8 f23c 1146 7abe
000003e0: 51bb 833e 0dcb f53c 3f23 2b3e 842b a4be
000003f0: 2cab a4be a9d8 9d3e 113c 92bc d2b5 233e
0.3723341 0.4519847 0.49557215 0.4122516 -0.36920992 0.103422165 -0.048362773 -0.12263095
0.16387226 -0.04756825 0.21239953 0.010579193 -0.28948057 -0.29265735 -0.15221117 -0.62929004
-0.097413234 -0.282839 -0.3871476 -0.27515146 0.18477443 0.3547508 0.13835762 0.6254809
0.05488923 0.21029279 0.033828475 -0.042405665 0.2326787 0.3062016 0.26145744 0.06427071
0.0354024 0.003526259 0.025775317 0.0867371 -0.08283876 -0.4053998 -0.18649496 -0.39622855
0.21001953 -0.09495873 0.31903255 0.11854073 0.15719885 0.022585455 -0.13464071 0.1714886
-0.03289768 -0.24492787 -0.18532495 -0.30021775 0.016533706 -0.09918622 -0.13877839 -0.4200179
0.4465801 0.16713905 0.32236874 -0.00077138527 -0.42075554 -0.21431282 -0.11856625 -0.5763242
-0.17098987 -0.27229002 -0.18037869 -0.08425649 0.17825747 0.20894301 0.16805497 0.37199023
0.010531256 0.025632776 0.20518377 0.27123126 -0.021179834 -0.09888656 0.027492478 0.05219013
0.3821246 0.17792745 0.24578367 0.16555789 -0.20673622 -0.2787545 -0.17851107 -0.23330274
-0.18125261 -0.17943342 -0.04743369 -0.2056116 -0.28639787 -0.004878416 0.03863448 0.007701741
0.5931169 0.44917944 0.36313164 0.42645687 -0.14046633 -0.11816004 -0.103019305 -0.10976717
-0.14934494 -0.103554025 0.017982693 0.12526277 -0.4616698 -0.3996798 -0.6002853 -0.49210745
0.29451627 0.21866836 0.22790158 0.19602889 0.41089326 0.30795962 0.3714384 0.35784173
-0.5070275 -0.2983721 -0.29548532 -0.27808693 -0.072326355 -0.13980643 -0.19400589 0.0030766125
0.029361814 -0.050656084 -0.0284081 -0.2596695 -0.8973249 -0.37883753 -0.29253754 -0.43846577
0.18610878 0.16988154 0.3731022 -0.13235532 0.32924235 0.030817952 0.07979074 0.016599758
-0.19521403 -0.27493277 -0.23743582 0.39391908 0.22384009 0.053084284 0.116645776 0.07490712
-0.17414501 -0.19199574 -0.09881465 -0.15557872 -0.05188733 -0.06818114 -0.06190672 0.18813351
-0.058243763 -0.19530404 0.18875688 -0.14974022 0.2729589 0.2845868 0.284557 0.27704674
0.15905122 0.12171859 0.25272772 0.24701358 -0.14807276 -0.43614072 0.06393615 -0.032372385
0.12470894 -0.054084938 0.031294044 0.2601347 -0.56003493 -0.60531723 -0.32665554 -0.36090752
0.060056787 0.12630254 0.03160474 0.18340546 0.30031618 0.21321112 0.12253997 0.026419498
-0.10128322 -0.002572072 0.2688378 0.26850984 -0.35407144 -0.09999208 -0.4617415 -0.2896814
-0.24570309 -0.04425549 -0.3616442 -0.46383762 -0.35515347 0.11291408 -0.08369341 -0.06759509
-0.1329861 0.042682428 -0.37701285 -0.028002463 0.113617025 0.036005355 0.10375671 0.002078452
0.16692705 -0.079079814 -0.099566564 -0.43453544 0.08994224 0.14405045 0.36129126 -0.22265485
-0.17947768 -0.093093514 0.0066968827 -0.0007674333 -0.47154093 -0.25358224 -0.2477055 -0.049741894
-0.15957147 -0.08897152 0.015577422 0.14819784 0.07479803 -0.08827818 -0.25831434 0.064070396
-0.35942546 -0.32163262 -0.3278895 0.14304152 -0.1064822 -0.31769875 0.029644063 -0.2444079
0.2572885 0.030004049 0.16712664 -0.3206445 -0.32161844 0.3082936 -0.017850908 0.15987328

blocks.3.blocks.13.bias f4 [16]
00000000: a6bd 3c3e 5a6a 8d3f 8725 273c ad96 b7be
00000010: bf10 183d 361d 08bf 0734 cf3e 58ce e23d
00000020: 6075 e23d e556 bf3f 660a 84be 7780 003f
00000030: 1532 223e 0392 2d3f 6de3 1e3f 0368 9d3e
0.1843172 1.1048081 0.010201818 -0.35857144 0.037125345 -0.5316957 0.4046938 0.11074513
0.11057544 1.4948393 -0.25789183 0.5019602 0.15839417 0.6780092 0.62065774 0.30743417

blocks.3.blocks.13.running_mean f4 [16]
00000000: 0d41 a93e 3096 e1be 7bca 0b3e 3bc8 173e
00000010: 40a2 b8be be69 f33e f667 f7be 3a76 a83e
00000020: 4e98 e2bd 596f 8bbf 7b49 1f3e 1f57 d73d
00000030: 7653 c9be 53de 3ebf 0ff1 cf3c f7ec bf3d
0.33057442 -0.44059896 0.13651459 0.14822476 -0.36061287 0.47541612 -0.48321503 0.329027
-0.11064206 -1.0893356 0.15555374 0.10514664 -0.39321488 -0.7455799 0.0253835 0.09371369

blocks.3.blocks.13.running_var f4 [16]
00000000: c48a 5c3f 0bcf 883f b776 f83e 3498 983e
00000010: 8416 2f3f 404a 883f a232 ca3e 2483 973f
00000020: 92f1 053f 49c0 af3f 056f ee3e 21f0 4e3f
00000030: ea54 1c3f 2c8a b43f deb1 933f 6659 223f
0.8614924 1.0688184 0.48528072 0.29803622 0.6839373 1.0647659 0.39491755 1.1836896
0.5232173 1.3730556 0.46569076 0.8083516 0.6106707 1.4104667 1.1538656 0.6341766

blocks.3.blocks.13.weight f4 [16]
00000000: 1e93 3e3f 1d53 2c3f 6a4e 353f 82e9 123f
00000010: e195 2b3f 4791 7c3f 8665 f03e cf76 2d3f
00000020: 3a14 4c3f e723 813f a638 ef3e dfab 0b3f
00000030: 62b6 333f cb54 f03f 28c8 6b3f 3fdf e43e
0.74443233 0.6731432 0.70822775 0.57387555 0.6702557 0.98659176 0.46952456 0.6775941
0.79718363 1.0089082 0.46722907 0.5455913 0.7020017 1.8775877 0.9210229 0.44701573

blocks.3.blocks.2.weight f4 [8, 16, 3, 3]
00000000: ee5a 73be c986 a7be fe7e 4dbe 490a 5a3d
00000010: 5a54 0abe 440f 2abe 8c02 033e 07d9 e4bc
00000020: 9cac 8bbd 978f d1bc 7836 323d ef06 273d
00000030: 08b1 61bd fd85 723c 191f f83c 741e 393b
00000040: 2988 1f3d 907b 903c 4db1 0abe 8ad0 f1bd
00000050: 6782 6bbd 0fdc 31be 1262 41be 8f06 b4bd
00000060: 66dd a03c 22eb 80bd d132 233d b892 863d
00000070: 4b16 c33d 8208 583e 5965 b6bd db5e 193e
00000080: aa16 853e 4ff5 bfbb 54b6 243e f277 803d
00000090: 4028 80be fdc0 93be 3aeb ce3a 3db4 bbbe
000000a0: 6ef7 dcbe f617 b0bd 5284 dfbd ac14 70be
000000b0: 8f45 80bc c056 093e a5bb 21be 2618 98be
000000c0: 3c44 113e 56c6 1dbe f901 4bbe 6669 b63d
000000d0: 8ea6 4abd b015 abbd 4d7d 413d 848e 82be
000000e0: 708c 3bbe 19c2 0d3e 4d89 42be bf5f b9bd
000000f0: 807b 363e 6b1d 6bbd 75e6 ad3c eabc 84bd
00000100: ef2a 8d3d ea31 d23d 7b22 9ebd 906a 653d
00000110: 23ab 203e a2b1 d1bd 3698 c63c 17fd ce3c
00000120: fe5c 9bbe d22f 65be 8c97 5e3e 1eb7 0abf
00000130: 7d5a e1be 9d7b 093e 08f2 edbd 98fc 5fbe
00000140: fc5b c03d 30f5 2fbe 2fe5 423d fd9e a93e
00000150: a59b 53be bbe4 69bd f2a2 883e 0a2b a5bd
00000160: c346 babd af83 9abc 6852 8abe 789a 11bf
00000170: bf88 13be 8cd4 a4be 886e 22bf 89d5 0ebe
00000180: 068d 0ebe 8d06 bebe 78a9 d5bd ae4e 10be
00000190: bb31 fcbe 96a6 85be df63 25be 4578 dabe
000001a0: ef78 4fbe 4356 043e 02f2 db3c 1fdc 263e
000001b0: 5809 59be 51ac 10be 0fb3 a43d 1dfe 8dbe
000001c0: da70 81be dee9 fb3c 4638 593d 0c69 0bbd
000001d0: 8153 b13d 9893 f03d ace9 a33e ef3b a83e
000001e0: 9856 19bd 1500 8b3e 0a33 cf3e 6171 8ebd
000001f0: f250 0e3e 42e8 713e b9bc bd3d cb55 2bbe
00000200: 2cba 8bbe af5c 6e3e 198b 02bd 3786 0dbe
00000210: 9a2e 633e 26b9 f03d 0124 1f3e a17f 0e3d
00000220: 8eba 273b cc90 4fbd 1c75 613d 8c5e 753d
00000230: 42b0 c23c a1c4 7c3d 64f7 603d 530f 8c3c
00000240: 6091 ce3e 422e 0b3c ab1c f1bd 231c 0d3e
00000250: 48d6 b9bc 92d7 e4bd 71ec a1be d18d ab3b
00000260: 291c 8abd 8bab 48bd cce6 cb3c 24db 1d3d
00000270: 2f70 9dbd 326d 63bd 6eda 8e3c 26dd 1ebd
00000280: eb3b 1bbe d11c e93c 4cc5 8b3c 4349 d63d
00000290: c1e8 093e 4643 a8bc 37ca 393d 66d0 c33d
000002a0: 38d4 c5bd 88fb ddbd 33e0 c5bd 6956 b53e
000002b0: e62b 093e 1a6d dfbd 273b 9a3e a570 5f3e
000002c0: c614 c53d 4e15 093e 4afe 433e 30cb 0b3e
000002d0: 47c6 e9bd 02a2 cd3d e470 c63d 161c 063e
000002e0: bc68 263e ee04 e33d 2bd0 9a3e 36b4 553e
000002f0: 46d3 023e f3e8 933d 8019 8ebe 40b7 c3bd
00000300: b04f 953e 7fb0 eebd 2bd9 aebe ed28 a43e
00000310: 90ad 173e b606 a3be 873c 0bbd 0d05 85be
00000320: 24db 39be 9cca 8dbc 035c f8bd 15c9 24be
00000330: 4bec 443e d557 553e 48a6 83bd c766 483d
00000340: 9ba4 013c 8522 0abd 6f74 48bd 2d15 88be
00000350: 2543 99be dc59 eebd 2607 6abe 5e7b b6be
00000360: 8055 c0bd 8efa 403e 8353 643e 952d 9b3d
00000370: a5c4 573c a604 593d 5551 3f3e a3b8 fdbd
00000380: 641e d3bc 3e11 bbbc 2970 4d3e a223 0e3e
00000390: 759a cabe a4d7 fabe 71e4 75be 7754 8cbe
000003a0: 2f6d 30bf 65d6 00bf 7ac6 253e 91df 473e
000003b0: b9aa 5a3e 9343 eb3e ce60 0c3f b91c 3c3e
000003c0: 57dd 053f 6880 a93e 510e af3c 491f 8c3e
000003d0: 6c28 873d f092 b3bc c116 a23e 2c02 673d
000003e0: c78e 27be e707 573e ffa9 6e3d e942 5cbe
000003f0: 2787 2bbd a9a2 5c3e 1cc1 283e c856 ac3b
-0.23765156 -0.3272002 -0.20067975 0.053232465 -0.1350874 -0.16607386 0.1279394 -0.027935518
-0.06820032 -0.025581164 0.043508977 0.040778097 -0.05510047 0.014802453 0.030288266 0.0028246911
0.03894821 0.017637044 -0.13544197 -0.11807354 -0.05749741 -0.17369102 -0.18885067 -0.087903135
0.019636821 -0.06294848 0.039843384 0.06570953 0.095257364 0.21096995 -0.08906049 0.1497759
0.25993854 -0.0058581005 0.16085178 0.06272878 -0.25030708 -0.28858176 0.0015786656 -0.36660948
-0.43157524 -0.0859832 -0.1091391 -0.23445386 -0.015658168 0.13411999 -0.15794237 -0.29705924
0.14186186 -0.1540769 -0.19824971 0.08906822 -0.049475245 -0.08353746 0.047238637 -0.25499356
-0.18315291 0.13843574 -0.18997689 -0.09051465 0.17820549 -0.057401102 0.021228055 -0.06481345
0.068929546 0.102634266 -0.077214204 0.05600983 0.15690283 -0.10238959 0.024242502 0.025267167
-0.30344385 -0.22381523 0.21737498 -0.54185665 -0.4401435 0.13426061 -0.116184294 -0.218737
0.093925446 -0.17183375 0.047581848 0.3312911 -0.20664842 -0.0571029 0.26686817 -0.0806485
-0.09095528 -0.01886162 -0.27015996 -0.56876326 -0.14407633 -0.3219341 -0.6344991 -0.13948645
-0.13920984 -0.37114373 -0.10432714 -0.14092514 -0.4925669 -0.26103657 -0.16151379 -0.42669883
-0.20260976 0.12923531 0.026848797 0.16294907 -0.2119497 -0.14128233 0.08041965 -0.27732936
-0.2528141 0.030751165 0.053032182 -0.034035727 0.08658505 0.11746901 0.32014215 0.32858226
-0.037436098 0.271485 0.40468627 -0.06955219 0.13898066 0.23623756 0.092645116 -0.16731946
-0.27290475 0.23277543 -0.031870935 -0.1382073 0.22185746 0.11754064 0.15541078 0.034789685
0.0025593373 -0.0506752 0.055043325 0.05990462 0.023765687 0.061710957 0.05492343 0.01709715
0.40345287 0.008494915 -0.11773046 0.13780265 -0.022685185 -0.11173929 -0.31625703 0.0052354117
-0.067436524 -0.04899172 0.024890326 0.038539067 -0.07687413 -0.05552406 0.01743814 -0.038785122
-0.15159576 0.028456124 0.017061852 0.10463192 0.13467695 -0.020539891 0.045358863 0.09561233
-0.09659618 -0.108389914 -0.09661903 0.35417488 0.13395652 -0.10909481 0.30123255 0.21820314
0.09623103 0.13387033 0.19139972 0.13651729 -0.114147715 0.10040666 0.09689501 0.13096651
0.1625089 0.11084925 0.30236945 0.20869526 0.12775907 0.07222166 -0.2775383 -0.095564365
0.2916236 -0.11654758 -0.3415006 0.32062474 0.14812303 -0.31841058 -0.03399327 -0.25980416
-0.18150002 -0.017308526 -0.12126925 -0.16092332 0.19230764 0.20834287 -0.064282 0.04892614
0.00791278 -0.033724327 -0.048939165 -0.26578656 -0.2993404 -0.11638233 -0.2285429 -0.35640997
-0.09391308 0.18845579 0.22297482 0.075770535 0.013169442 0.05298295 0.1868337 -0.12388732
-0.025771327 -0.02283537 0.20062317 0.1388078 -0.39570966 -0.48992646 -0.24012925 -0.27408192
-0.689166 -0.5032714 0.16188994 0.19518878 0.21354188 0.45949993 0.5483521 0.18370332
0.5229086 0.3310578 0.021369131 0.2736762 0.06599507 -0.021920651 0.31657985 0.056398556
-0.16363059 0.20999108 0.05826759 -0.21509899 -0.04187694 0.21546425 0.16479915 0.0052593686

blocks.3.blocks.3.bias f4 [8]
00000000: fb46 943f fe35 4f3f a041 283f 5704 823f
00000010: a6d0 56be fa9d 2b3f 7558 0dbf 7a91 b33f
1.1584162 0.8094176 0.65725136 1.0157574 -0.2097803 0.6703793 -0.552131 1.4028771

blocks.3.blocks.3.running_mean f4 [8]
00000000: 48ae 91bf 5536 82bf 4967 2f40 c891 9ebd
00000010: e35c b63f 24ee 673c b4c6 703f 75a6 2d3c
-1.1381311 -1.0172831 2.740679 -0.07742649 1.4247097 0.014155898 0.94053197 0.0105987685

blocks.3.blocks.3.running_var f4 [8]
00000000: 4232 7e40 ffe9 8540 6391 0a40 63e1 6340
00000010: b512 743f 9b13 3240 db76 3e3f d070 1f41
3.9718175 4.184814 2.1651237 3.5606315 0.95341045 2.7824466 0.7440011 9.965042

blocks.3.blocks.3.weight f4 [8]
00000000: 6607 4b3f e057 233f 3d67 513f 3048 1c3f
00000010: 7e0d 183f 83ad 8f3e b84d dd3e 4e14 583f
0.79308164 0.6380596 0.81798154 0.6104765 0.5939559 0.28062066 0.43223357 0.8440598

blocks.3.blocks.4.blocks.2.weight f4 [8, 1, 3, 3]
00000000: 5a85 fc3e cd97 ab3d 7d15 583e 27ec 153f
00000010: 7e17 c9bd 52a3 f7bb eea5 cb3e a367 a03e
00000020: d6ed 5cbe 6c79 2f3e 9185 7d3e b64c 413f
00000030: d550 7b3e 228c e8bd a2d1 373f 5eb7 4b3e
00000040: 1b5d 1e3d 9f6e 923d 4b04 8d3e c8b8 333f
00000050: d931 efbd 8061 0c3f 428e 6cbc 3aa6 f4bd
00000060: 9a85 2d3c 3b74 93bd e1e3 323f 572f 293e
00000070: 2f54 0d3f c6f3 883e 107f d03b 55ed 5abe
00000080: 2d77 f2bd fa4f 00be cb0a e6be 94a6 3cbf
00000090: 5fc1 253e a760 4b3c a650 053f f0b9 973e
000000a0: f595 d23d 1cd4 903e b705 3b3e 3ed3 7a3e
000000b0: 2969 873e d449 bfbe 087c 32bf 9de8 a2be
000000c0: 4ac0 a7bd 0603 6dbd 372c 89be fddd b2bd
000000d0: 08c4 0e3e 1fe1 713d 64e8 0f3e 2c07 f53d
000000e0: 518c df3d 6193 cb3d 44c9 633d 4d23 643d
000000f0: f1fa 873e 976d e03d d817 b03e 9ef8 2cbe
00000100: fe8c 93bb e013 253e 2ddf fd3c 94d6 893e
00000110: 88f7 5b3f e197 d0be 57ff 7ebd 8484 a43e
0.4932049 0.08378563 0.21101947 0.58563465 -0.09818934 -0.007557311 0.39775032 0.3132907
-0.21575102 0.17136163 0.24757983 0.75507677 0.24542554 -0.11354853 0.7180425 0.19894168
0.03866301 0.071500055 0.27542338 0.7020383 -0.116794296 0.54836273 -0.014438214 -0.11945768
0.010590935 -0.071999036 0.69878966 0.16521965 0.5520658 0.26748484 0.0063628033 -0.21379597
-0.11839137 -0.12530509 -0.4493011 -0.7369168 0.16187046 0.01241318 0.52076185 0.29634047
0.10282508 0.28286827 0.18263899 0.24494645 0.26447418 -0.37361014 -0.69720507 -0.31818095
-0.08190973 -0.05786421 -0.26791546 -0.08733747 0.13941967 0.059052583 0.14053494 0.119642586
0.10915435 0.0994022 0.055611864 0.055697728 0.2655864 0.109584026 0.3439319 -0.16891715
-0.0045028916 0.16120863 0.030990208 0.26921523 0.8592458 -0.40740874 -0.06225523 0.3213235

blocks.3.blocks.4.blocks.3.bias f4 [8]
00000000: 6963 4d3f 4149 623f a0c6 6b3e 17ed 143f
00000010: 56a0 c3be 3d18 503f 399c 92bf 3b64 c93f
0.8022981 0.88393027 0.23024988 0.5817427 -0.38208264 0.81286985 -1.1453925 1.5733713

blocks.3.blocks.4.blocks.3.running_mean f4 [8]
00000000: 8da0 0640 5540 f33f 2d23 a23f 917c 2abf
00000010: 8a32 8f3e 019b 90bf 7cc7 4a3d 4656 b33f
2.1035492 1.9004008 1.2666985 -0.66596323 0.27968246 -1.1297303 0.04950665 1.4010704

blocks.3.blocks.4.blocks.3.running_var f4 [8]
00000000: c25e cb3f 2d5b 0340 81d5 1140 5264 623e
00000010: 06bd d23e 1ac2 5c3e 0452 cd3c 528c 413f
1.5888293 2.05244 2.2786562 0.22108582 0.41159838 0.21558419 0.025063522 0.75604737

blocks.3.blocks.4.blocks.3.weight f4 [8]
00000000: 9073 dd3e 45c8 743f 5b70 ff3e b39c a43e
00000010: 3069 643f 1404 0f3f af1f 133f 831b 4f3f
0.4325223 0.9561809 0.49890408 0.32150802 0.89223003 0.558656 0.5747022 0.80901355

blocks.3.blocks.4.blocks.5.weight f4 [8, 8, 1, 1]
00000000: 3b74 1a3e 24d8 32be e707 99be 0c1b 1fbf
00000010: cdba efbe bfdc e63e bea5 ffbc be2b 4bbe
00000020: fe1a 86be 930c 113f 79ad 893e c969 c9bd
00000030: fcec e6be bd04 1a3f c350 4dbd 04b6 9ebe
00000040: 51b8 333f fa52 b63e 14c4 053e ea5b 4f3e
00000050: 9243 1cbe 005f 533e ac91 f93e a7ee 34bd
00000060: 54b3 713e 4b39 0dbf 2d17 eb3e ea87 afbe
00000070: 565d 03be 53d0 db3d 2278 9c3e 68b0 373f
00000080: ff29 3bbe b8cc 043f 5cc4 b53e cef6 603d
00000090: 684f 46be 3891 6c3e 6dc2 183f 1027 24bf
000000a0: 6e98 ddbd 8732 23bf 1161 6dbe f309 93be
000000b0: 0140 dabd 8865 973e 3671 d03d bbaf 31bf
000000c0: 8912 fa3e 7a0f 34be a4d9 dfbe 8caa 003f
000000d0: 09e4 dabc a7db 683e 1ae4 343e c1f3 8cbe
000000e0: e89e 04bf 0e36 aebd d84a 523d e802 183e
000000f0: b950 d5be 1c4b 97be e59f 44be 05f4 2bbf
0.15083401 -0.17465264 -0.29888842 -0.62150645 -0.46822205 0.4509029 -0.031206962 -0.19840905
-0.26192468 0.5665981 0.26890162 -0.0983463 -0.4510268 0.6016348 -0.05012585 -0.30998242
0.7020312 0.3561018 0.13063079 0.20249906 -0.15260151 0.20641708 0.4874395 -0.04417291
0.23603565 -0.5516555 0.4591612 -0.34283382 -0.12828574 0.10733094 0.30560404 0.7175355
-0.18277739 0.51874876 0.35501373 0.05492287 -0.19366229 0.23102272 0.5967167 -0.64122105
-0.10820089 -0.63748974 -0.23181559 -0.28718528 -0.10656739 0.2956965 0.10177843 -0.6940877
0.48842266 -0.17584029 -0.43720734 0.50260234 -0.026720064 0.2274004 0.17665139 -0.2752972
-0.5180497 -0.08506404 0.051340908 0.14844859 -0.4166315 -0.2954949 -0.1920162 -0.6716922

blocks.3.blocks.4.blocks.6.bias f4 [8]
00000000: ddbf 853f ab0e a23f 594d 573d fac7 b63e
00000010: ee88 6c3e 30b0 313f ea3d d93e 3450 ca3e
1.0449177 1.2660726 0.052564 0.35699445 0.2309911 0.69409466 0.4243005 0.39514315

blocks.3.blocks.4.blocks.6.running_mean f4 [8]
00000000: 25bc 08bf bc68 7d3e 8003 933f 67a3 4b3f
00000010: 775a b6be 1f5d e4bf dc73 273e e856 e7bf
-0.53412086 0.24746984 1.1485443 0.7954621 -0.35615894 -1.7840918 0.1635279 -1.8073397

blocks.3.blocks.4.blocks.6.running_var f4 [8]
00000000: 0022 e53e ca3e de3d 4405 eb3d 2d0f bc3d
00000010: f609 703e 1d37 a63f 0a60 073f 38e3 8e3e
0.44752502 0.1085182 0.11475614 0.09182582 0.234413 1.2985569 0.5288092 0.2790773

blocks.3.blocks.4.blocks.6.weight f4 [8]
00000000: c5a1 c13e 9dfd f53e 7cd3 483f d668 273f
00000010: 7bc7 743f 7d8c 463f 53ac 663f 208b 023f
0.37818733 0.48045054 0.784477 0.6539434 0.95616883 0.7755812 0.90106696 0.5099354

blocks.3.blocks.5.blocks.2.weight f4 [8, 1, 3, 3]
00000000: 0dec 113c 223c a93e 2568 91be 0c8e 94bd
00000010: a7c0 c83d 5e99 53be d893 80be 2d77 01bf
00000020: 3dc9 02be 5f1b c63d 5308 a23e 314e d1be
00000030: dee8 debe 72f2 483f 6bd5 92be 00a5 12be
00000040: 172a dbbe 47c9 a33e 129b e5bd c93a 0e3f
00000050: 8abc 753e 919d 9c3c 7296 2dbf babe 2abd
00000060: 006a 263f 5359 33be b37b 59be 45f1 5cbf
00000070: c9f9 bbbd 90c0 eb3e 60ac 15be 9642 24be
00000080: 4367 063f d4c3 9a3d d74a 8f3e a173 793e
00000090: c7fa 28bd 7450 0e3f 1aee f6bd ac81 af3e
000000a0: 8c2e ef3e 7bc4 e93e 2a80 dd3d 2ddd c03e
000000b0: 8c69 7f3d 46bf 553f 081d 263a c020 4fbf
000000c0: b0e8 ce3e f921 85be ac2c 47bf e92c ca3e
000000d0: 2bc3 d83e c130 5abe 7627 173f 0852 b0ba
000000e0: 9aed 973e c963 f7be 0a65 b1bd 2929 cabd
000000f0: 5db8 43be 244a 36bf 70ab 97be 8bc8 afbe
00000100: 728c 51be 0113 aebe 0b47 86bd 27bf c9be
00000110: 80d5 223e eb17 553e 072c 513f 3712 fe3e
0.008906377 0.3305369 -0.28399768 -0.07253656 0.098023705 -0.20663974 -0.25112796 -0.5057247
-0.12772079 0.09673189 0.31646976 -0.40879968 -0.4353704 0.7849494 -0.2867845 -0.14320755
-0.4280555 0.319895 -0.11211218 0.5555845 0.23997703 0.019118102 -0.67807686 -0.041685797
0.65005493 -0.17514543 -0.21238594 -0.8630565 -0.09178502 0.4604535 -0.14616537 -0.16041026
0.52501315 0.075568825 0.27986786 0.24360515 -0.041254785 0.5559151 -0.12057133 0.3427862
0.467152 0.45657715 0.10815461 0.37668744 0.062356517 0.83494985 0.00063367235 -0.8090935
0.404119 -0.26002482 -0.7780254 0.3948739 0.423364 -0.2130766 0.5904459 -0.0013452182
0.29673463 -0.48318318 -0.0866185 -0.09871132 -0.19113298 -0.7120688 -0.29622984 -0.3433269
-0.20463732 -0.33998874 -0.06556519 -0.3940365 0.15901756 0.20809905 0.81707805 0.49623272

blocks.3.blocks.5.blocks.3.bias f4 [8]
00000000: da0b 96be 21b1 be3f 9f9a ee3d 9207 823f
00000010: 92c4 dabe b448 993f 782b 143f 1f43 a63f
-0.29305917 1.4897805 0.116505854 1.015856 -0.42728096 1.1975312 0.5787883 1.2989234

blocks.3.blocks.5.blocks.3.running_mean f4 [8]
00000000: 5de4 0fc0 e2b5 c3be 8ea9 5d3e 7f1b e33e
00000010: 24b7 e03e 83fd 89bb fecf efbe 4ae7 193f
-2.2483132 -0.38224703 0.21646711 0.44356915 0.43889725 -0.004211129 -0.46838373 0.60118544

blocks.3.blocks.5.blocks.3.running_var f4 [8]
00000000: aab4 943f b1c3 1a3e d656 4d3e a729 ec3e
00000010: 82c7 743f 099a 063e 9b16 b63e 4778 133e
1.1617634 0.15113713 0.20052657 0.46125528 0.95616925 0.13144697 0.35564122 0.14401351

blocks.3.blocks.5.blocks.3.weight f4 [8]
00000000: 7cda 413f f079 f43e 62c2 bb3e 7c1c 4f3f
00000010: e114 4b3f 553c 303f 887c 173f d0f6 453f
0.75724006 0.4774928 0.3667174 0.8090284 0.79328734 0.6884206 0.59174395 0.7732973

blocks.3.blocks.5.blocks.5.weight f4 [8, 8, 1, 1]
00000000: 9ee2 803e d3eb 8bbd 844a 58be 171f 433f
00000010: f627 c43d 95f5 323f c50a db3e 7ed8 313e
00000020: 53fc c43c ce65 023f 18a2 6b3d 9ab0 55bd
00000030: 04f4 cbbe 4323 f1be 366d 5cbe 083f 2d3f
00000040: 39f8 97bc d19e 99be d0f4 183e fc2c a03e
00000050: 283f 3d3e e8e3 adbe 4c88 6c3e 501f 2f3f
00000060: 1161 a8ba f18d adbd 949c f7bc ea85 babe
00000070: bd0f 6d3d 6d05 053e 8ba1 c23d 5818 463f
00000080: 9f30 89bd 4801 8e3e 0c31 86be 253d 9bbd
00000090: 9517 00bf 3aa2 49bf 5804 0c3e c07b 963d
000000a0: 5fed 15bf d981 c83d 5828 923e 4018 bcbe
000000b0: b9f2 9ebd a8b5 603e 0de8 3fbf 8c4b 16bf
000000c0: d786 213e 2f16 2ebd e81f a93e 5e9d b7be
000000d0: 3fae d83d f17e 1ebf 5a1c 32bf 8970 81be
000000e0: 8947 b7be 728e 0a3f efe3 193e 020e d93e
000000f0: 8692 eebe c0bf 15bf 5767 b43d c391 e4be
0.25172895 -0.06832089 -0.21122175 0.76219314 0.095779344 0.6990598 0.42781654 0.17367741
0.024046099 0.5093659 0.05752763 -0.052170373 -0.39834607 -0.47097215 -0.21526036 0.67674303
-0.018550979 -0.3000398 0.14937139 0.3128432 0.18481123 -0.3396294 0.23098868 0.68407154
-0.0012846311 -0.08474339 -0.03022603 -0.36430293 0.057876337 0.12990351 0.09503468 0.77380896
-0.06698727 0.27735353 -0.26209295 -0.07580022 -0.50035983 -0.78763163 0.13673532 0.07347822
-0.58565325 0.097903915 0.28546405 -0.3673725 -0.077611394 0.21944296 -0.74963456 -0.58709025
0.15774094 -0.042501625 0.33032155 -0.3586225 0.1058011 -0.6191245 -0.6957451 -0.2528117
-0.35796764 0.54123604 0.15028356 0.423935 -0.46596164 -0.5849571 0.08808773 -0.44642457

blocks.3.blocks.5.blocks.6.bias f4 [8]
00000000: 203d 503f 5744 663f acde cd3e f1b0 0bbe
00000010: ce22 ffbe 7569 4d3f c364 59be 8370 473e
0.8134327 0.8994803 0.40208948 -0.13641717 -0.4983124 0.8023904 -0.21229844 0.19476514

blocks.3.blocks.5.blocks.6.running_mean f4 [8]
00000000: 5037 0740 d191 553f 69d9 123f 8c41 3b3f
00000010: 9267 16bf 6a0f aabf 5f52 f1bf 07a6 ebbd
2.112751 0.83425623 0.5736299 0.7314689 -0.58751786 -1.3285954 -1.8853263 -0.115062766

blocks.3.blocks.5.blocks.6.running_var f4 [8]
00000000: 782c 363f 67ef cd3e e360 c63e 0df6 d53e
00000010: 7544 d13e 501b 4d3f 2fbd f73e 1784 cb3e
0.71161604 0.40221712 0.38745794 0.41789284 0.4087254 0.801198 0.48386523 0.39749214

blocks.3.blocks.5.blocks.6.weight f4 [8]
00000000: 9675 283f bde8 2a3f 1fa1 073f 8053 1b3f
00000010: 4e92 7e3f b618 563f 9c6f 5b3f dc53 633f
0.6580442 0.6676138 0.52980226 0.60674286 0.99441993 0.83631456 0.8571718 0.88799834

blocks.3.blocks.6.blocks.2.weight f4 [8, 1, 3, 3]
00000000: e4bc 67bf 8a6b abbe 8660 acbe 7a4c c4bd
00000010: 1e73 bd3e 8050 89be 9d9f a3be 3827 dc3d
00000020: 4249 8dbc d5d1 013f 5eff 0c3f 93bf d03e
00000030: f8ee 1f3d 8df1 6dbe e9df 15be 85aa cfbe
00000040: 3f04 36bf 4275 0dbe 8373 6bbe 52e8 b53e
00000050: 1fa4 f1bd d46f cd3b 3401 a53c ec1b 9cbe
00000060: 61ac 20be 1f63 0dbf 842a 30be b24b ec3c
00000070: ef92 f9bd 8cef d93d 28df df3d 393a 93be
00000080: 3156 2a3e 5fec 1b3f 6bc4 853e b093 e33e
00000090: 3c65 22be db06 febd 3bb1 4fbe e985 45bd
000000a0: 03b9 93bc 604a c7bb 8f02 343d 893d 1bbe
000000b0: 44a2 4fbe 25f6 033e 523e 8f3e be25 d93d
000000c0: 785d 173e 7a58 063e 846f d93e 095c 70bf
000000d0: a727 1ebf cb5b 0ebf 5f68 3b3e e1f9 50bd
000000e0: 07e5 62be f336 5cbe a153 19be 5552 c4bd
000000f0: d0bd e6be e1f7 76be 7287 8e3d da3f e1bd
00000100: e40c fcbd 6c98 d83e 588c a3bd f1ec a1be
00000110: bee6 133f bd21 4d3e a952 fc3e 2b64 013f
-0.905226 -0.33480483 -0.33667392 -0.09584899 0.3700189 -0.2681923 -0.31957713 0.10749668
-0.017246846 0.50710803 0.5507716 0.4077116 0.039046258 -0.23236676 -0.14636196 -0.40559784
-0.7110023 -0.13814262 -0.22993283 0.3552881 -0.11798882 0.0062694345 0.020142175 -0.30490053
-0.15690757 -0.5522937 -0.17203718 0.028844688 -0.121862285 0.10641393 0.109312356 -0.28755358
0.16634442 0.6090755 0.26126418 0.44448614 -0.1585893 -0.12403651 -0.20282452 -0.04822341
-0.018032556 -0.0060818642 0.043947753 -0.15160193 -0.20276743 0.12886865 0.27977234 0.10602902
0.14781749 0.13119689 0.42467892 -0.93890435 -0.61779255 -0.55608815 0.18301533 -0.051019553
-0.2215768 -0.21505336 -0.14973308 -0.09586016 -0.4506669 -0.24117996 0.06959428 -0.10998507
-0.12307146 0.4230379 -0.07985753 -0.31626084 0.5777396 0.20032401 0.49281815 0.5054347

blocks.3.blocks.6.blocks.3.bias f4 [8]
00000000: 4377 753f 7bf6 f13f fb9a b93e 3ff3 123e
00000010: 8520 3b3e fe90 2f3f 74d9 5c3f 819b 4f3f
0.95885104 1.8903345 0.36251053 0.14350604 0.18274124 0.68580616 0.8626931 0.81096655

blocks.3.blocks.6.blocks.3.running_mean f4 [8]
00000000: 28e2 adc0 92b3 c5be 4dc4 aebf 4044 d63f
00000010: be8d 27be b78e f8bf abf9 41bf 4aa4 4a40
-5.433857 -0.38613564 -1.3653656 1.6739578 -0.16362664 -1.9418553 -0.7577159 3.1662774

blocks.3.blocks.6.blocks.3.running_var f4 [8]
00000000: a1c0 7540 cc55 a83f 0e5a 1540 6879 833f
00000010: 4c46 0e3e 029b c23f 96cc 813f 3761 dd3f
3.8398821 1.3151183 2.3336215 1.0271425 0.13894004 1.5203555 1.014056 1.7295293

blocks.3.blocks.6.blocks.3.weight f4 [8]
00000000: 6b9c 3a3f efd3 2f3f a428 373f 3ea5 503f
00000010: bce8 cb3e 5ac9 553f bd21 c43e 8396 4b3f
0.72894925 0.6868276 0.7154639 0.8150214 0.39826 0.83510363 0.3830699 0.7952654

blocks.3.blocks.6.blocks.5.weight f4 [8, 8, 1, 1]
00000000: 92a5 2cbf 7ddb ddbe 204c 053e 9256 91be
00000010: 48c4 ac3a ecf9 e43e 3090 da3e 6d35 b6bd
00000020: 9706 643e d312 dd3e daf9 cebd 44f1 febe
00000030: 74e4 93bd 7e92 06bf 3b23 cebe 534a 203f
00000040: ae9f 92be 208d 2cbe 07c1 863d a981 303e
00000050: 0011 093e 26b7 e8be 3a0a ff3e 796a 1c3f
00000060: 8c41 63bf 761a a7bd f9da 1ebe 7dde df3e
00000070: 324f 4a3e 9720 56bd 270a 11be 9410 09be
00000080: b740 213f b99e e53e ff3a 693f 2bea 66be
00000090: 0b0d 053d 2bf9 30be 0e19 fabe 8a32 8c3e
000000a0: 7557 e7be a28e 45bd da47 fbbc b476 323f
000000b0: 6665 d0be 4bc3 8a3e 54d6 a73d 27ec c9bd
000000c0: 5f7e 1b3f c778 d13e 66af 073f 1087 4f3d
000000d0: 0506 b6bd 99a7 0d3b e974 0ebe ecdb bf3e
000000e0: 5789 453e 83f8 303f 7381 40be d5ee 6cbd
000000f0: 5cd1 87be 3529 17bf bf40 d5be 76d1 9f3e
-0.6744014 -0.4333152 0.1301732 -0.2838636 0.0013181055 0.44721925 0.4268813 -0.08896909
0.22268139 0.43178424 -0.10106249 -0.49793446 -0.07221308 -0.5256728 -0.40261254 0.6261341
-0.2863745 -0.1685071 0.06579786 0.17236961 0.13385391 -0.4545223 0.4981249 0.61099964
-0.8877189 -0.08159344 -0.15513219 0.43724433 0.19756773 -0.052277174 -0.14164029 -0.1338523
0.6298937 0.44847658 0.91105646 -0.22550265 0.032483142 -0.1728255 -0.4884724 0.27382308
-0.45183912 -0.04823173 -0.03067391 0.69712377 -0.4070236 0.27102122 0.08195177 -0.098594956
0.607397 0.40912458 0.5300201 0.050665915 -0.08887867 0.0021614789 -0.13911785 0.37472475
0.19290672 0.691292 -0.18799381 -0.057844955 -0.26526916 -0.5904725 -0.4165096 0.31214494

blocks.3.blocks.6.blocks.6.bias f4 [8]
00000000: 8c6d 363d 4a13 2fbe 3c46 d7bc 7ace fbbd
00000010: 8c09 8fbf caac 32bf 5681 62bf c63d 35be
0.044538066 -0.17097202 -0.026278608 -0.12295242 -1.1174788 -0.69794905 -0.884786 -0.17699346

blocks.3.blocks.6.blocks.6.running_mean f4 [8]
00000000: b5fa 65bf 8d84 143f 611d 2a3e 02ca 94bf
00000010: 908f c73f 7c89 4ebe 3937 ee3f b045 473f
-0.89835674 0.58014756 0.1661277 -1.1624148 1.5590687 -0.20169634 1.8610603 0.7784071

blocks.3.blocks.6.blocks.6.running_var f4 [8]
00000000: 44c3 b13e 0489 873f 42a7 5c3e fbf5 153f
00000010: 9fbe 393f aa4a d43e cc2e 133f 6c97 473f
0.34719288 1.0588689 0.21548179 0.5857846 0.7255649 0.41463214 0.5749328 0.77965426

blocks.3.blocks.6.blocks.6.weight f4 [8]
00000000: 84b3 443f 0693 853f e16e 4c3f d304 453f
00000010: 5acd 0540 1875 493f a4fb eb3f b3bc a63f
0.7683642 1.0435493 0.7985669 0.76960486 2.0906587 0.78694296 1.843617 1.3026336

blocks.3.blocks.9.weight f4 [16, 8, 3, 3]
00000000: fabf 203e 18ae e73c f331 dabd bf56 343d
00000010: 2c99 ca3c 94f1 e5bd eff1 01be a74e ffbd
00000020: 242d 57bd 0da9 87bd 32aa a43e 6281 863e
00000030: c050 efbc a431 e03e 303b 0b3c 1cc3 763e
00000040: d067 ac3e 6461 4e3e ee93 37be bec2 b2be
00000050: 3801 9cbd 731d eebd 38ea 83be 9499 1f3d
00000060: 2594 4bbc dd66 a3bc 1d41 8f3e f310 8a3d
00000070: 25ba 7d3e aabe 533d d000 eabb e8c0 d93d
00000080: 2e59 c13d 8b81 b7bd c205 87be 9a6c 68bc
00000090: a521 b7bd 7a08 e03d 22d0 553f 5f7b 5cbe
000000a0: 3430 9bbd 6b40 e13e c243 a4be 3914 09be
000000b0: a726 3a3e 382e eb3d 03da c53d 4cac c6bd
000000c0: a659 8d3e 1115 323e 5b8b 15be 5f8b 0a3e
000000d0: 8a4d 313d 0dbc 68be c67a 843d d38b 6b3e
000000e0: 7922 3b3f 2251 3fbe dc90 babc 2f2b f73e
000000f0: ca79 8abe 1bef abbd c323 053f 7bd1 8b3c
00000100: 6f0e 503e 0ab3 203f c427 c3bd 800e 123e
00000110: f734 403e 220c e5bd eb4a 8c3d 9d0d 2f3e
00000120: cf91 d33e f868 933d 386a 4e3f 8497 083f
00000130: ff95 afbe 7e5c 393e 678a 563f 05a6 2fbd
00000140: 2928 2a3e 9cb9 b43d 0a9f d03d 9327 a23d
00000150: e4cf 793e 1922 a13c 45e9 483e 347a 2c3c
00000160: 512e 7e3d fcfa 793d 97b3 5bbe 52c8 86be
00000170: bab5 5abe 8a8a edbe b977 49be 6f68 49be
00000180: 7639 5bbe 0eee d2be edc6 fbbe a7af 183f
00000190: 05f6 dc3e 0113 8f3e 5e29 c83e 46d0 ef3d
000001a0: a14d cfbe f48f 513e ecba a63d b603 60be
000001b0: 61a3 f6be 4b4a 83bd 13ed f1bc c903 0dbb
000001c0: 9965 b6bd 0f28 2cbe c7e4 fabd 1d5e 3f3e
000001d0: fbc7 8abe ad2e 9e3d c4db 01bd 6123 513e
000001e0: cec1 89bc 95b5 37bd 0279 893e 11b3 233e
000001f0: 6a88 143e f3dc 003f f399 a93d 6615 883e
00000200: 60bd 5fbd abb0 093e 9b84 37bd c1a7 bfbd
00000210: c016 533d 1336 ce3d 3cc3 05be b454 01bd
00000220: 2636 c53e f9f8 853e 634c 9abd 46e0 e9bd
00000230: 8e4e 4cbd 5d6f 9c3d ace1 b73d 9d26 55bd
00000240: a05f 10bf 84ab b3bd e2d2 7cbe 3402 5bbe
00000250: 4b45 0abe 497b 5ebe 39a7 c9bd cd95 a53c
00000260: 5aed 63be 5869 8cbb 7577 6e3e c5c0 a23e
00000270: 9167 51be 2c9a e3bd 969d d33d 9868 663e
00000280: 1548 7c3d b109 7f3d f501 7bbe 0976 05bf
00000290: 1927 afbe b23b acbe 2de9 f5be 36d7 b2be
000002a0: 5a08 60be bde3 b53e 5f1a b93e 5261 9ebe
000002b0: 70c7 9bbe 280f 32be a13e 293d de65 043d
000002c0: b28c 06bd 7d91 ff3d 4078 1bbe 1d9f 5cbe
000002d0: 3c30 19bd 672a 96be ae7c 02bd 19a6 fcbd
000002e0: 5d0e 86be 3b52 ecbe a601 0c3e e6b1 ddbe
000002f0: 8d50 dabe 34d9 9bbe 9772 a23b 7c4c d23c
00000300: c220 87bd 98a3 2c3e db58 4c3e 8c88 b2be
00000310: 9a4b 9dbe 7210 d6be 59b8 0bbf 7f66 c9be
00000320: 461e 91bc 6f91 3ebe dc7c 28be acac a3be
00000330: b2c5 a03e 41dd 093d 7d25 29be 9c49 e73d
00000340: 01ed 053f 2d60 c83e efd2 9639 51cb 7e3e
00000350: 66b0 a83d 91b4 863e 32c9 bf3e 53e2 923e
00000360: 5010 ce3d 09aa 4cbe 2640 953b cdef a8bc
00000370: 0a8e e2be f457 073e 9694 233a bff7 9fbe
00000380: f9e3 7a3e def0 6dbc 3094 2e3f 04fe 0c3e
00000390: 557a af3c 92b0 133f a607 9dbd 69c8 09bd
000003a0: 3ad1 d03d 4c49 d5be f59d ba3d 4204 84be
000003b0: 4d5c 073e 5540 e1bd 015d 0abf 490c 083e
000003c0: a186 743d 0ac1 5c3c 4531 d5bd ce1d b53c
000003d0: e4da 8f3d 18aa 83be 5018 943e d62a a3bd
000003e0: 7c9a 33be 245e 8f3d 216a 56be 400e f53d
000003f0: 4ca6 6bbe 2cd5 5c3e 28e2 ce3d 28c3 e9bd
0.15698233 0.028281257 -0.10654058 0.04402804 0.024731241 -0.11227718 -0.12689947 -0.124661736
-0.052533284 -0.06624041 0.321611 0.26270586 -0.02921331 0.43787873 0.008497998 0.24097866
0.33672953 0.20154339 -0.17927524 -0.34914201 -0.0761742 -0.11626711 -0.25764632 0.038964823
-0.012425457 -0.01994651 0.27979365 0.06741514 0.2477804 0.051695503 -0.00714121 0.10632497
0.09440838 -0.08960255 -0.2637158 -0.014186049 -0.08941964 0.10939117 0.8352071 -0.21531437
-0.075775534 0.4399446 -0.32082945 -0.1338662 0.18178807 0.11483425 0.09660723 -0.09700832
0.2760746 0.17390849 -0.14603941 0.13529728 0.043286838 -0.22727986 0.0646873 0.23002557
0.73099476 -0.18683293 -0.022774152 0.48275134 -0.27046043 -0.08395215 0.52007693 0.017067662
0.20318006 0.6277319 -0.09529069 0.14263344 0.18770204 -0.11183955 0.06850227 0.17095037
0.4132218 0.071977556 0.80630827 0.53356194 -0.34294125 0.18101689 0.83804935 -0.042882938
0.16616882 0.08824465 0.10186584 0.079177044 0.2439571 0.01966958 0.19620235 0.010527182
0.06205589 0.061030373 -0.21455227 -0.26324707 -0.21358386 -0.4639476 -0.19674577 -0.19668745
-0.21408638 -0.41197246 -0.49175206 0.59643024 0.43156448 0.27944186 0.3909406 0.11709647
-0.40488914 0.2046507 0.08141121 -0.21876416 -0.48171523 -0.06410655 -0.029531991 -0.0021517149
-0.08906097 -0.16812156 -0.12250667 0.18688245 -0.27105698 0.077237464 -0.031703725 0.20423652
-0.016816046 -0.044850904 0.26850134 0.15986277 0.14505163 0.5033714 0.082813166 0.26578826
-0.05462396 0.134463 -0.044804197 -0.093581684 0.051535368 0.100689076 -0.13062757 -0.03157492
0.38517874 0.26166514 -0.07534101 -0.1141973 -0.049879603 0.07638428 0.0897859 -0.052038778
-0.5639591 -0.087729484 -0.2468982 -0.21387559 -0.13502996 -0.21726717 -0.09846348 0.020213032
-0.22258511 -0.004285019 0.23287757 0.31787696 -0.20449664 -0.1111339 0.103327915 0.22500837
0.06159218 0.0622651 -0.24512465 -0.5213323 -0.34209517 -0.33639294 -0.48029462 -0.34929818
-0.21878186 0.35525313 0.36152932 -0.30933625 -0.30425596 -0.17388594 0.041319493 0.03232371
-0.03284902 0.124789216 -0.1518259 -0.21545072 -0.037399516 -0.29329225 -0.031857185 -0.12336368
-0.26182833 -0.46156487 0.13672504 -0.43299788 -0.4263958 -0.3043915 0.004957508 0.025671236
-0.06598045 0.16859281 0.1995577 -0.34869802 -0.30721742 -0.41809422 -0.5457817 -0.3933601
-0.01771463 -0.18610166 -0.1645388 -0.31967676 0.3140083 0.03365827 -0.16518207 0.11293337
0.52314764 0.39135876 0.00028767387 0.24882247 0.0823677 0.26309636 0.37458187 0.28688297
0.10061705 -0.19986738 0.004554766 -0.020622158 -0.44248992 0.13217145 0.00062400976 -0.31243703
0.24501027 -0.014522759 0.68194866 0.13768774 0.021420637 0.576913 -0.076674744 -0.03363839
0.10196157 -0.41657484 0.09112159 -0.25784498 0.13218804 -0.109985985 -0.5404816 0.13285936
0.059698705 0.0134737585 -0.10409788 0.022108939 0.07024172 -0.2571571 0.289248 -0.07967155
-0.175394 0.07000378 -0.20938922 0.119656086 -0.23012656 0.21565694 0.1010173 -0.11414176

blocks.4.blocks.10.bias f4 [16]
00000000: f2bc 2abe 6fe7 b73d 09ee 493e 3e1a 5cbe
00000010: 0a14 4c3e 71d4 8c3c 1655 373e 6181 05bf
00000020: 1781 0fbe 5500 e13e ea03 d8bd 3a19 7f3e
00000030: 5cd4 46be c0c6 11bd 9e65 533e 92ea 11bd
-0.1667364 0.08979689 0.1971971 -0.21494386 0.1992952 0.017191144 0.17903551 -0.5215054
-0.14014088 0.43945566 -0.105476215 0.24911967 -0.19416946 -0.035589933 0.20644233 -0.035624094

blocks.4.blocks.10.running_mean f4 [16]
00000000: da97 a83e 8944 7d40 83b7 6abf 2a52 2cbf
00000010: c066 c6be 06be d7bf 9237 1e3f 61d7 c83f
00000020: 31bf e43f 1f20 5540 5cfc fa3e 965b 9340
00000030: ae56 3b3e 1eaa 823f 10e6 1140 a342 cc3f
0.32928354 3.957308 -0.91686267 -0.6731287 -0.38750267 -1.6854866 0.61803544 1.5690728
1.7870847 3.3300855 0.4902066 4.60493 0.18294784 1.0208166 2.279667 1.5957836

blocks.4.blocks.10.running_var f4 [16]
00000000: 6e93 3042 dc29 8241 87bf c141 ca19 8a41
00000010: ac1b 1642 9565 c541 57aa f241 1e78 9941
00000020: cd6a 9d41 bc95 c542 5973 3b41 24e7 3f41
00000030: baf2 9a41 98b3 ce41 6891 a041 2dfb 3441
44.143974 16.27044 24.21852 17.262592 37.527023 24.6746 30.333174 19.183651
19.677149 98.79245 11.715661 11.993931 19.368519 25.837692 20.071 11.311322

blocks.4.blocks.10.weight f4 [16]
00000000: dbc5 933f 0d36 443f 5379 623f e0e9 813f
00000010: 752c 993f c67c 853f 8fdc 803f d903 943f
00000020: c174 853f e36f 803f 0ad9 6d3f 5cc4 423f
00000030: 0f81 863f 580c 933f ebc9 673f 13fd 733f
1.1544756 0.76644975 0.88466376 1.0149498 1.1966692 1.0428703 1.0067309 1.1563674
1.0426255 1.0034145 0.929093 0.7608087 1.0508136 1.1488142 0.9054248 0.95308036

blocks.4.blocks.12.bias f4 [16]
00000000: 5455 8db4 361b 0db6 c9fe 9435 f720 0db6
00000010: 5559 b2b5 f5fd 4b36 4b04 47b5 a94d 0535
00000020: 8f46 7bb5 ee88 9036 0408 67b6 ba32 c535
00000030: 5809 c0b5 3e43 c5b4 2f92 2635 ecac ab36
-2.632538e-07 -2.1026476e-06 1.1101012e-06 -2.1029825e-06 -1.3288033e-06 3.039718e-06 -7.4139524e-07 4.965937e-07
-9.360746e-07 4.307475e-06 -3.4426348e-06 1.4692407e-06 -1.4307834e-06 -3.6743035e-07 6.2052544e-07 5.116328e-06
