thermal vision/Public/Models/model.onnx (onnx, 132913 bytes, 88 tensors)

blocks.0.weight f4 [16, 3, 3, 3]
00000000: dfde 3d3e 1b48 2b3e 4841 fd3d ede5 0d3e
00000010: 3158 2e3e 92b4 fd3d eb09 0e3e fb07 1c3e
00000020: bafd f63d 1a97 88bd 241b b5bd 5bee d7bd
00000030: 6e2d 21be a79e c5bd 90ca 42be d4a5 f2bd
00000040: a64e c1bd 6a4b 1abe c62e 823c 57eb 633d
00000050: 61b5 603d 0891 52bc e6fe 76bb 45d1 153b
00000060: f298 0ebc 5933 5c3c 0e65 ab3d 2860 abbe
00000070: 5cf1 53be 8028 203e b3a6 52bc 1b5c 383f
00000080: 900b 893e 6134 d43d 66a9 3c3e 6e02 51be
00000090: 2ff9 e9bd d70f 903d f431 253e f363 923d
000000a0: 3b2c 383e 5728 fd3d 1e7c f03d 2477 113d
000000b0: 674c 88bd ae9a 3cbe acb1 f73c 1e74 1f3e
000000c0: 5309 b03d 9428 3b3e 8a6a 033e 8b4e 543e
000000d0: 5e8b c13d 6f23 0bbd a55b c13d 6605 743d
000000e0: 5ef4 e03b 5d70 2b3e c5f7 cd3d f845 46bd
000000f0: 2766 103e 9025 2cbe 4a7a e7bd 87f7 883d
00000100: 6d76 823d baad 863d 0b05 963d 27ed 833d
00000110: 5e56 7e3d fd00 803d b64e 4d3d 14b0 323d
00000120: cbcb 723d 40ce 673d e1ad 7b3d d702 803d
00000130: 117d 703d 1a54 623d 16ed 603d 3ccf 473d
00000140: 5337 2b3d 9d45 d2bd 72e7 c3bd bcce 95bd
00000150: aec9 c6bd 44bf e6bd 9b79 abbd 7977 4bbd
00000160: ec0c 93bd 073c 2fbd ead6 fdbc f2c3 3ebd
00000170: 7f29 60bd 699e d9bc 39ea 49bd 0cbd 66bd
00000180: 32de c9bc ac47 3bbd e3f5 48bd f81f 37bd
00000190: 94ee 71bd 2159 90bd 6c35 60bd b2e0 99bd
000001a0: 7d6e a8bd 0324 5bbd b8b2 95bd 9381 98bd
000001b0: 8acf 45be 7842 f9bd 9868 a1bd d7dd 79be
000001c0: 135c 75be 50e2 08be 6fd2 e4bd 99bb 6cbe
000001d0: 841f 0cbe 85cb d33d 4973 0b3d c71d 013d
000001e0: 34d0 783d c607 d93c f42d 6cbc ffb0 613d
000001f0: 912e c93c bdcc 4cbd 0a1c d93d 5813 3f3e
00000200: c9e3 b43d ca98 ad3d faca 9e3d 9f65 0b3d
00000210: b156 a93d b90e a13d 7a84 5e3c d70b eebd
00000220: b02f 89bd 43ca 0abd 7667 e8bd 54d3 aabd
00000230: a879 93bd 5a0f bfbd 3ba2 89bd 4dcc 73bd
00000240: af7b 61be 24e7 e23d 6cfb c73d 5266 06be
00000250: 97ab 89bd 6c2a 3f3d 8c5a 89bd 7b8b f83c
00000260: 5410 aa3d 77fe d83c b2df 4e3d 0124 6a3d
00000270: 9dd9 8a3c 73f9 263d 37f9 473d 0c54 c93c
00000280: 36da 4b3d 52a4 543d 8e6a f8bd cee8 a8bd
00000290: 55a9 9ebc b963 26be 35cb ccbd e36e b8bc
000002a0: 9e7b 14be d41a 25bd 3484 763d 6a73 3dbd
000002b0: 8dda 89bd 1b46 3cbd 5159 f0bd 638f cebd
000002c0: 3acb 68bd 9082 b6bd 3310 e93c f380 0a3e
000002d0: f394 97bd 0d3c 90bd 80f5 94bb 2e03 04be
000002e0: 3c49 bebd 269a 3cbb 8227 e9bd 762b 3ebd
000002f0: e8a2 6a3d 2f3c 16bd 9d78 a9bd 4b5e 3abd
00000300: 2484 c7bb 8859 2abd 00b3 cbbb 2c1c 5e3c
00000310: 4085 173c 5525 023d a6c2 16be b10a debd
00000320: 3973 d9bd 8fb2 08be a439 9abd f829 81bd
00000330: d4fa e3bd 2618 c1bd 134a 10bd ce99 71be
00000340: d467 c6bd efef b8bd 9d62 07be c79f 29bd
00000350: 24e4 42bc abdd 79bb be79 d7bc dd46 0c3d
00000360: e737 5d3d 7d72 7b3d 9c4e 8b3d 7265 5e3d
00000370: 50f9 7c3d cfa2 803d e86a 633d c666 5c3d
00000380: 52a8 593d ab76 7a3d 0153 923d e2df 983d
00000390: 6e68 813d 5cc9 943d 421b 973d 5542 853d
000003a0: 5f00 813d 8138 593d 93dc 603d b27e 783d
000003b0: 1e83 6b3d a41e 683d a1f3 7d3d cf46 593d
000003c0: 40df 603d 24f4 503d 6a40 d13c c28c e9bd
000003d0: fa8c d7bd 7744 7abd 7b09 c1bd 7566 dabd
000003e0: fd7f 48bd 28b5 e3bc 60d6 133c 3847 b9bc
000003f0: 3fa7 6fbd bc7b 73bd c60a 24bd f573 3abd
0.1854205 0.16726725 0.12365967 0.13857241 0.1702583 0.12387957 0.13870971 0.1523742
0.12060113 -0.06669445 -0.08843067 -0.105435096 -0.15739986 -0.09649401 -0.19022584 -0.118480355
-0.09438829 -0.1506783 0.015891444 0.05564436 0.054860476 -0.012851961 -0.0037688552 0.002286033
-0.008703457 0.013439977 0.08368884 -0.334718 -0.2069754 0.1564045 -0.012857127 0.7201554
0.26766634 0.10361553 0.18423995 -0.20411083 -0.11424481 0.07034271 0.16132337 0.0714797
0.17985623 0.1236121 0.117424235 0.035514012 -0.066551976 -0.1841838 0.030236088 0.15571639
0.085955285 0.18277198 0.1283361 0.20733087 0.0945041 -0.03396934 0.09441308 0.05957546
0.0068650683 0.16742082 0.10057024 -0.04840657 0.14101468 -0.16811204 -0.11302622 0.06687837
0.06370244 0.065761045 0.073251806 0.064417176 0.062094085 0.062501885 0.050123893 0.043624952
0.059276383 0.05659318 0.06144512 0.06250542 0.058713023 0.055255987 0.054913603 0.04878162
0.04180081 -0.10267184 -0.09565629 -0.07314822 -0.09706436 -0.1126695 -0.08372804 -0.049674485
-0.07180199 -0.042781856 -0.030986268 -0.046573587 -0.054727074 -0.026564794 -0.049295638 -0.056332633
-0.024642084 -0.04572265 -0.04906262 -0.044708222 -0.059065416 -0.0704825 -0.054738447 -0.0751356
-0.08224199 -0.05350114 -0.073094785 -0.07446589 -0.19317451 -0.12170881 -0.07881278 -0.24401031
-0.23960905 -0.13367581 -0.111729495 -0.23118438 -0.13683897 0.10341553 0.03404549 0.03152254
0.060745433 0.026492964 -0.014415253 0.055100437 0.024558337 -0.04999994 0.10601051 0.18659723
0.08832509 0.08476408 0.077535585 0.03403246 0.08268488 0.07864136 0.01358139 -0.11623352
-0.06698549 -0.033884298 -0.113478586 -0.08341089 -0.072009385 -0.093291 -0.06720396 -0.05952101
-0.22019838 0.11079243 0.09764752 -0.1312497 -0.06722181 0.046671316 -0.067067236 0.030339947
0.083038956 0.026488526 0.0505063 0.057163242 0.01694947 0.040765237 0.048821654 0.02457621
0.04976865 0.05191452 -0.12129699 -0.08247529 -0.019367853 -0.16248979 -0.09999696 -0.022513812
-0.14500281 -0.04030879 0.060184672 -0.046252646 -0.067311384 -0.045965295 -0.11735786 -0.100859426
-0.056834437 -0.089116216 0.028450107 0.13525753 -0.07401457 -0.07042704 -0.0045458674 -0.12891838
-0.09291312 -0.0028778403 -0.11384489 -0.046428166 0.057284266 -0.03667849 -0.08274958 -0.04550008
-0.0060887504 -0.04158929 -0.006216407 0.013556521 0.009248078 0.031773884 -0.1472269 -0.10841883
-0.1061768 -0.13349365 -0.07530525 -0.06306833 -0.11131826 -0.09428434 -0.035226893 -0.23593828
-0.096877724 -0.09030139 -0.13221212 -0.04141214 -0.011895213 -0.003812651 -0.026303168 0.034247268
0.05400839 0.06138848 0.06802103 0.054295965 0.0617612 0.06281053 0.055521876 0.05380895
0.05313904 0.061148327 0.07144738 0.07464577 0.063187465 0.07264969 0.07378246 0.065067925
0.06298899 0.053032402 0.054897856 0.0606677 0.05749809 0.056669846 0.06199992 0.053046044
0.054900408 0.05101408 0.02554341 -0.114038005 -0.10524936 -0.06110045 -0.094256364 -0.106640734
-0.048950184 -0.027796343 0.009023279 -0.022616968 -0.058509108 -0.059444174 -0.040049337 -0.04552074

blocks.1.bias f4 [16]
00000000: ce53 57bd 3ee1 013e 7804 90bd 6197 813e
00000010: eb45 d93e 7ff7 493e 1458 bb3b 07a8 f63c
00000020: 1d44 8c3d 12b9 88bd cdfb e7bd e4ab 373e
00000030: a561 8b3e c059 723e efed ff3d e454 5cbd
-0.052570157 0.1268358 -0.07032102 0.25310805 0.42436156 0.19723319 0.005717287 0.030109419
0.06848929 -0.06675924 -0.11327324 0.17936665 0.27222934 0.2366705 0.12496554 -0.053791896

blocks.1.running_mean f4 [16]
00000000: 6a74 6942 5daf 5843 0afa 0f43 b05d 3fc3
00000010: f492 6ec2 d7b7 63c2 af47 24c3 8d67 34c3
00000020: a00f 3343 039f 1dc3 d5b1 5dc3 5a4a 31c3
00000030: 8002 1bc3 9088 6c43 455e acc2 edcd 3dc3
58.363686 216.68501 143.97672 -191.36597 -59.64351 -56.92953 -164.28001 -180.4045
179.06104 -157.62114 -221.69466 -177.29044 -155.00977 236.53345 -86.18412 -189.8044

blocks.1.running_var f4 [16]
00000000: b122 f344 2c27 8946 fa75 f545 7905 4c46
00000010: 040c 5145 eee0 bc44 58d3 1846 bf1f 4446
00000020: 551d 3446 f047 0c46 bc54 8d46 5b4d 3246
00000030: b912 0746 9328 a546 32c9 5145 2362 4846
1945.0841 17555.586 7854.747 13057.368 3344.751 1511.029 9780.836 12551.937
11527.333 8977.984 18090.367 11411.339 8644.681 21140.287 3356.5747 12824.534

blocks.1.weight f4 [16]
00000000: c3ba ac3e 689b de3f 05b5 243f ff9d f73e
00000010: 8739 e73e a869 8a3e 6705 3c3f 5fdb 033f
00000020: b30a 0c3f 4187 e13e 3914 123f 34c7 f03e
00000030: c4f1 513f b88d 703f bcbf 8c3e 2e81 563f
0.33736238 1.7391176 0.64338714 0.4836273 0.45161077 0.27033734 0.73445743 0.5150661
0.54703826 0.44048503 0.5706211 0.4702698 0.8200953 0.93966246 0.27490032 0.8379086

blocks.2.conv.1.weight f4 [16, 1, 3, 3]
00000000: fc8d bdbe 1b97 bdbe cd61 58be b3fe dd3d
00000010: be35 023d 3cf0 9cbc 490e 3fbc 9c80 a63d
00000020: 72ec 83bd fce9 d1be b5cc bbbe f279 8dbe
00000030: a4fa bbbe be31 b6bb 755c 3a3e 6907 403e
00000040: ce0d 0c3f a914 113e 92f3 b73e 8356 dc3d
00000050: ed56 18be 91a4 3abe 5331 d6be f58b 8fbe
00000060: ae10 1b3e 4422 8fbe bb44 763e 68cd e9be
00000070: cd1b 03be a66e 76be 7668 39be 4b33 02bd
00000080: a35a b33e ca29 5a3e 7c7a 5f3e 7955 223f
00000090: d131 ebbd 26d1 0b3d a454 84bd 4d69 5fbe
000000a0: 865f c6bd 1c0f 85be c290 7fbe c40d 1dbe
000000b0: 9053 61be 3305 113e b502 d63e 6738 203e
000000c0: cef7 a7bd 0950 ccbb 571d 25be ad72 7b3d
000000d0: d212 c73e 38c7 0d3e 2327 f8be 913f 8fbd
000000e0: 8b02 053e 1d5f bd3b 661e dc3e a3e0 553f
000000f0: 4c64 34bf e295 99bd a4b1 9d3e d9be 5bbe
00000100: c28f d2bd 0252 94bd a415 2b3c 630c 1cbe
00000110: 59a8 b9be 7bbe 70be 280a 633c 8b81 a3be
00000120: 0639 a6be b7d9 bebe 820a 80be 54f7 eb3d
00000130: 2b92 083e e321 a13d a61a 083e 7c01 c5be
00000140: f2fe d8be ae5b 383f 0df2 a83a bd0d 523e
00000150: 32f2 603e 291d 8abe 49c5 9c3d 4ff9 1d3e
00000160: f39a 96be a519 72be 40ef 913e eb0f 77bd
00000170: 5c53 0bbf be74 5c3f 53fa 3e3e 4185 04bf
00000180: f53d 333f e8a0 a6be 754d efbe 86d7 303e
00000190: 4683 bfbd 9224 81bd f57c 5ebe af73 8fbe
000001a0: 8717 84bd 3ff6 a0be 18e3 bb3d 4394 983e
000001b0: 1fba 683e cea1 043f bc74 ae3e 9fe3 e2bd
000001c0: 8e59 83be 6725 d9be 984a d3be 3d27 95be
000001d0: 43bb 28bf f8e2 44be bc6e c93d c875 3a3f
000001e0: c51f fcbe 6878 9cbd aedf b33e 5dde 8cbe
000001f0: ab2f bfbe fa2b 083e 3446 113e 6c4d 03bf
00000200: 71a0 8abd 2a7f e4be 6c64 b8be 4c0a e83e
00000210: 8138 063d f8e4 a23c 9708 f93d e266 eabd
00000220: 0723 fbbe fc7f 93be 6c9b 833e c0ac 4c3e
00000230: 0c5b 1a3e 1cf6 093f 152e cc3e 74e2 d03e
-0.37022388 -0.37029347 -0.21131058 0.10839596 0.031789534 -0.019157521 -0.011661121 0.08129999
-0.06441583 -0.40998828 -0.36679617 -0.276321 -0.3671466 -0.005560129 0.18199332 0.18752827
0.54708564 0.14168037 0.35928017 0.10758688 -0.1487691 -0.1822684 -0.41834506 -0.28036466
0.15143082 -0.2795583 0.24049656 -0.45664525 -0.12803574 -0.24065647 -0.18106255 -0.031787198
0.35030088 0.21305004 0.21824068 0.6341167 -0.11484111 0.034135006 -0.064614564 -0.21817513
-0.096861884 -0.2598809 -0.24957564 -0.15337282 -0.22004533 0.1416214 0.4179894 0.15646516
-0.08201562 -0.006235127 -0.16124474 0.06138866 0.38881546 0.13845527 -0.4846736 -0.06994546
0.12989251 0.0057791607 0.42991942 0.83545893 -0.7046554 -0.07499291 0.30799592 -0.21459521
-0.10281326 -0.07242204 0.010442171 -0.152391 -0.36261252 -0.23510163 0.013857402 -0.3193477
-0.3246538 -0.37275478 -0.25008017 0.115217835 0.13337009 0.078677915 0.13291416 -0.38477695
-0.42382008 0.7201489 0.001288952 0.20513053 0.2196739 -0.26975372 0.07654817 0.15427135
-0.29415092 -0.23642595 0.28502846 -0.060317915 -0.5442407 0.86115634 0.18650179 -0.5176583
0.70016414 -0.32544637 -0.46738783 0.17269716 -0.0935121 -0.06305803 -0.21727355 -0.28017947
-0.064498 -0.3143787 0.09174174 0.29800615 0.2272725 0.51809394 0.34073436 -0.110785715
-0.25654262 -0.42411348 -0.41267848 -0.291315 -0.6591074 -0.19227207 0.09835574 0.7283597
-0.49242988 -0.07640153 0.35131592 -0.275134 -0.37341055 0.13298026 0.14186937 -0.5129001
-0.06768883 -0.44628268 -0.36014116 0.45320356 0.03276873 0.019884571 0.121598415 -0.114454046
-0.4905016 -0.28808582 0.25704515 0.19987774 0.15073794 0.5389116 0.39878908 0.4079777

blocks.2.conv.2.bias f4 [16]
00000000: 8731 053f 8b05 f23d 4eb5 a03e 471a c43d
00000010: f44a b4bd 9de8 b8bd 7fc0 6abe d67a d53e
00000020: 09d1 f7be e3a8 0d3f e7e2 013f b2ea 85be
00000030: a28d aebe 21ae 653e db14 8cbe dc14 45be
0.520287 0.118174635 0.31388324 0.095753245 -0.08803359 -0.090287425 -0.22924994 0.4169528
-0.4840167 0.55335826 0.5073685 -0.2615562 -0.34092432 0.22429706 -0.2735966 -0.19246238

blocks.2.conv.2.running_mean f4 [16]
00000000: efb5 c6bd a0eb 92be 3246 d8bd f27b 073e
00000010: f291 1cbf e6b1 7e3e fd28 053e 326a abbe
00000020: 0daa adbe a9e8 bf3d 8601 563c c03b 09be
00000030: 1dbc 0ebf d260 1dbd 32d8 fabd a417 b33e
-0.0970267 -0.28695393 -0.10560264 0.13230875 -0.61160195 0.2487255 0.13003917 -0.33479458
-0.339188 0.09370548 0.013061887 -0.13401699 -0.5575579 -0.038422413 -0.12248267 0.34978974

blocks.2.conv.2.running_var f4 [16]
00000000: 4155 e63c c441 a13e 5430 e33c a3bf d83c
00000010: 82d5 523e 988a 423d c7e5 643d 70f3 1f3e
00000020: 4213 4c3e 1b29 963c a87d 863c 0ec1 a43c
00000030: a61b c53e 1ddc 843d 8dc1 9b3c b83a 623e
0.028116824 0.31495488 0.027733006 0.026458567 0.2058926 0.047495455 0.055883195 0.15620208
0.19929221 0.018330147 0.01641734 0.020111587 0.38497657 0.06487296 0.01901319 0.22092712

blocks.2.conv.2.weight f4 [16]
00000000: 3f80 ed3e 1c5c 8c3f 4ad4 833f dde2 6b3f
00000010: eca8 273f 17d4 1f3f ebe2 4d3f daa8 333f
00000020: 2ea7 b33f 3e1f 213f 679d 363f c217 233f
00000030: 6c32 9a3f 6bc0 353f 117c 853f 2b41 383f
0.46386907 1.096561 1.029916 0.9214304 0.6549213 0.62433 0.80424374 0.7017952
1.4035394 0.62938297 0.71333927 0.63708127 1.2046638 0.7099673 1.0428487 0.7197444

blocks.2.conv.4.weight f4 [16, 16, 1, 1]
00000000: 6960 60be b317 05be 58a7 91bd d6b4 bf3d
00000010: 8d61 9c3e 6eda 12be b74f c5be 7760 0dbf
00000020: 9512 333f fd06 e0bd fc25 c7bd 3b7c 83be
00000030: 0856 e0be 0849 04be cbff 8ebe d568 52be
00000040: bffc 1a3f 2303 773d 2b4a 0a3e 12e4 d1bd
00000050: d362 5fbe c47e b93c 119b 6bbd 3eba 563f
00000060: 86e2 5fbf c09f ddbd c765 9cbd 3cec 11be
00000070: 84e1 193f f4c4 3e3e 680a 883e 690e d23c
00000080: 8534 0fbc c906 413f 3111 8f3d c548 3a3e
00000090: 96a8 55bd ac5e 213b 3b12 00be 3a27 563e
000000a0: 652c 13bf f75a 55be ba6c d2bb 3b7b 1a3e
000000b0: 3541 cc3e a391 633d 0a95 e6be 4d4c b33c
000000c0: c021 e6bd 9785 0a3e 1c17 52be 3967 303d
000000d0: 4875 9c3c 7324 0ebe 5e1d 68bd 2826 ad3c
000000e0: 0fa3 d4bd c81e 17be 2184 d63b b429 4e3c
000000f0: fd84 9ebd b681 643f 74df 2cbe bd8a 2a3e
00000100: ad49 4e3f cf86 5bbd ecff afbd 5b04 5a3e
00000110: 658d aabe 35f4 ce3e 8bd1 bcbd d42e c4be
00000120: 63a1 6dbe 96ec 8e3d cc04 473c 8d7a 49be
00000130: d88c a13e bee5 3e3e 2557 ba3d f288 f93e
00000140: 51ca 65be a248 c8bd f779 0cbe 3ca8 a6bd
00000150: a6d0 513e 0276 36be 9f9f 91be 5cdc 9f3d
00000160: 0667 e13d 4a14 07be 57d1 5a3e 948c f23c
00000170: 6bf3 b53d e620 0e3f ddfe b2bd e731 523e
00000180: 2932 873e f741 46bd d054 823e a873 83be
00000190: 75f0 b3be a746 1cbf 487c e63c e9f2 b33e
000001a0: 6fc2 733e 3c26 f0be 6609 13bc 0582 5dbe
000001b0: 5296 6b3e 2d4b 4e3d 4a50 c5be 3841 c4bd
000001c0: 8c91 e43d b1dd 16be 6728 bebe 1822 cdbe
000001d0: f736 1e3c 9708 533e 60e9 f5be 8d00 063e
000001e0: 7b5e 43bd 6a4e f93e 65c1 aabd 0988 aa3d
000001f0: 3550 e83d 5171 14be 1ac5 38be 6b4c 97bd
00000200: c971 36bb 5d13 f33d 7f23 d63e ac24 da3e
00000210: 2d59 323d f54c 933d e253 823d aa8e d0bd
00000220: f6d0 a53e aaa5 6cbd 8137 883e 80d7 bebe
00000230: ff36 c9be 4d84 4abc 3af9 90bd 3517 a23e
00000240: f9ae 0a3e c94c d83b bb2b 313f 4095 543e
00000250: 9e81 7abd 3620 1f3e 1310 58bd 4186 073e
00000260: 48da 01bf 2ea1 00bd 917f 92bd c240 b83c
00000270: 4cce aebd 8f40 f6be 8c63 493f 90b4 4bbe
00000280: 0c2d 13be d33e fb3d 061f 913e ab19 b23e
00000290: 29f6 d1bd 2ce8 6abd b2bb 7ebe 8bf5 813b
000002a0: 0ee3 5bbd 4187 eabe 773d 46bf 6cbd a73e
000002b0: 223f e73d e4ed 44bc f0ab a1be 864e 773d
000002c0: d674 01bd 1426 13bf 4c81 0b3f 837d 5cbe
000002d0: b8ff 833d 7a13 27be c9ca c9bd af30 e13e
000002e0: d24d 09bc 59b0 843e 5717 df3e dcee 8b3d
000002f0: 9aaa 5cbe e757 013d 9700 1c3d 9412 1fbd
00000300: 4dc9 253e 8743 ccbc 8038 933e 68ad 79be
00000310: f00f 1fbe 1660 aabd 1925 70be 475a 623e
00000320: 6440 913c 6541 08bf bdb0 ab3e 9b42 203a
00000330: 597b a73c ae0c 55be 5eaf b23e c463 18bd
00000340: 77ec fcbe 4c4b edbd d010 61be 948b 7dbe
00000350: 64ba c53e 9d8d bcba e4e2 5abe aa69 cdbe
00000360: 202d 6b3f a67f 92be 63c8 d2bd 7b1b 42be
00000370: 3279 2cbf 14d0 23be 0422 e3bd 15cb e9bd
00000380: c414 71be e95f 57bf c6c4 6a3e 698f a5be
00000390: 5841 0e3e 5724 bdbe 6fa0 1fbd b926 11bd
000003a0: 7aa3 d23e 1508 b23c 785b 0fbf d77c 1dbe
000003b0: 4788 1dbf 2770 ffbd 6383 2d3e 5c59 ccbe
000003c0: 84ec 503e c28f febe c8d2 813c 56ac 0fbf
000003d0: 9ff6 01bf 5e72 a13c 89e2 fabe a4a1 8dbe
000003e0: b055 29be 3920 2f3e 3c6e 22be 8228 5ebe
000003f0: c43b b5bd 452e debc 8b78 54be d11c cdbe
-0.21911778 -0.12997322 -0.071119964 0.093606636 0.30543175 -0.14341137 -0.3853738 -0.5522532
0.6995023 -0.10938833 -0.09724042 -0.25680718 -0.43815637 -0.12918484 -0.2792953 -0.20547803
0.6054191 0.060305726 0.13504855 -0.10248579 -0.21815042 0.022643454 -0.05752093 0.83877933
-0.8745502 -0.108214855 -0.076366 -0.14250273 0.60109735 0.18629819 0.2657044 0.025641637
-0.008740549 0.7540098 0.06985701 0.18191822 -0.05216273 0.002462308 -0.12506954 0.20913401
-0.57489616 -0.20835482 -0.0064216526 0.15086071 0.398935 0.055558812 -0.45035583 0.021886969
-0.11236906 0.13527523 -0.20516628 0.04306719 0.019098893 -0.13881092 -0.05666863 0.021136358
-0.103826635 -0.14757836 0.0065465127 0.012583185 -0.07740209 0.89260423 -0.16882116 0.16654487
0.8058117 -0.05359536 -0.08593735 0.21290724 -0.33311 0.4042069 -0.09219655 -0.38316977
-0.23206095 0.06978719 0.01214714 -0.19675656 0.31552768 0.18642327 0.09098653 0.48737293
-0.22440459 -0.097794786 -0.13718401 -0.08137557 0.2048975 -0.17818454 -0.28442094 0.07805702
0.11005978 -0.13191333 0.2136892 0.029608048 0.08884319 0.5551895 -0.087400176 0.20526849
0.26405457 -0.048402753 0.25455332 -0.25674176 -0.35144392 -0.61045307 0.028135434 0.35146263
0.2380464 -0.4690417 -0.008974409 -0.2163163 0.23006561 0.050364662 -0.38537818 -0.09582752
0.11160573 -0.14733006 -0.371402 -0.40065074 0.009656659 0.20608746 -0.48029613 0.13086148
-0.047697525 0.48692638 -0.08337668 0.08326728 0.11343423 -0.14496352 -0.18043938 -0.073876224
-0.0027838817 0.11868928 0.41823956 0.42606103 0.043542076 0.07192413 0.063636556 -0.10183461
0.32385987 -0.057775177 0.26604846 -0.37273788 -0.3929977 -0.0123606445 -0.07078786 0.3165833
0.1354331 0.0066009504 0.6920735 0.2076006 -0.06115877 0.15539631 -0.052749705 0.13234808
-0.50723696 -0.031403713 -0.071532376 0.022491816 -0.08535442 -0.4809613 0.7866752 -0.19893098
-0.14372653 0.12267842 0.28343982 0.34785208 -0.102520294 -0.057350323 -0.24876288 0.0039660386
-0.053683333 -0.45806316 -0.7743754 0.32761705 0.112913385 -0.012019608 -0.3157649 0.06037762
-0.031605564 -0.5747998 0.54494166 -0.21532254 0.06445259 -0.16316023 -0.09853131 0.43982455
-0.00838037 0.25915793 0.43572494 0.06832668 -0.21549454 0.03157797 0.0380865 -0.038836077
0.16190071 -0.024934543 0.28754044 -0.24382555 -0.15533423 -0.08319108 -0.23451652 0.2210475
0.0177309 -0.53224784 0.33533278 0.00061134406 0.020444559 -0.20805618 0.3489942 -0.03720452
-0.49399158 -0.11586627 -0.2197907 -0.24760276 0.38618767 -0.0014385466 -0.21375614 -0.40119678
0.9186573 -0.28613013 -0.10292127 -0.18955795 -0.6737243 -0.15997344 -0.11090472 -0.11415688
-0.23543078 -0.8413072 0.22926626 -0.32335976 0.13892114 -0.36941788 -0.03897136 -0.03543732
0.41140348 0.02173237 -0.55998945 -0.15379654 -0.6153607 -0.12472563 0.16944651 -0.39911926
0.20402724 -0.49719054 0.015847579 -0.5612234 -0.5076694 0.019707855 -0.49000958 -0.27662385
-0.16536593 0.17102136 -0.15862364 -0.2169514 -0.0884929 -0.027121672 -0.20749108 -0.40061048

blocks.2.conv.5.bias f4 [16]
00000000: 1439 b1bd 625b a73f e179 473d a5de 913d
00000010: a433 a83e 4663 343e 2f07 ff3d ca54 8d3d
00000020: 7598 41bc 546b d13d 88f3 d0bd 8339 483e
00000030: 2458 933d 2ce0 f53e 6595 51be 83f2 69be
-0.08653465 1.3074763 0.048700217 0.07122544 0.328519 0.17615995 0.12452542 0.06900938
-0.011816134 0.10225549 -0.102027 0.19553189 0.07194546 0.48022592 -0.20467146 -0.22846417

blocks.2.conv.5.running_mean f4 [16]
00000000: 1b54 52bf 54c0 4d3f 1a26 a13e 2ce6 fe3b
00000010: ae82 013f d7cb 833c 5231 b9bd 7d08 84be
00000020: 2ff2 0f3f f3e3 f63e 0f46 febe 7b52 053f
00000030: 39c3 df3d 4ca8 89bf 7ea4 8ebf 8cbe 81bf
-0.82159585 0.80371594 0.31474382 0.0077789035 0.50590026 0.01608841 -0.0904261 -0.25787726
0.5622892 0.48220786 -0.49662825 0.5207898 0.10925908 -1.0754485 -1.1143949 -1.0136275

blocks.2.conv.5.running_var f4 [16]
00000000: 0619 793e ad22 2f3f f2f1 673e 87ec 483e
00000010: 0ce6 de3e 16c7 423e 1623 9c3e ad01 833e
00000020: ebe2 4a3f 2346 1e3e fd5a 953e 69f2 253e
00000030: 9ec0 ac3e cc8d 5b3e 23ff fe3e 5df0 a53e
0.24325952 0.68412286 0.22650889 0.19621478 0.43534887 0.19021258 0.30495518 0.25587216
0.792525 0.15456443 0.2917098 0.16205753 0.33740705 0.2144081 0.4980403 0.32409945

blocks.2.conv.5.weight f4 [16]
00000000: 1ff6 703f e55f 3040 ad98 923f f5fb 9e3f
00000010: 802d 4c3f 2aa4 de3e e147 343f c5eb 2d3f
00000020: 0111 2f3f 5e7a ab3f ff9d d93e 2f2b b23e
00000030: 495d f33e de11 673f afca 8a3f 96ee 7e3f
0.9412555 2.755853 1.1452843 1.2420641 0.7975693 0.43484622 0.7042218 0.6793788
0.6838532 1.3396719 0.42503354 0.3479857 0.47532108 0.9026164 1.0843104 0.99582803

blocks.3.conv.1.weight f4 [16, 1, 3, 3]
00000000: f0f7 e83d 40e6 c8be ac17 66be 736f c0bc
00000010: edef dc3d 7871 abbd 3edb 993e f79d 2f3e
00000020: 24e4 4ebd 60dd b53e 2c7b 383e d0a9 afbe
00000030: 2fb3 ae3e a238 093d 3773 bfbe 7f06 943e
00000040: a49a 21be f1c8 35be fe32 37be d015 31be
00000050: b66c 77bd e88d 1ebe 1beb 5bbe 37fb 1ebe
00000060: ddfc b5bc 5402 c0bd aa98 0fbe 4d87 afbe
00000070: 2acb a6be 77bb 31be 8f6b bd3d a8c3 8a3d
00000080: 8d06 ccbd 21b2 8c3e be6d 743e 50f3 a23e
00000090: 4e6d 7bbe efed b3bd 929a da3d 47bb f0bd
000000a0: cf8d 92bd 0ee3 71bd deec 46bb 82da 7bbd
000000b0: 3b18 84be c484 5abe 3a6c 1fbe dde2 adbd
000000c0: 4253 81be 337b 82be c6a4 02be 3dfb a8bd
000000d0: 177f 18be 316b 89bd 6289 18be 5045 dabd
000000e0: 8fb9 30bb 3087 d6bd ce56 41be a466 bbbd
000000f0: 5331 773c b763 26be be62 c3bd 76b2 3cbe
00000100: f48b 45be 7088 89bc 6e69 7abe 0daa 68be
00000110: 451e babd 16c6 0abe 4e4f 0dbe 0f59 8dbd
00000120: ebdd c7bd 6d26 cbbd 78da 9d3b bae0 f2bd
00000130: e84b 3dbe 6b7d 39bd de60 813c 07a6 44be
00000140: 209a 91be 9a52 11bd 8370 c2bd 33f1 59bd
00000150: 2408 72bd b12d 16be 6102 12be 5943 c33c
00000160: bfca cabd e20b 0dbe 3c2c 253d 5e6a e53d
00000170: b18c 043e b09a b13d 6609 563e 5079 413e
00000180: de01 433c 10c5 483e 1be2 4e3e 88c5 353e
00000190: 8211 3ebc c78d b73c 3d0f 3d3e cbb5 b53d
000001a0: 5023 58be 5d6f 333e 76bc 29bd 7774 81be
000001b0: 0e39 13be 8010 e4be bfd1 b2be 9c01 c93d
000001c0: 5dee ac3d ceed 10be 2df8 e5bc a38c b83e
000001d0: 353f 123f 82f7 0cbe fa4b 34be a9ce bebd
000001e0: 77ad 60be e259 82be cd46 6bbe d177 23be
000001f0: 9279 30be 7498 b9bd 1703 ffbd ea8b a13d
00000200: f762 0a3e b9c3 6dbe b174 8abd bb71 393e
00000210: 32bd 02be b120 3cbe 154a 39bc 03c0 40be
00000220: ebd5 1a3d abe7 953d 801d c5bd 8c1f 503d
00000230: a275 9a3d ca6a 133d 7a4c 0c3e bd19 473e
0.11375415 -0.39238167 -0.22469968 -0.023490643 0.1078795 -0.08371252 0.3005008 0.17150103
-0.05051054 0.35520458 0.18015736 -0.34309244 0.3412108 0.033501275 -0.3739259 0.28911206
-0.15781647 -0.17752434 -0.17890546 -0.17293477 -0.06040641 -0.1548382 -0.21476404 -0.15525518
-0.022215301 -0.09375444 -0.1402308 -0.34282914 -0.32576877 -0.17356668 0.09249031 0.067756
-0.09962187 0.27479652 0.23869988 0.31826258 -0.24553415 -0.087856166 0.10674013 -0.1175447
-0.07155954 -0.059054427 -0.0030353586 -0.061487682 -0.25799736 -0.21339709 -0.15568629 -0.08490536
-0.25258833 -0.2548462 -0.12758169 -0.08251045 -0.14892231 -0.06709898 -0.14896157 -0.106577516
-0.002696607 -0.10475004 -0.1888077 -0.091504365 0.015087443 -0.16248976 -0.09540318 -0.18427452
-0.19291669 -0.016788691 -0.2445428 -0.22721119 -0.09087805 -0.13552126 -0.13799784 -0.06901752
-0.09759124 -0.099194385 0.0048173033 -0.118592694 -0.18485987 -0.045285624 0.01579326 -0.1920396
-0.284379 -0.035479166 -0.09494116 -0.05320854 -0.059089795 -0.14665867 -0.1425872 0.023835825
-0.09901952 -0.13774064 0.04032539 0.112019286 0.12944295 0.086720824 0.20902023 0.18893933
0.011902301 0.19606423 0.2020344 0.17751133 -0.011600854 0.022406472 0.18462844 0.08872565
-0.2110722 0.1752295 -0.041439496 -0.25284168 -0.14377233 -0.44543839 -0.3492565 0.0981476
0.08443902 -0.14153215 -0.028072441 0.36044797 0.57127696 -0.13766292 -0.17607108 -0.09316761
-0.21941172 -0.254592 -0.22976227 -0.15963675 -0.17233875 -0.09062281 -0.12451761 0.078880146
0.13514315 -0.23219194 -0.06760538 0.18109791 -0.12767485 -0.18371846 -0.011309166 -0.18823247
0.037801664 0.07319578 -0.09624767 0.050811335 0.07541968 0.035990514 0.13701048 0.19443412

blocks.3.conv.10.weight f4 [32, 32, 3, 3]
00000000: 91fa 903d 7c7f 1bbd eff6 b1bd 1932 9ebd
00000010: bf3d a1bd b42d 733c 8636 363d a7ab dcbb
00000020: 0353 a13c b547 08bc 5f43 74bc be05 cbbc
00000030: 1d23 59bd 716e 253c cb36 ffbb 2158 283d
00000040: 5329 83bd a8c7 0a3d 4b82 2a3c 0271 ef3b
00000050: 57a6 fa3d 4e0a 3ebd 9e1d 49be 89c1 b43e
00000060: 4ff6 81bc 802b c33d ba3f 44be 98a7 313d
00000070: 861e 133c bab8 86bd 40fb 063d 06d4 263d
00000080: e2a1 1a3d 00b5 4abd 1404 dc3c 8f3a 2e3d
00000090: 2cbc ebbb a937 d73b 4107 04bd a2d4 5e3b
000000a0: ec62 2ebd b3a7 8b3d 00fe ddbc 23c8 babc
000000b0: e605 79bd b381 b53b 09fb 5fba 1c14 43bb
000000c0: 24c0 1ebe 68d4 23be d770 703e b979 623e
000000d0: 0d22 f83d 24c6 03be 8b23 a9bd bd25 803d
000000e0: db69 4dbd 5a0e d8bd fc81 0f3d 5278 aebb
000000f0: d394 fe3d 8349 da3d a0c0 8abc d80a b1bc
00000100: 0969 3b3c d570 29bd f9b0 0bbd 0b0d 4dbd
00000110: 8d0f 36bd 3110 0a3d b33e 933c 548d d53c
00000120: f844 e3bc 8cbd 253d e358 3cbe 092c 9bbd
00000130: 087a 1cbd 6c85 ad3d d0d7 483e 926f 803d
00000140: 7059 27be b56e 973c 5b90 83be 75fd 013e
00000150: 92a8 90be 2b28 60bf 3c31 563f c18e 863e
00000160: fe9d 593e 0293 aebe 5d08 80bc 9705 a7bb
00000170: 2aa3 a1bc 678e a5bd 174f c2bd 647d 40bc
00000180: 2086 ef3c 2f23 cebc 43f8 45bc 87c4 1b3d
00000190: 0bf2 bf3d c444 19be 71f2 7fbd 7636 1f3b
000001a0: 11bf 99bc 1c1b 083e 357c 9c3d da41 86bd
000001b0: 6e13 26bd b106 13bd f45a 9dbc 7c5b 823d
000001c0: 6ca8 c13c 7e81 933d 6642 8bbb 42de 06bd
000001d0: aa2a 95bd 90f1 43ba 29c8 43bc 3d53 183c
000001e0: a5d5 d33b b9f1 c5bd 8fd7 623e 2510 333e
000001f0: 1b29 2c3e 28ae d3bd ef41 8c3d 1085 033e
00000200: 3445 94bc 6799 51bd 011e 753d ae61 603d
00000210: e1ce abbc a858 7fbd 8c48 1abc 0a07 19bd
00000220: d1f5 21bc 982e 84bd 05e7 e93a a71b 9c3c
00000230: 77d1 da3c b9d2 8e3c 4338 9bbc e869 a3bc
00000240: c86d 4c3d 259c 39bd 6af2 cdbd 1744 e33d
00000250: c1e0 303e b25e d6bd dfec 0ebc b302 c73c
00000260: edae c23d e239 8ebc 56c5 89bc 22c9 67bd
00000270: a465 b43d 417d 1e3e 3434 40be e8a5 f4bd
00000280: 82e4 45bd 499d 003b 4c1a 623d c282 03bd
00000290: 1637 d4b9 1ed7 8dbd 0d12 13bd 72b0 793d
000002a0: f0ee 283d 09ae 583c 52c3 05bd 5f06 a9bc
000002b0: 27e2 febc a1a4 0dbd 6f70 913b c693 263d
000002c0: 4c89 063c 7492 1e3c 78ef 85bb 9c6e 533c
000002d0: f750 8a3c 6e41 04bd ddf6 21bd 6e7e 883d
000002e0: 11c1 7c3d a83f 96bd 81b1 2fbd 61f2 94bd
000002f0: 7ca7 c0bd 091b 1fbc 6324 b0bd 73a4 32be
00000300: 4130 0fbe bb4b aebe b7b4 9d3e d59e 103e
00000310: 48d8 bd3d 7037 23be 6929 f6bc 70c4 80bc
00000320: 7102 05bd 9219 0d3d eeea 3e3c e108 91bc
00000330: 448c d63c 2d88 1cbd bb08 4cbd 6e82 60bd
00000340: 7678 13bd 6aac f5bc ac54 5e3d c2c8 6c3d
00000350: 9901 96bd 213b a33a 49ca 073d 2fcd 2bbd
00000360: 3020 26bc 1838 5bbd 2a6e 43bd 0623 e43b
00000370: 13e0 e0bc 30db 963a 06f1 fb3c c7f9 1fbd
00000380: 0524 a2bd 2ae7 ad3c 5957 d13c ae49 86bd
00000390: 4ea2 1ebc c43b 873c 8b1c 10be 75cd 95bd
000003a0: 1021 c5bd 91e8 7bbd b2d6 6fbd 1373 0fbd
000003b0: 1dda a7bc 6773 dfbc bebb 1dbd fb2b 59bd
000003c0: 2464 39bd c7eb adbd a266 86bd 6ff2 71bc
000003d0: 90c3 45bd ca7c 5fbb 00d8 b6bc 000e 803a
000003e0: b3d5 4abd 2c70 08be 5d3c b5bd ea95 8f3c
000003f0: 9c78 fa3b 66e9 d23c de4b 183d 0e89 85bd
0.07079042 -0.037963375 -0.08689677 -0.07724399 -0.07873105 0.014842439 0.04448559 -0.0067343297
0.019692903 -0.008317878 -0.014908641 -0.024783012 -0.053012002 0.010097132 -0.0077885143 0.04109967
-0.06404366 0.033881813 0.010407041 0.0073071728 0.12238758 -0.046396546 -0.19640204 0.35303906
-0.01586452 0.09529781 -0.19164935 0.04337272 0.008979445 -0.065782025 0.032954454 0.040729545
0.03775204 -0.04948902 0.026857413 0.042536315 -0.0071940627 0.0065679145 -0.03223348 0.003400125
-0.042574808 0.068190955 -0.027098656 -0.02280051 -0.06079664 0.005539143 -0.0008544182 -0.0029766625
-0.15502983 -0.15998995 0.23480545 0.22116746 0.1211587 -0.12868553 -0.082587324 0.06257198
-0.05014978 -0.10549612 0.035036072 -0.005324402 0.1243073 0.106585525 -0.016937554 -0.021611616
0.011438617 -0.04136737 -0.03410432 -0.050061267 -0.044448424 0.033706848 0.017974233 0.026068367
-0.027742848 0.04046397 -0.18393283 -0.075767584 -0.038202316 0.08472714 0.19613576 0.0627128
-0.16342711 0.018485406 -0.25696072 0.12694342 -0.2825361 -0.8756129 0.83668876 0.26280788
0.21251675 -0.34096533 -0.015628988 -0.005097102 -0.019731123 -0.08083802 -0.094877414 -0.011748645
0.02923876 -0.025163261 -0.012083116 0.03802922 0.09372338 -0.14967638 -0.06248707 0.0024293936
-0.018767865 0.13291591 0.07640878 -0.06555529 -0.040545873 -0.035895053 -0.019208409 0.063651055
0.02363988 0.07202433 -0.0042498587 -0.032926805 -0.07283528 -0.0007474655 -0.011949577 0.009297189
0.0064646774 -0.096652456 0.22152542 0.17486627 0.16812555 -0.10335952 0.06848513 0.12843728
-0.018099405 -0.051171687 0.059843067 0.054780655 -0.020972671 -0.06234041 -0.009416711 -0.03736023
-0.009885267 -0.064541996 0.0017845338 0.019056154 0.026711209 0.017434465 -0.018947726 -0.019947961
0.049909383 -0.045314927 -0.100560024 0.110969715 0.17273237 -0.104672804 -0.008723467 0.02429328
0.09506021 -0.017361585 -0.01681773 -0.0565883 0.08808449 0.15477468 -0.18769914 -0.119457066
-0.048313625 0.0019625 0.05520086 -0.032107122 -0.00040476833 -0.06925796 -0.035905886 0.060959287
0.041243494 0.013225087 -0.032656975 -0.02063292 -0.031113697 -0.03458083 0.004438452 0.04066827
0.008211445 0.009678472 -0.004087385 0.012904789 0.01688431 -0.03228896 -0.039542068 0.066647395
0.06170756 -0.0733636 -0.04289389 -0.072727926 -0.09406945 -0.0097110355 -0.0860069 -0.17445545
-0.13983251 -0.34042153 0.30801937 0.1412309 0.09269768 -0.15939116 -0.030049043 -0.015718669
-0.03247303 0.034448214 0.011652691 -0.01770443 0.02618993 -0.038215805 -0.049813014 -0.054811887
-0.036003552 -0.02998944 0.05427997 0.057808645 -0.073245235 0.0012453535 0.0331519 -0.041943725
-0.01013951 -0.053520292 -0.047712483 0.006962183 -0.027450597 0.0011509415 0.030754577 -0.039056566
-0.079170264 0.021228392 0.025554346 -0.06557022 -0.009682251 0.01650799 -0.14073388 -0.073145784
-0.09625447 -0.06150109 -0.05855436 -0.035021853 -0.020489747 -0.027276708 -0.038509123 -0.05302046
-0.045261517 -0.084922366 -0.065625444 -0.014767273 -0.048282206 -0.003410148 -0.022319794 0.0009769797
-0.049520206 -0.1332404 -0.08849404 0.01752754 0.0076437723 0.025746059 0.037181728 -0.06520282

blocks.3.conv.11.bias f4 [32]
00000000: 5e7d a5bf 081e e5be 485e 72be 5acc d0be
00000010: 7cc3 0cbf 519c 183c b060 26be 1be0 18be
00000020: 04c2 0dbf 2bb2 0bbf d0a7 05bf 40fe 52bf
00000030: 2d77 47bf fc07 c8be 0be3 fcbe d71d 74be
00000040: 2391 eebe e7e0 a6bd e62a 41bf 7332 bebe
00000050: f018 94be 50a9 5abf c0f6 13be 2071 7abe
00000060: 812d e6be 7c46 28bf 6cb8 7fbe 5c92 97be
00000070: 5f71 b73b e118 bdbc 2ff5 82be c160 00be
-1.2928884 -0.44749475 -0.23668778 -0.40780908 -0.54985785 0.0093146125 -0.16247821 -0.1492924
-0.5537417 -0.5456874 -0.52209187 -0.82419205 -0.7791622 -0.39068592 -0.4939197 -0.23839508
-0.46595106 -0.081483655 -0.7545608 -0.37147865 -0.28925276 -0.854146 -0.14449596 -0.24457216
-0.44956592 -0.6573255 -0.24972695 -0.2960385 0.0055982317 -0.023083152 -0.25577685 -0.12536909

blocks.3.conv.11.running_mean f4 [32]
00000000: 166e d2be 809a 72bf c277 11bf 1b23 1abf
00000010: 459b 04bf c936 e2bf e903 99bf 338b 88be
00000020: d968 f6be 4d08 89bf b5c2 a1be 44b8 59bf
00000030: aa0b 87bf c016 aebf f499 7abf cd98 59bf
00000040: 0471 44bf 22d4 14bf fbe6 a7bf 523b b5bf
00000050: 15ce 13bf a2e1 4fbf ed4b 11bf c89d 87be
00000060: 83ad bdbe 8f54 9ebf cb97 c43e 7380 e9be
00000070: f08e f23c 5995 37be 8855 55bf 9891 823e
-0.41099614 -0.94767 -0.5682336 -0.60209817 -0.5179942 -1.7672969 -1.1954318 -0.266687
-0.48126867 -1.0705658 -0.31593862 -0.8504679 -1.0550435 -1.3600693 -0.97891164 -0.8499878
-0.7673495 -0.5813619 -1.3117365 -1.4158728 -0.5773633 -0.81203663 -0.5675648 -0.26487565
-0.3704644 -1.2369555 0.3839706 -0.4560581 0.029609174 -0.17928065 -0.83333635 0.25501704

blocks.3.conv.11.running_var f4 [32]
00000000: 5670 d73e f40d 2e3f 8251 603f 7709 7c3f
00000010: 3e4e fb3f f126 e340 d855 b13f 680b 3940
00000020: 9b95 513f a8a8 1b40 1df6 ff3e ba34 663f
00000030: 4f91 5e3f 9cfa b03f 051b d53f 789b 3c40
00000040: fadc 933f 70eb fa3f 8a58 443f fc96 fe3f
00000050: 90fb 963f e6e9 113f cc27 193f 6123 be3e
00000060: 64bc b23e a43e ba3e a422 0f40 f18a 843f
00000070: ef5d 0740 b897 4740 85ed c33f 6afa a940
0.42077893 0.6799004 0.8762437 0.9845194 1.9633253 7.0985036 1.3854322 2.8913212
0.81868905 2.432169 0.49992457 0.89924204 0.86940473 1.382648 1.6648871 2.946989
1.1551812 1.96031 0.766976 1.9889827 1.1795521 0.56997526 0.5982635 0.37136367
0.34909356 0.36375916 2.2364893 1.0354902 2.1151083 3.1186352 1.530686 5.311818

blocks.3.conv.11.weight f4 [32]
00000000: f4ff 713f ed3b e03e ae7c 013f 860f 193f
00000010: feb0 4e3f a90d 2b3f 8aa5 153f 1fcb 253f
00000020: 8395 373f 4613 823f e5d8 273f 9bcf 703f
00000030: c1be 573f bb34 003f 6b95 4b3f 0cfd 493f
00000040: d81c 333f b025 0d3f 1500 593f c6e5 433f
00000050: 688d ea3e e26f 6c3f 9dc3 dc3e 2dd7 dd3e
00000060: f3ad 133f 6576 353f d6c6 163f aa1c 223f
00000070: 6a37 f93e 603e 423f ca80 263f 47a5 2c3f
0.9453118 0.4379572 0.5058087 0.5978931 0.8073882 0.6681772 0.5845572 0.64763063
0.7171251 1.0162132 0.6556533 0.9406678 0.8427544 0.5008046 0.7952487 0.78901744
0.6996589 0.5513563 0.8476575 0.7652248 0.4581101 0.9235822 0.4311799 0.4332823
0.576873 0.7088378 0.5889715 0.6332499 0.4867509 0.75876427 0.65040267 0.67439693

blocks.3.conv.13.bias f4 [16]
00000000: b83d b8b6 cf60 3bb9 5c1e ab39 cf96 8a39
00000010: f86c 4cb9 f2a8 d839 362c 12ba d5d9 a3ba
00000020: db0e 683a c7ef 2fb9 272c b038 9a08 8d39
00000030: beee 1eb9 879b 7b3a cd2e b1b9 28b4 8bb9
-5.4908123e-06 -0.00017869774 0.0003263828 0.00026433772 -0.0001949555 0.00041324605 -0.0005576046 -0.0012500832
0.00088523113 -0.00016778625 8.400558e-05 0.00026900024 -0.00015156993 0.00095980655 -0.0003379494 -0.00026646373

blocks.3.conv.13.weight f4 [32, 16, 4, 4]
00000000: d70c 56bd f041 f3bc bf1f e6bb dcc5 603e
00000010: af99 43bd 7b34 063d 71fa b53d 77be 05be
00000020: 74e0 4bbd edce 8e3d 0f1f a83e 1c16 0abe
00000030: 6a8f 51bd 01aa 12bd 5611 06be 3145 35be
00000040: f632 123d c087 323d e173 aebd b303 2fbd
00000050: fd99 843d b423 173e 792e 0c3d b1fd 14be
00000060: 2de0 e9bc ce51 503d 34b0 753d e585 de3d
00000070: e0ad 96bc b39c 82bd 48f6 cebd 5a2b 08be
00000080: 73c0 46bb 3e46 dc3c 6084 babd 9aac 6ebe
00000090: c375 f0bd 4143 bebd a623 8abe 1796 613c
000000a0: 75dc 15be e017 9bbe 6721 d9bd 7907 2bbc
000000b0: 5f59 32be edee 1ebe f3b4 1b3d ae02 fbbd
000000c0: 38aa 2d3e d913 473e a91d 773e 93b8 aabd
000000d0: 7966 2fbd 3e9f 60bd 5655 16be 7347 9abd
000000e0: 3b2f b33d 2a9e 213d b586 d53e 65c1 c43e
000000f0: 0e0d 9fbd 1853 4f3a 2155 323d 8d2f c7bd
00000100: 4e17 1abe 322a d7bd ba06 2f3d eca8 623e
00000110: a83a 1e3e c78a 8f3c f83a ebbc 6a49 973b
00000120: f4fa 85bd fe19 6abe 8f3d 44be 9f44 633e
00000130: e775 e1bd f7a0 1e3d febc b33d 56d4 923e
00000140: bac0 d6bd 3e7d 6c3e 8b00 893d 6e92 f53d
00000150: 9a61 efbd d7d7 f63e c97e 8dbe c54e 013f
00000160: be12 82bd 6698 cabd 0a3d 083e 1374 283e
00000170: de12 19bd 5249 11bd bea8 84bd 442f d63c
00000180: fb05 79bd 109b 03bd 627a 213b 996f 853d
00000190: 7638 87bd 696e e13c af83 b23e 0b53 5bbb
000001a0: d9c1 803c 518d fe3b 2a4a 353e 6deb 8cbd
000001b0: 2559 13bd 16a3 223d c957 a6bc d5a3 a8bd
000001c0: 6851 f8bd 85a3 19be de32 45be 77b8 d3bd
000001d0: 23ab 0fbe ceb5 2cbe be56 4dbe 2670 cbbd
000001e0: 6b88 bdbb 1700 1fbe 202e 47be 2b65 34be
000001f0: 6fed 8f3d 1114 d53d dcec 5fbd f06e 9b3d
00000200: 4b9d eab9 3841 cdbc 25a6 edbd d6e3 42bc
00000210: e258 343b 2db5 4dbc 3f5b 0f3c 9dfb 40bd
00000220: 9ded 00bd 0834 883d 109c 303d 628a 023d
00000230: 9b42 4b3b 721c 483d 750b bb3c 3111 453d
00000240: e8a7 52be d532 86be 7a4d edbd 72cf 13be
00000250: a6aa d23d 133c eabd 6246 6a3d 96a1 a7bc
00000260: e8e8 b03e 2706 993e da24 5ebd a3df a0bd
00000270: 5158 a7ba cec6 12bd c80b ff3c 0eea 74bd
00000280: 6185 243d a358 9c3d f18a 11bc 4836 35be
00000290: 0645 cfbd 2def d43e 7c29 11be d387 20be
000002a0: 08c1 cfbd 0e8a d33c e238 103d 9240 013e
000002b0: f1f4 8bbd 0cb3 b2bc d50f 69bc 5319 81bd
000002c0: 7a7c 80bd 7b5f 0f3e 4880 f83d fd67 af3d
000002d0: f073 6dbd bbb4 913e 9765 41bd b8a4 893c
000002e0: 6fc5 dabd 5b0c dcbd 048e aa3d d5d3 3cbd
000002f0: 94ef d13c e279 84bd 2aad c0bd c170 bebd
00000300: ab22 30bc 485e ddbd 99d2 2dbd 3b3f 90bd
00000310: 2848 a8bc 9dee a7bc 5553 2c3e 9612 433c
00000320: 15e8 5a3c 5483 98bd b6f3 70bd cfc8 0d3e
00000330: 4d89 efbd 759a 94bc ac1d c63d a08e 87bc
00000340: 0952 a2bd 1249 a63d d6c0 00be d839 dabd
00000350: 6049 55bd 5438 193d d030 0bbe 79bd 13be
00000360: 0e4f 85be 8da3 d1be f839 01be c655 08bd
00000370: 43b4 96bd aa34 efbd b0df b43c ac0a 2cbd
00000380: 7a00 f13c aa80 88bb 2c56 843c ec13 0ebd
00000390: 50a7 703e 5b59 d0bb 0148 753d d411 2ebd
000003a0: 4c51 9fbd 0355 97bc d0ff 1dbd 20b6 c8bc
000003b0: 6c93 afbd 01b2 56bd c083 8cbd fe4a a1bc
000003c0: a1ce a6b8 88db 0d3d bdc6 a0bc b0e0 23bd
000003d0: cbfe f7bd 8026 0cbe e6cf b4bd 2c5a c2bd
000003e0: cfd1 a3bc b4fc 98bd a8c9 3dbc 59f5 2ebd
000003f0: f0d6 20be f62e 52bd 1785 c93b f8dd b8bc
-0.05225834 -0.029694527 -0.0070228274 0.21950477 -0.047753986 0.032764893 0.088856585 -0.13060938
-0.049774602 0.06973062 0.32836196 -0.13484997 -0.05116216 -0.03580666 -0.1309255 -0.17702176
0.03569313 0.043586493 -0.08518196 -0.042728137 0.064746834 0.14759713 0.034224007 -0.145499
-0.028549278 0.050859265 0.059982494 0.10865382 -0.018393457 -0.06377544 -0.10105568 -0.13297787
-0.003032711 0.026888963 -0.0910728 -0.2330803 -0.11741211 -0.092901714 -0.26980323 0.013768694
-0.14634879 -0.30291653 -0.10602074 -0.010438793 -0.17416905 -0.1552083 0.038014363 -0.122563705
0.16959465 0.19441165 0.24132408 -0.08335986 -0.042822335 -0.054839365 -0.1468099 -0.07533159
0.08749243 0.039457478 0.41704336 0.38428798 -0.07766162 0.0007908805 0.043538217 -0.097258665
-0.15047953 -0.10506095 0.042731024 0.22134751 0.15452063 0.017522229 -0.028714642 0.004616906
-0.06542006 -0.22861478 -0.19164108 0.22194146 -0.11008816 0.038727727 0.08776282 0.28677624
-0.104859784 0.23094651 0.06689557 0.1199082 -0.11688538 0.48211548 -0.27635792 0.5051082
-0.06351231 -0.09892349 0.13304535 0.16450529 -0.03737151 -0.035470314 -0.064774975 0.026145585
-0.06079672 -0.0321303 0.0024639596 0.06515426 -0.06602566 0.027518468 0.34866092 -0.0033466246
0.015717434 0.007768311 0.17704073 -0.068808414 -0.035973687 0.039706312 -0.020305531 -0.082343735
-0.12124902 -0.15003784 -0.19257686 -0.10337918 -0.14030127 -0.16866228 -0.20052621 -0.099335
-0.0057840846 -0.15527378 -0.19451189 -0.17616718 0.07027709 0.10404218 -0.054669246 0.07589519
-0.0004474915 -0.025055513 -0.11603955 -0.011895141 0.0027518799 -0.012555403 0.008749782 -0.047114957
-0.031476606 0.06650549 0.043117583 0.031870253 0.0031015042 0.048855253 0.022832612 0.048112098
-0.20571864 -0.26210657 -0.11587043 -0.14434603 0.10286455 -0.114372395 0.05719603 -0.020462792
0.34552693 0.29887506 -0.054234363 -0.07855155 -0.0012767409 -0.035834126 0.031133547 -0.059793524
0.040166263 0.076340936 -0.008883224 -0.17696488 -0.10120587 0.41588727 -0.14175981 -0.15676813
-0.1014424 0.025822666 0.035210498 0.12622288 -0.06833828 -0.021813892 -0.014224966 -0.06303658
-0.06273742 0.14001267 0.12133843 0.08564756 -0.057971895 0.284582 -0.047216024 0.016802177
-0.10682189 -0.10744544 0.083278686 -0.046100456 0.025626935 -0.0646856 -0.094080284 -0.0929885
-0.010750453 -0.10808998 -0.04243717 -0.0704331 -0.02054222 -0.020499522 0.16828664 0.011906287
0.013360997 -0.07446924 -0.05882617 0.13846134 -0.1169611 -0.018140057 0.09673628 -0.016547501
-0.07925803 0.08119406 -0.12573561 -0.10655564 -0.05207193 0.037407234 -0.13592839 -0.14427747
-0.26036876 -0.40945092 -0.1261977 -0.033284925 -0.07358601 -0.11679967 0.022079319 -0.042002365
0.029419173 -0.0041657286 0.016154371 -0.034686968 0.23501325 -0.0063583083 0.05988312 -0.04249747
-0.07779178 -0.018473154 -0.03857404 -0.024500906 -0.0857304 -0.05241585 -0.06861067 -0.01968908
-7.9539845e-05 0.03463319 -0.019626016 -0.0400092 -0.12109145 -0.13686562 -0.08828716 -0.09489855
-0.019997505 -0.07470074 -0.011583723 -0.04271445 -0.15706992 -0.051314317 0.0061498987 -0.02256678

blocks.3.conv.14.bias f4 [16]
00000000: b2f0 b0be ea42 b73f 19cb e03d 4d82 85be
00000010: 4f07 dd3e a835 18be f4cd 03bf c6fd 893d
00000020: 36e3 e93e 2ef9 83bd 7467 403d 9b9e 2a3e
00000030: a657 8dbd 9b29 e33e d342 bdbe 82ee d1be
-0.34558636 1.4317296 0.10976238 -0.26075974 0.4316964 -0.14864218 -0.51486135 0.067378566
0.4568116 -0.06444012 0.04697366 0.16662066 -0.06901483 0.4436768 -0.36965045 -0.4100228

blocks.3.conv.14.running_mean f4 [16]
00000000: aaa5 abbc 9c2b a2bd 9c6b cbbd 37b0 1e3c
00000010: 75a7 913b a19e 6e3c 2abe 96bc b236 77be
00000020: 8a87 b33d 83e9 823c a4c1 cb3c e9f7 003d
00000030: 4f57 94bd 4d7c 61bd 2e14 cdbc 160e bbbd
-0.020953018 -0.07918474 -0.09932634 0.009685568 0.0044450113 0.014564187 -0.018401224 -0.24141958
0.087660864 0.015980488 0.024872608 0.031486426 -0.07243215 -0.055050183 -0.025034036 -0.09133546

blocks.3.conv.14.running_var f4 [16]
00000000: 0c7f 383d 46ba d03c 58f4 ca3c 3501 5d3d
00000010: 9848 8d3d c27d 873d 3307 6a3d 62dc 553e
00000020: 138c fc3d e216 353d fae2 013e 59ef 253e
00000030: 6cce 993d a033 633d d704 f13c bb4c 3d3d
0.045043036 0.025479447 0.024774715 0.05395623 0.06898612 0.06615783 0.057135772 0.2088485
0.123314045 0.044211276 0.12684241 0.16204585 0.07510075 0.055469155 0.029421253 0.046215754

blocks.3.conv.14.weight f4 [16]
00000000: 2d8e 813e c650 1a3e 0de8 673e 48f5 4c3f
00000010: faa9 933e ca5f 313f a121 3f3e 2ce5 5d3f
00000020: 2307 503f 1146 a93e a23b d13e 2ed0 493f
00000030: 780a 823e 898d 873e 6a13 fa3c 3a54 ff3d
0.25303784 0.15069875 0.22647114 0.8006177 0.2884062 0.6928679 0.18665172 0.86677814
0.8126089 0.3306127 0.4086581 0.7883328 0.25398612 0.2647517 0.030526835 0.12467237

blocks.3.conv.2.bias f4 [16]
00000000: adb9 da3d c878 b8bd d0ba 0c3f 115c b03b
00000010: 539e 273f a7ac f63e ca2f d63c ff23 153f
00000020: 7dc9 013f 76cb bf3e 1a57 a43e 0e9e 84bc
00000030: 68f5 81bd 0851 9c3f 80ff be3e 8b07 213e
0.10679946 -0.09007412 0.54972553 0.005382069 0.6547596 0.48178598 0.026145834 0.5825805
0.5069807 0.37459916 0.32097703 -0.016188648 -0.06345636 1.2212229 0.37304306 0.15725534

blocks.3.conv.2.running_mean f4 [16]
00000000: 62ca adbc b705 c83e 02ee 12bf 0abf 703c
00000010: 3a4b 3cbf 72f7 08bf 96f5 96be eca9 9cbe
00000020: 44e9 0dbe 8a82 98be 8c78 363e 2aa5 993d
00000030: 789f ea3c b03a b8bf d4b4 aabd 8227 623d
-0.021214668 0.3906686 -0.5739442 0.014693985 -0.73552287 -0.5350257 -0.29484242 -0.3059839
-0.13858515 -0.29787093 0.17819422 0.07502206 0.028640494 -1.439291 -0.083352715 0.05521346

blocks.3.conv.2.running_var f4 [16]
00000000: 32c8 853c 7ba2 4d3f 53e7 5f3f 4a0e fa3e
00000010: 581a 033f 31af 213e 26f4 d63d 2f13 a63d
00000020: 28ce e43c 43fa 913e b38f 693d 3f7d 073d
00000030: 7c7d ce3c 64d9 d43f 95a9 aa3c 58e3 6f3c
0.016330812 0.8032605 0.8746235 0.48839027 0.5121207 0.15789486 0.10495786 0.08109128
0.027930334 0.28511247 0.057021808 0.03307843 0.02520632 1.6628842 0.020832816 0.014641605

blocks.3.conv.2.weight f4 [16]
00000000: 87da c73d 9523 593e 6e95 6b3e 2c60 e43e
00000010: 4551 733e 1ae1 c63e d742 e73e 5483 783e
00000020: 69b6 893e 7a11 523e 7263 843e ebf0 323e
00000030: 1770 c83e 6f3a ee3e 868c d83d 8814 a03d
0.09758478 0.2120498 0.23006222 0.44604623 0.2376147 0.38843614 0.45168182 0.24268848
0.2689698 0.2051448 0.2585712 0.17474715 0.39148018 0.46528956 0.10573678 0.07816416

blocks.3.conv.4.weight f4 [32, 16, 3, 3]
00000000: 06e6 84ba 38cf ea3d 3253 ea3d 93aa e8bc
00000010: 8924 6f3c a0bb 683c 1514 ff3c 026f 1b3d
00000020: c1d8 a13c c5e5 f73b 6252 3a3c bb85 b53a
00000030: f99e 663d 18bf 193c 6953 0cbd ff26 8c3d
00000040: 3a33 e4bb 1e3b 25bd 95de 6cbd 85fd b9bd
00000050: 684f 71bd 4880 0fbe 6715 3bbe c35c 0cbe
00000060: c66d 9abd 17a1 abbd cdfd 98bd b724 09bc
00000070: bee9 c03c 25ad e33c 593c 183d 0444 153d
00000080: 125e 9c3c 3894 bebb d4e0 c2bc e9da 3cbc
00000090: 1116 edbd 2936 20be 425f d3bd 0a16 0ebe
000000a0: d4a6 cebd 5614 7c3b e73e d03c 25b8 c43d
000000b0: 96eb f13d 8e5e 603b 6af6 483d 0d2d 5e3d
000000c0: ecd5 8fbc a9fa 4a3b bc76 293c 8724 78bd
000000d0: ceaf 01bd 9bae cabc 869b c7bc fe62 293d
000000e0: 97f5 403d d66f 15bc 0f4d 72bc ab2a 0d3c
000000f0: e492 c6bc 3ab5 6ebd cdf8 42bd 8e89 a53d
00000100: 6d73 cd3d 03ca cebc 0668 cabd 8f76 6ebe
00000110: ecc7 15be dbc8 33be 09f8 0abe e624 f43c
00000120: a615 35bc 5a0a 06bd f615 17bd 3ba5 29bb
00000130: f085 7a3d 2335 b03c 0426 ec3d 4956 aa3d
00000140: 9bdc c8bb ffa8 833d 21a9 0d3d dbbb efbb
00000150: 4b55 2ebd eb5a e4bc a9cf 4fbc 1197 82bd
00000160: 0860 2a3c fd9f 0d3d 2e9e a23c 2ac7 a83c
00000170: e7d4 a6bc 58fa 08bd ffd1 ddbd fab4 08be
00000180: 9fcd 8bbc e37b bdbd 198f d2bd 69fe f03b
00000190: dd25 93bc 1274 1cbd 298f 253c 1368 c23c
000001a0: 03b3 bc39 9a20 7a3b 545f 2ebb 9197 0ebc
000001b0: 8c9b 19bc c068 413c e8f2 963c 46c3 f53c
000001c0: f5eb 0c3d 2c4a 953c 1ab5 933c 0537 f43b
000001d0: ce00 f6bb e4b3 63bd 709e 413e 0984 4f3e
000001e0: 674c 9e3e 9ee7 8b3e a1c2 fe3d 76c3 263d
000001f0: d093 28be 7d05 5cbe 9bfe 1ebc ea35 7cbd
00000200: c8dd e8bd 5e04 ba3d 325c c93c 6e3d 82bd
00000210: d817 813a bfc1 1dbd b557 79bd 26e3 eb3d
00000220: e5a9 703d 51ff b7ba 3b45 bbbc 3efb 683c
00000230: d331 ccbb 3d97 d13c 57b9 023e 72b7 0e3e
00000240: 4696 a73c c2f7 2d3d dff7 a83c 4519 d23a
00000250: 9aa7 093d c741 bd3d a50c c4bd d519 8fbb
00000260: 0d8d 1cbd dab5 693c 809e e53c e17e d8bc
00000270: a6a8 2a3d abc4 9a3a beed 9dbd 24c7 6f3c
00000280: e50b 16bd 9c92 a8bd 869c 02be b6b9 2ebe
00000290: 45d0 a5bd 5ce6 fcbd 97b1 49be d178 27be
000002a0: fab8 f2bd dbcc 29be df9b f3bd 0830 bd3c
000002b0: 5522 1c3d 380d 383d 5307 f9bc 36ee a83c
000002c0: 48fc fabc 424a af3b 458a f8bb c2f9 0fbd
000002d0: e4b2 d9bd d96b 53bd a64f b5bc 273b dabd
000002e0: c230 4fbd 07b0 723c 2dbf 65bd 1160 9f3c
000002f0: b3fa 953d 195b 5b3d 8ddc e5bb 9825 e0bd
00000300: b2ff 043d 15a5 c3bd a9a0 36bd ac6a 683c
00000310: 92ec 9fbd ae97 c13b b4fa e23d 219d 173e
00000320: 7cff cf3d 2a88 2e3e 5cb7 273e c68b 9e3d
00000330: 54cf 2f3d ceef 553d 9a81 babc b011 8ebd
00000340: b54b 39bc 1f0f 7b3d 823e 7abd 97f8 b8bd
00000350: cbfd bcbb b95c a23c 0ecd abbd d912 fbbc
00000360: 6225 c1bc cb33 04bd a9fc 15be 4b98 14bd
00000370: 0c4d 37bd 357d 17bd 1235 aa3d ee82 093e
00000380: 253d 3f3e 216b b83d 2a47 9f3d 1beb a73d
00000390: 6191 843c dc2c 523d 386e 803c f015 b2bd
000003a0: 5dd1 54bd ef6f 363c bc89 84bd aa74 a5bd
000003b0: 76b0 29be a20e 17bd 8c87 29be 2a33 65be
000003c0: d18f afbc 9138 87be 119f 96be 5384 ba3c
000003d0: 5851 d23c bd04 05bd cdf8 dcba c167 4a3c
000003e0: f5f7 5cbd b759 8ebb 4444 52bc e688 59bd
000003f0: b383 04bd 060a 2d3b 4790 f43c 62d9 d2bc
-0.0010139353 0.11465305 0.114416495 -0.028401649 0.014596113 0.01420489 0.031137506 0.037947662
0.019756677 0.0075652325 0.011372181 0.0013849059 0.056303952 0.009383939 -0.034259234 0.068433754
-0.0069641145 -0.04033958 -0.05782946 -0.09081558 -0.05891362 -0.14013779 -0.18269883 -0.13707261
-0.07540469 -0.08380335 -0.07470284 -0.00837057 0.023548957 0.027792523 0.037166927 0.036441818
0.019087825 -0.005816009 -0.023788847 -0.011526802 -0.115764745 -0.1564566 -0.10320903 -0.13875595
-0.10090414 0.003846427 0.02542062 0.09605435 0.118125126 0.0034236046 0.049063124 0.054242183
-0.01755806 0.003097216 0.01034325 -0.06058171 -0.0316618 -0.024741462 -0.024366152 0.041354172
0.047109213 -0.009120902 -0.01478888 0.00861613 -0.024239965 -0.0582783 -0.047600556 0.08082877
0.10031781 -0.025242811 -0.09883122 -0.23287414 -0.14627045 -0.17557089 -0.1357118 0.02980275
-0.011052525 -0.032724716 -0.036886178 -0.0025885839 0.06116289 0.021509713 0.115306884 0.08317239
-0.006129814 0.06428718 0.034585122 -0.0073160953 -0.04256181 -0.027875384 -0.012683787 -0.0637647
0.010398872 0.034576405 0.019850817 0.020602781 -0.020365192 -0.03344187 -0.10831069 -0.13350287
-0.017065821 -0.09252145 -0.102812 0.007354547 -0.01796239 -0.03819663 0.010104933 0.023731267
0.00035991528 0.0038166405 -0.0026607113 -0.008703128 -0.009375464 0.0118047595 0.018426374 0.03000034
0.034404714 0.018223844 0.018030692 0.007452848 -0.00750742 -0.05559148 0.18908095 0.20265211
0.30917665 0.27325147 0.12439466 0.04071375 -0.16462636 -0.21486469 -0.009704257 -0.061574854
-0.113704264 0.09082864 0.024580095 -0.06359373 0.0009849025 -0.03851485 -0.06087466 0.115179345
0.058755774 -0.0014037882 -0.02286016 0.014220057 -0.0062315254 0.025584811 0.12766014 0.13937166
0.020457398 0.04247261 0.020626007 0.001602926 0.033607103 0.09241062 -0.09572724 -0.004367093
-0.038220454 0.014264548 0.02802968 -0.026427688 0.041664742 0.0011807879 -0.07711361 0.014634881
-0.036632437 -0.082310885 -0.12755021 -0.1706303 -0.08096365 -0.12348625 -0.19696651 -0.16354682
-0.11851688 -0.16582052 -0.118949644 0.023094192 0.03811868 0.04493448 -0.030399 0.0206214
-0.030637875 0.0053494284 -0.0075848424 -0.035150297 -0.10629824 -0.051616523 -0.022132706 -0.10655814
-0.05058361 0.014812476 -0.056090523 0.019454988 0.07323208 0.053553674 -0.007014817 -0.109446704
0.032470413 -0.09552971 -0.04458681 0.014185589 -0.07808794 0.005907974 0.11082974 0.14806034
0.10156152 0.1704413 0.1637854 0.077415034 0.042922333 0.05223065 -0.022766877 -0.069369674
-0.011309554 0.061293717 -0.06109477 -0.0903179 -0.005767559 0.019819604 -0.083887205 -0.030648636
-0.023577396 -0.032275956 -0.14647163 -0.03627805 -0.044751212 -0.03698464 0.083109036 0.13428852
0.18675669 0.09004808 0.07777245 0.0819914 0.016182603 0.051312312 0.015677556 -0.086955905
-0.051957477 0.0111350855 -0.06471583 -0.080788925 -0.16571221 -0.03687919 -0.16555613 -0.22382799
-0.021430882 -0.26410344 -0.29418233 0.022768175 0.025673553 -0.032475222 -0.0016858816 0.012353838
-0.053947408 -0.004344191 -0.012833659 -0.053109072 -0.03235216 0.002640368 0.029853953 -0.025738422

blocks.3.conv.5.bias f4 [32]
00000000: 17f8 763e a2ff a13e 2b71 16bf 29a9 bc3e
00000010: 9582 813e 983c 4bbe f098 ecbd 30b3 55be
00000020: 1142 6f3e 63a6 a0be fb7b 8abe 4a3e 17be
00000030: 6132 d03e 62ab 6e3e 0b7a 423f 76a8 8c3e
00000040: fa9a 183f ac92 5e3e 0363 973e 7cd2 8c3e
00000050: 65d8 9e3d 858d 223e 5a03 f83d ad46 2b3d
00000060: 2d07 6ebd e6b6 333e 5965 e3bc ad2a b03d
00000070: eb68 763e 090f d63e 4cdc 5f3e e67c 99bd
0.24118076 0.31640345 -0.5876643 0.3684781 0.2529494 -0.19847333 -0.11552608 -0.20869136
0.23365046 -0.31376943 -0.27047715 -0.14769855 0.40663436 0.23307565 0.7596747 0.27472275
0.59611475 0.21735638 0.29567727 0.27504337 0.07756118 0.15874298 0.12110014 0.04181545
-0.058112312 0.17550239 -0.027758287 0.0860189 0.2406346 0.41808346 0.2186138 -0.074945256
